module @compiled_clip {
  util.global private @_params.text_encoder_model.text_model.embeddings.token_embedding.weight {noinline} = #stream.parameter.named<"model"::"text_encoder_model.text_model.embeddings.token_embedding.weight"> : tensor<49408x768xf16>
  util.global private @_params.text_encoder_model.text_model.embeddings.position_embedding.weight {noinline} = #stream.parameter.named<"model"::"text_encoder_model.text_model.embeddings.position_embedding.weight"> : tensor<77x768xf16>
  util.global private @_params.text_encoder_model.text_model.encoder.layers.0.self_attn.k_proj.weight {noinline} = #stream.parameter.named<"model"::"text_encoder_model.text_model.encoder.layers.0.self_attn.k_proj.weight"> : tensor<768x768xf16>
  util.global private @_params.text_encoder_model.text_model.encoder.layers.0.self_attn.k_proj.bias {noinline} = #stream.parameter.named<"model"::"text_encoder_model.text_model.encoder.layers.0.self_attn.k_proj.bias"> : tensor<768xf16>
  util.global private @_params.text_encoder_model.text_model.encoder.layers.0.self_attn.v_proj.weight {noinline} = #stream.parameter.named<"model"::"text_encoder_model.text_model.encoder.layers.0.self_attn.v_proj.weight"> : tensor<768x768xf16>
  util.global private @_params.text_encoder_model.text_model.encoder.layers.0.self_attn.v_proj.bias {noinline} = #stream.parameter.named<"model"::"text_encoder_model.text_model.encoder.layers.0.self_attn.v_proj.bias"> : tensor<768xf16>
  util.global private @_params.text_encoder_model.text_model.encoder.layers.0.self_attn.q_proj.weight {noinline} = #stream.parameter.named<"model"::"text_encoder_model.text_model.encoder.layers.0.self_attn.q_proj.weight"> : tensor<768x768xf16>
  util.global private @_params.text_encoder_model.text_model.encoder.layers.0.self_attn.q_proj.bias {noinline} = #stream.parameter.named<"model"::"text_encoder_model.text_model.encoder.layers.0.self_attn.q_proj.bias"> : tensor<768xf16>
  util.global private @_params.text_encoder_model.text_model.encoder.layers.0.self_attn.out_proj.weight {noinline} = #stream.parameter.named<"model"::"text_encoder_model.text_model.encoder.layers.0.self_attn.out_proj.weight"> : tensor<768x768xf16>
  util.global private @_params.text_encoder_model.text_model.encoder.layers.0.self_attn.out_proj.bias {noinline} = #stream.parameter.named<"model"::"text_encoder_model.text_model.encoder.layers.0.self_attn.out_proj.bias"> : tensor<768xf16>
  util.global private @_params.text_encoder_model.text_model.encoder.layers.0.layer_norm1.weight {noinline} = #stream.parameter.named<"model"::"text_encoder_model.text_model.encoder.layers.0.layer_norm1.weight"> : tensor<768xf16>
  util.global private @_params.text_encoder_model.text_model.encoder.layers.0.layer_norm1.bias {noinline} = #stream.parameter.named<"model"::"text_encoder_model.text_model.encoder.layers.0.layer_norm1.bias"> : tensor<768xf16>
  util.global private @_params.text_encoder_model.text_model.encoder.layers.0.mlp.fc1.weight {noinline} = #stream.parameter.named<"model"::"text_encoder_model.text_model.encoder.layers.0.mlp.fc1.weight"> : tensor<3072x768xf16>
  util.global private @_params.text_encoder_model.text_model.encoder.layers.0.mlp.fc1.bias {noinline} = #stream.parameter.named<"model"::"text_encoder_model.text_model.encoder.layers.0.mlp.fc1.bias"> : tensor<3072xf16>
  util.global private @_params.text_encoder_model.text_model.encoder.layers.0.mlp.fc2.weight {noinline} = #stream.parameter.named<"model"::"text_encoder_model.text_model.encoder.layers.0.mlp.fc2.weight"> : tensor<768x3072xf16>
  util.global private @_params.text_encoder_model.text_model.encoder.layers.0.mlp.fc2.bias {noinline} = #stream.parameter.named<"model"::"text_encoder_model.text_model.encoder.layers.0.mlp.fc2.bias"> : tensor<768xf16>
  util.global private @_params.text_encoder_model.text_model.encoder.layers.0.layer_norm2.weight {noinline} = #stream.parameter.named<"model"::"text_encoder_model.text_model.encoder.layers.0.layer_norm2.weight"> : tensor<768xf16>
  util.global private @_params.text_encoder_model.text_model.encoder.layers.0.layer_norm2.bias {noinline} = #stream.parameter.named<"model"::"text_encoder_model.text_model.encoder.layers.0.layer_norm2.bias"> : tensor<768xf16>
  util.global private @_params.text_encoder_model.text_model.encoder.layers.1.self_attn.k_proj.weight {noinline} = #stream.parameter.named<"model"::"text_encoder_model.text_model.encoder.layers.1.self_attn.k_proj.weight"> : tensor<768x768xf16>
  util.global private @_params.text_encoder_model.text_model.encoder.layers.1.self_attn.k_proj.bias {noinline} = #stream.parameter.named<"model"::"text_encoder_model.text_model.encoder.layers.1.self_attn.k_proj.bias"> : tensor<768xf16>
  util.global private @_params.text_encoder_model.text_model.encoder.layers.1.self_attn.v_proj.weight {noinline} = #stream.parameter.named<"model"::"text_encoder_model.text_model.encoder.layers.1.self_attn.v_proj.weight"> : tensor<768x768xf16>
  util.global private @_params.text_encoder_model.text_model.encoder.layers.1.self_attn.v_proj.bias {noinline} = #stream.parameter.named<"model"::"text_encoder_model.text_model.encoder.layers.1.self_attn.v_proj.bias"> : tensor<768xf16>
  util.global private @_params.text_encoder_model.text_model.encoder.layers.1.self_attn.q_proj.weight {noinline} = #stream.parameter.named<"model"::"text_encoder_model.text_model.encoder.layers.1.self_attn.q_proj.weight"> : tensor<768x768xf16>
  util.global private @_params.text_encoder_model.text_model.encoder.layers.1.self_attn.q_proj.bias {noinline} = #stream.parameter.named<"model"::"text_encoder_model.text_model.encoder.layers.1.self_attn.q_proj.bias"> : tensor<768xf16>
  util.global private @_params.text_encoder_model.text_model.encoder.layers.1.self_attn.out_proj.weight {noinline} = #stream.parameter.named<"model"::"text_encoder_model.text_model.encoder.layers.1.self_attn.out_proj.weight"> : tensor<768x768xf16>
  util.global private @_params.text_encoder_model.text_model.encoder.layers.1.self_attn.out_proj.bias {noinline} = #stream.parameter.named<"model"::"text_encoder_model.text_model.encoder.layers.1.self_attn.out_proj.bias"> : tensor<768xf16>
  util.global private @_params.text_encoder_model.text_model.encoder.layers.1.layer_norm1.weight {noinline} = #stream.parameter.named<"model"::"text_encoder_model.text_model.encoder.layers.1.layer_norm1.weight"> : tensor<768xf16>
  util.global private @_params.text_encoder_model.text_model.encoder.layers.1.layer_norm1.bias {noinline} = #stream.parameter.named<"model"::"text_encoder_model.text_model.encoder.layers.1.layer_norm1.bias"> : tensor<768xf16>
  util.global private @_params.text_encoder_model.text_model.encoder.layers.1.mlp.fc1.weight {noinline} = #stream.parameter.named<"model"::"text_encoder_model.text_model.encoder.layers.1.mlp.fc1.weight"> : tensor<3072x768xf16>
  util.global private @_params.text_encoder_model.text_model.encoder.layers.1.mlp.fc1.bias {noinline} = #stream.parameter.named<"model"::"text_encoder_model.text_model.encoder.layers.1.mlp.fc1.bias"> : tensor<3072xf16>
  util.global private @_params.text_encoder_model.text_model.encoder.layers.1.mlp.fc2.weight {noinline} = #stream.parameter.named<"model"::"text_encoder_model.text_model.encoder.layers.1.mlp.fc2.weight"> : tensor<768x3072xf16>
  util.global private @_params.text_encoder_model.text_model.encoder.layers.1.mlp.fc2.bias {noinline} = #stream.parameter.named<"model"::"text_encoder_model.text_model.encoder.layers.1.mlp.fc2.bias"> : tensor<768xf16>
  util.global private @_params.text_encoder_model.text_model.encoder.layers.1.layer_norm2.weight {noinline} = #stream.parameter.named<"model"::"text_encoder_model.text_model.encoder.layers.1.layer_norm2.weight"> : tensor<768xf16>
  util.global private @_params.text_encoder_model.text_model.encoder.layers.1.layer_norm2.bias {noinline} = #stream.parameter.named<"model"::"text_encoder_model.text_model.encoder.layers.1.layer_norm2.bias"> : tensor<768xf16>
  util.global private @_params.text_encoder_model.text_model.encoder.layers.2.self_attn.k_proj.weight {noinline} = #stream.parameter.named<"model"::"text_encoder_model.text_model.encoder.layers.2.self_attn.k_proj.weight"> : tensor<768x768xf16>
  util.global private @_params.text_encoder_model.text_model.encoder.layers.2.self_attn.k_proj.bias {noinline} = #stream.parameter.named<"model"::"text_encoder_model.text_model.encoder.layers.2.self_attn.k_proj.bias"> : tensor<768xf16>
  util.global private @_params.text_encoder_model.text_model.encoder.layers.2.self_attn.v_proj.weight {noinline} = #stream.parameter.named<"model"::"text_encoder_model.text_model.encoder.layers.2.self_attn.v_proj.weight"> : tensor<768x768xf16>
  util.global private @_params.text_encoder_model.text_model.encoder.layers.2.self_attn.v_proj.bias {noinline} = #stream.parameter.named<"model"::"text_encoder_model.text_model.encoder.layers.2.self_attn.v_proj.bias"> : tensor<768xf16>
  util.global private @_params.text_encoder_model.text_model.encoder.layers.2.self_attn.q_proj.weight {noinline} = #stream.parameter.named<"model"::"text_encoder_model.text_model.encoder.layers.2.self_attn.q_proj.weight"> : tensor<768x768xf16>
  util.global private @_params.text_encoder_model.text_model.encoder.layers.2.self_attn.q_proj.bias {noinline} = #stream.parameter.named<"model"::"text_encoder_model.text_model.encoder.layers.2.self_attn.q_proj.bias"> : tensor<768xf16>
  util.global private @_params.text_encoder_model.text_model.encoder.layers.2.self_attn.out_proj.weight {noinline} = #stream.parameter.named<"model"::"text_encoder_model.text_model.encoder.layers.2.self_attn.out_proj.weight"> : tensor<768x768xf16>
  util.global private @_params.text_encoder_model.text_model.encoder.layers.2.self_attn.out_proj.bias {noinline} = #stream.parameter.named<"model"::"text_encoder_model.text_model.encoder.layers.2.self_attn.out_proj.bias"> : tensor<768xf16>
  util.global private @_params.text_encoder_model.text_model.encoder.layers.2.layer_norm1.weight {noinline} = #stream.parameter.named<"model"::"text_encoder_model.text_model.encoder.layers.2.layer_norm1.weight"> : tensor<768xf16>
  util.global private @_params.text_encoder_model.text_model.encoder.layers.2.layer_norm1.bias {noinline} = #stream.parameter.named<"model"::"text_encoder_model.text_model.encoder.layers.2.layer_norm1.bias"> : tensor<768xf16>
  util.global private @_params.text_encoder_model.text_model.encoder.layers.2.mlp.fc1.weight {noinline} = #stream.parameter.named<"model"::"text_encoder_model.text_model.encoder.layers.2.mlp.fc1.weight"> : tensor<3072x768xf16>
  util.global private @_params.text_encoder_model.text_model.encoder.layers.2.mlp.fc1.bias {noinline} = #stream.parameter.named<"model"::"text_encoder_model.text_model.encoder.layers.2.mlp.fc1.bias"> : tensor<3072xf16>
  util.global private @_params.text_encoder_model.text_model.encoder.layers.2.mlp.fc2.weight {noinline} = #stream.parameter.named<"model"::"text_encoder_model.text_model.encoder.layers.2.mlp.fc2.weight"> : tensor<768x3072xf16>
  util.global private @_params.text_encoder_model.text_model.encoder.layers.2.mlp.fc2.bias {noinline} = #stream.parameter.named<"model"::"text_encoder_model.text_model.encoder.layers.2.mlp.fc2.bias"> : tensor<768xf16>
  util.global private @_params.text_encoder_model.text_model.encoder.layers.2.layer_norm2.weight {noinline} = #stream.parameter.named<"model"::"text_encoder_model.text_model.encoder.layers.2.layer_norm2.weight"> : tensor<768xf16>
  util.global private @_params.text_encoder_model.text_model.encoder.layers.2.layer_norm2.bias {noinline} = #stream.parameter.named<"model"::"text_encoder_model.text_model.encoder.layers.2.layer_norm2.bias"> : tensor<768xf16>
  util.global private @_params.text_encoder_model.text_model.encoder.layers.3.self_attn.k_proj.weight {noinline} = #stream.parameter.named<"model"::"text_encoder_model.text_model.encoder.layers.3.self_attn.k_proj.weight"> : tensor<768x768xf16>
  util.global private @_params.text_encoder_model.text_model.encoder.layers.3.self_attn.k_proj.bias {noinline} = #stream.parameter.named<"model"::"text_encoder_model.text_model.encoder.layers.3.self_attn.k_proj.bias"> : tensor<768xf16>
  util.global private @_params.text_encoder_model.text_model.encoder.layers.3.self_attn.v_proj.weight {noinline} = #stream.parameter.named<"model"::"text_encoder_model.text_model.encoder.layers.3.self_attn.v_proj.weight"> : tensor<768x768xf16>
  util.global private @_params.text_encoder_model.text_model.encoder.layers.3.self_attn.v_proj.bias {noinline} = #stream.parameter.named<"model"::"text_encoder_model.text_model.encoder.layers.3.self_attn.v_proj.bias"> : tensor<768xf16>
  util.global private @_params.text_encoder_model.text_model.encoder.layers.3.self_attn.q_proj.weight {noinline} = #stream.parameter.named<"model"::"text_encoder_model.text_model.encoder.layers.3.self_attn.q_proj.weight"> : tensor<768x768xf16>
  util.global private @_params.text_encoder_model.text_model.encoder.layers.3.self_attn.q_proj.bias {noinline} = #stream.parameter.named<"model"::"text_encoder_model.text_model.encoder.layers.3.self_attn.q_proj.bias"> : tensor<768xf16>
  util.global private @_params.text_encoder_model.text_model.encoder.layers.3.self_attn.out_proj.weight {noinline} = #stream.parameter.named<"model"::"text_encoder_model.text_model.encoder.layers.3.self_attn.out_proj.weight"> : tensor<768x768xf16>
  util.global private @_params.text_encoder_model.text_model.encoder.layers.3.self_attn.out_proj.bias {noinline} = #stream.parameter.named<"model"::"text_encoder_model.text_model.encoder.layers.3.self_attn.out_proj.bias"> : tensor<768xf16>
  util.global private @_params.text_encoder_model.text_model.encoder.layers.3.layer_norm1.weight {noinline} = #stream.parameter.named<"model"::"text_encoder_model.text_model.encoder.layers.3.layer_norm1.weight"> : tensor<768xf16>
  util.global private @_params.text_encoder_model.text_model.encoder.layers.3.layer_norm1.bias {noinline} = #stream.parameter.named<"model"::"text_encoder_model.text_model.encoder.layers.3.layer_norm1.bias"> : tensor<768xf16>
  util.global private @_params.text_encoder_model.text_model.encoder.layers.3.mlp.fc1.weight {noinline} = #stream.parameter.named<"model"::"text_encoder_model.text_model.encoder.layers.3.mlp.fc1.weight"> : tensor<3072x768xf16>
  util.global private @_params.text_encoder_model.text_model.encoder.layers.3.mlp.fc1.bias {noinline} = #stream.parameter.named<"model"::"text_encoder_model.text_model.encoder.layers.3.mlp.fc1.bias"> : tensor<3072xf16>
  util.global private @_params.text_encoder_model.text_model.encoder.layers.3.mlp.fc2.weight {noinline} = #stream.parameter.named<"model"::"text_encoder_model.text_model.encoder.layers.3.mlp.fc2.weight"> : tensor<768x3072xf16>
  util.global private @_params.text_encoder_model.text_model.encoder.layers.3.mlp.fc2.bias {noinline} = #stream.parameter.named<"model"::"text_encoder_model.text_model.encoder.layers.3.mlp.fc2.bias"> : tensor<768xf16>
  util.global private @_params.text_encoder_model.text_model.encoder.layers.3.layer_norm2.weight {noinline} = #stream.parameter.named<"model"::"text_encoder_model.text_model.encoder.layers.3.layer_norm2.weight"> : tensor<768xf16>
  util.global private @_params.text_encoder_model.text_model.encoder.layers.3.layer_norm2.bias {noinline} = #stream.parameter.named<"model"::"text_encoder_model.text_model.encoder.layers.3.layer_norm2.bias"> : tensor<768xf16>
  util.global private @_params.text_encoder_model.text_model.encoder.layers.4.self_attn.k_proj.weight {noinline} = #stream.parameter.named<"model"::"text_encoder_model.text_model.encoder.layers.4.self_attn.k_proj.weight"> : tensor<768x768xf16>
  util.global private @_params.text_encoder_model.text_model.encoder.layers.4.self_attn.k_proj.bias {noinline} = #stream.parameter.named<"model"::"text_encoder_model.text_model.encoder.layers.4.self_attn.k_proj.bias"> : tensor<768xf16>
  util.global private @_params.text_encoder_model.text_model.encoder.layers.4.self_attn.v_proj.weight {noinline} = #stream.parameter.named<"model"::"text_encoder_model.text_model.encoder.layers.4.self_attn.v_proj.weight"> : tensor<768x768xf16>
  util.global private @_params.text_encoder_model.text_model.encoder.layers.4.self_attn.v_proj.bias {noinline} = #stream.parameter.named<"model"::"text_encoder_model.text_model.encoder.layers.4.self_attn.v_proj.bias"> : tensor<768xf16>
  util.global private @_params.text_encoder_model.text_model.encoder.layers.4.self_attn.q_proj.weight {noinline} = #stream.parameter.named<"model"::"text_encoder_model.text_model.encoder.layers.4.self_attn.q_proj.weight"> : tensor<768x768xf16>
  util.global private @_params.text_encoder_model.text_model.encoder.layers.4.self_attn.q_proj.bias {noinline} = #stream.parameter.named<"model"::"text_encoder_model.text_model.encoder.layers.4.self_attn.q_proj.bias"> : tensor<768xf16>
  util.global private @_params.text_encoder_model.text_model.encoder.layers.4.self_attn.out_proj.weight {noinline} = #stream.parameter.named<"model"::"text_encoder_model.text_model.encoder.layers.4.self_attn.out_proj.weight"> : tensor<768x768xf16>
  util.global private @_params.text_encoder_model.text_model.encoder.layers.4.self_attn.out_proj.bias {noinline} = #stream.parameter.named<"model"::"text_encoder_model.text_model.encoder.layers.4.self_attn.out_proj.bias"> : tensor<768xf16>
  util.global private @_params.text_encoder_model.text_model.encoder.layers.4.layer_norm1.weight {noinline} = #stream.parameter.named<"model"::"text_encoder_model.text_model.encoder.layers.4.layer_norm1.weight"> : tensor<768xf16>
  util.global private @_params.text_encoder_model.text_model.encoder.layers.4.layer_norm1.bias {noinline} = #stream.parameter.named<"model"::"text_encoder_model.text_model.encoder.layers.4.layer_norm1.bias"> : tensor<768xf16>
  util.global private @_params.text_encoder_model.text_model.encoder.layers.4.mlp.fc1.weight {noinline} = #stream.parameter.named<"model"::"text_encoder_model.text_model.encoder.layers.4.mlp.fc1.weight"> : tensor<3072x768xf16>
  util.global private @_params.text_encoder_model.text_model.encoder.layers.4.mlp.fc1.bias {noinline} = #stream.parameter.named<"model"::"text_encoder_model.text_model.encoder.layers.4.mlp.fc1.bias"> : tensor<3072xf16>
  util.global private @_params.text_encoder_model.text_model.encoder.layers.4.mlp.fc2.weight {noinline} = #stream.parameter.named<"model"::"text_encoder_model.text_model.encoder.layers.4.mlp.fc2.weight"> : tensor<768x3072xf16>
  util.global private @_params.text_encoder_model.text_model.encoder.layers.4.mlp.fc2.bias {noinline} = #stream.parameter.named<"model"::"text_encoder_model.text_model.encoder.layers.4.mlp.fc2.bias"> : tensor<768xf16>
  util.global private @_params.text_encoder_model.text_model.encoder.layers.4.layer_norm2.weight {noinline} = #stream.parameter.named<"model"::"text_encoder_model.text_model.encoder.layers.4.layer_norm2.weight"> : tensor<768xf16>
  util.global private @_params.text_encoder_model.text_model.encoder.layers.4.layer_norm2.bias {noinline} = #stream.parameter.named<"model"::"text_encoder_model.text_model.encoder.layers.4.layer_norm2.bias"> : tensor<768xf16>
  util.global private @_params.text_encoder_model.text_model.encoder.layers.5.self_attn.k_proj.weight {noinline} = #stream.parameter.named<"model"::"text_encoder_model.text_model.encoder.layers.5.self_attn.k_proj.weight"> : tensor<768x768xf16>
  util.global private @_params.text_encoder_model.text_model.encoder.layers.5.self_attn.k_proj.bias {noinline} = #stream.parameter.named<"model"::"text_encoder_model.text_model.encoder.layers.5.self_attn.k_proj.bias"> : tensor<768xf16>
  util.global private @_params.text_encoder_model.text_model.encoder.layers.5.self_attn.v_proj.weight {noinline} = #stream.parameter.named<"model"::"text_encoder_model.text_model.encoder.layers.5.self_attn.v_proj.weight"> : tensor<768x768xf16>
  util.global private @_params.text_encoder_model.text_model.encoder.layers.5.self_attn.v_proj.bias {noinline} = #stream.parameter.named<"model"::"text_encoder_model.text_model.encoder.layers.5.self_attn.v_proj.bias"> : tensor<768xf16>
  util.global private @_params.text_encoder_model.text_model.encoder.layers.5.self_attn.q_proj.weight {noinline} = #stream.parameter.named<"model"::"text_encoder_model.text_model.encoder.layers.5.self_attn.q_proj.weight"> : tensor<768x768xf16>
  util.global private @_params.text_encoder_model.text_model.encoder.layers.5.self_attn.q_proj.bias {noinline} = #stream.parameter.named<"model"::"text_encoder_model.text_model.encoder.layers.5.self_attn.q_proj.bias"> : tensor<768xf16>
  util.global private @_params.text_encoder_model.text_model.encoder.layers.5.self_attn.out_proj.weight {noinline} = #stream.parameter.named<"model"::"text_encoder_model.text_model.encoder.layers.5.self_attn.out_proj.weight"> : tensor<768x768xf16>
  util.global private @_params.text_encoder_model.text_model.encoder.layers.5.self_attn.out_proj.bias {noinline} = #stream.parameter.named<"model"::"text_encoder_model.text_model.encoder.layers.5.self_attn.out_proj.bias"> : tensor<768xf16>
  util.global private @_params.text_encoder_model.text_model.encoder.layers.5.layer_norm1.weight {noinline} = #stream.parameter.named<"model"::"text_encoder_model.text_model.encoder.layers.5.layer_norm1.weight"> : tensor<768xf16>
  util.global private @_params.text_encoder_model.text_model.encoder.layers.5.layer_norm1.bias {noinline} = #stream.parameter.named<"model"::"text_encoder_model.text_model.encoder.layers.5.layer_norm1.bias"> : tensor<768xf16>
  util.global private @_params.text_encoder_model.text_model.encoder.layers.5.mlp.fc1.weight {noinline} = #stream.parameter.named<"model"::"text_encoder_model.text_model.encoder.layers.5.mlp.fc1.weight"> : tensor<3072x768xf16>
  util.global private @_params.text_encoder_model.text_model.encoder.layers.5.mlp.fc1.bias {noinline} = #stream.parameter.named<"model"::"text_encoder_model.text_model.encoder.layers.5.mlp.fc1.bias"> : tensor<3072xf16>
  util.global private @_params.text_encoder_model.text_model.encoder.layers.5.mlp.fc2.weight {noinline} = #stream.parameter.named<"model"::"text_encoder_model.text_model.encoder.layers.5.mlp.fc2.weight"> : tensor<768x3072xf16>
  util.global private @_params.text_encoder_model.text_model.encoder.layers.5.mlp.fc2.bias {noinline} = #stream.parameter.named<"model"::"text_encoder_model.text_model.encoder.layers.5.mlp.fc2.bias"> : tensor<768xf16>
  util.global private @_params.text_encoder_model.text_model.encoder.layers.5.layer_norm2.weight {noinline} = #stream.parameter.named<"model"::"text_encoder_model.text_model.encoder.layers.5.layer_norm2.weight"> : tensor<768xf16>
  util.global private @_params.text_encoder_model.text_model.encoder.layers.5.layer_norm2.bias {noinline} = #stream.parameter.named<"model"::"text_encoder_model.text_model.encoder.layers.5.layer_norm2.bias"> : tensor<768xf16>
  util.global private @_params.text_encoder_model.text_model.encoder.layers.6.self_attn.k_proj.weight {noinline} = #stream.parameter.named<"model"::"text_encoder_model.text_model.encoder.layers.6.self_attn.k_proj.weight"> : tensor<768x768xf16>
  util.global private @_params.text_encoder_model.text_model.encoder.layers.6.self_attn.k_proj.bias {noinline} = #stream.parameter.named<"model"::"text_encoder_model.text_model.encoder.layers.6.self_attn.k_proj.bias"> : tensor<768xf16>
  util.global private @_params.text_encoder_model.text_model.encoder.layers.6.self_attn.v_proj.weight {noinline} = #stream.parameter.named<"model"::"text_encoder_model.text_model.encoder.layers.6.self_attn.v_proj.weight"> : tensor<768x768xf16>
  util.global private @_params.text_encoder_model.text_model.encoder.layers.6.self_attn.v_proj.bias {noinline} = #stream.parameter.named<"model"::"text_encoder_model.text_model.encoder.layers.6.self_attn.v_proj.bias"> : tensor<768xf16>
  util.global private @_params.text_encoder_model.text_model.encoder.layers.6.self_attn.q_proj.weight {noinline} = #stream.parameter.named<"model"::"text_encoder_model.text_model.encoder.layers.6.self_attn.q_proj.weight"> : tensor<768x768xf16>
  util.global private @_params.text_encoder_model.text_model.encoder.layers.6.self_attn.q_proj.bias {noinline} = #stream.parameter.named<"model"::"text_encoder_model.text_model.encoder.layers.6.self_attn.q_proj.bias"> : tensor<768xf16>
  util.global private @_params.text_encoder_model.text_model.encoder.layers.6.self_attn.out_proj.weight {noinline} = #stream.parameter.named<"model"::"text_encoder_model.text_model.encoder.layers.6.self_attn.out_proj.weight"> : tensor<768x768xf16>
  util.global private @_params.text_encoder_model.text_model.encoder.layers.6.self_attn.out_proj.bias {noinline} = #stream.parameter.named<"model"::"text_encoder_model.text_model.encoder.layers.6.self_attn.out_proj.bias"> : tensor<768xf16>
  util.global private @_params.text_encoder_model.text_model.encoder.layers.6.layer_norm1.weight {noinline} = #stream.parameter.named<"model"::"text_encoder_model.text_model.encoder.layers.6.layer_norm1.weight"> : tensor<768xf16>
  util.global private @_params.text_encoder_model.text_model.encoder.layers.6.layer_norm1.bias {noinline} = #stream.parameter.named<"model"::"text_encoder_model.text_model.encoder.layers.6.layer_norm1.bias"> : tensor<768xf16>
  util.global private @_params.text_encoder_model.text_model.encoder.layers.6.mlp.fc1.weight {noinline} = #stream.parameter.named<"model"::"text_encoder_model.text_model.encoder.layers.6.mlp.fc1.weight"> : tensor<3072x768xf16>
  util.global private @_params.text_encoder_model.text_model.encoder.layers.6.mlp.fc1.bias {noinline} = #stream.parameter.named<"model"::"text_encoder_model.text_model.encoder.layers.6.mlp.fc1.bias"> : tensor<3072xf16>
  util.global private @_params.text_encoder_model.text_model.encoder.layers.6.mlp.fc2.weight {noinline} = #stream.parameter.named<"model"::"text_encoder_model.text_model.encoder.layers.6.mlp.fc2.weight"> : tensor<768x3072xf16>
  util.global private @_params.text_encoder_model.text_model.encoder.layers.6.mlp.fc2.bias {noinline} = #stream.parameter.named<"model"::"text_encoder_model.text_model.encoder.layers.6.mlp.fc2.bias"> : tensor<768xf16>
  util.global private @_params.text_encoder_model.text_model.encoder.layers.6.layer_norm2.weight {noinline} = #stream.parameter.named<"model"::"text_encoder_model.text_model.encoder.layers.6.layer_norm2.weight"> : tensor<768xf16>
  util.global private @_params.text_encoder_model.text_model.encoder.layers.6.layer_norm2.bias {noinline} = #stream.parameter.named<"model"::"text_encoder_model.text_model.encoder.layers.6.layer_norm2.bias"> : tensor<768xf16>
  util.global private @_params.text_encoder_model.text_model.encoder.layers.7.self_attn.k_proj.weight {noinline} = #stream.parameter.named<"model"::"text_encoder_model.text_model.encoder.layers.7.self_attn.k_proj.weight"> : tensor<768x768xf16>
  util.global private @_params.text_encoder_model.text_model.encoder.layers.7.self_attn.k_proj.bias {noinline} = #stream.parameter.named<"model"::"text_encoder_model.text_model.encoder.layers.7.self_attn.k_proj.bias"> : tensor<768xf16>
  util.global private @_params.text_encoder_model.text_model.encoder.layers.7.self_attn.v_proj.weight {noinline} = #stream.parameter.named<"model"::"text_encoder_model.text_model.encoder.layers.7.self_attn.v_proj.weight"> : tensor<768x768xf16>
  util.global private @_params.text_encoder_model.text_model.encoder.layers.7.self_attn.v_proj.bias {noinline} = #stream.parameter.named<"model"::"text_encoder_model.text_model.encoder.layers.7.self_attn.v_proj.bias"> : tensor<768xf16>
  util.global private @_params.text_encoder_model.text_model.encoder.layers.7.self_attn.q_proj.weight {noinline} = #stream.parameter.named<"model"::"text_encoder_model.text_model.encoder.layers.7.self_attn.q_proj.weight"> : tensor<768x768xf16>
  util.global private @_params.text_encoder_model.text_model.encoder.layers.7.self_attn.q_proj.bias {noinline} = #stream.parameter.named<"model"::"text_encoder_model.text_model.encoder.layers.7.self_attn.q_proj.bias"> : tensor<768xf16>
  util.global private @_params.text_encoder_model.text_model.encoder.layers.7.self_attn.out_proj.weight {noinline} = #stream.parameter.named<"model"::"text_encoder_model.text_model.encoder.layers.7.self_attn.out_proj.weight"> : tensor<768x768xf16>
  util.global private @_params.text_encoder_model.text_model.encoder.layers.7.self_attn.out_proj.bias {noinline} = #stream.parameter.named<"model"::"text_encoder_model.text_model.encoder.layers.7.self_attn.out_proj.bias"> : tensor<768xf16>
  util.global private @_params.text_encoder_model.text_model.encoder.layers.7.layer_norm1.weight {noinline} = #stream.parameter.named<"model"::"text_encoder_model.text_model.encoder.layers.7.layer_norm1.weight"> : tensor<768xf16>
  util.global private @_params.text_encoder_model.text_model.encoder.layers.7.layer_norm1.bias {noinline} = #stream.parameter.named<"model"::"text_encoder_model.text_model.encoder.layers.7.layer_norm1.bias"> : tensor<768xf16>
  util.global private @_params.text_encoder_model.text_model.encoder.layers.7.mlp.fc1.weight {noinline} = #stream.parameter.named<"model"::"text_encoder_model.text_model.encoder.layers.7.mlp.fc1.weight"> : tensor<3072x768xf16>
  util.global private @_params.text_encoder_model.text_model.encoder.layers.7.mlp.fc1.bias {noinline} = #stream.parameter.named<"model"::"text_encoder_model.text_model.encoder.layers.7.mlp.fc1.bias"> : tensor<3072xf16>
  util.global private @_params.text_encoder_model.text_model.encoder.layers.7.mlp.fc2.weight {noinline} = #stream.parameter.named<"model"::"text_encoder_model.text_model.encoder.layers.7.mlp.fc2.weight"> : tensor<768x3072xf16>
  util.global private @_params.text_encoder_model.text_model.encoder.layers.7.mlp.fc2.bias {noinline} = #stream.parameter.named<"model"::"text_encoder_model.text_model.encoder.layers.7.mlp.fc2.bias"> : tensor<768xf16>
  util.global private @_params.text_encoder_model.text_model.encoder.layers.7.layer_norm2.weight {noinline} = #stream.parameter.named<"model"::"text_encoder_model.text_model.encoder.layers.7.layer_norm2.weight"> : tensor<768xf16>
  util.global private @_params.text_encoder_model.text_model.encoder.layers.7.layer_norm2.bias {noinline} = #stream.parameter.named<"model"::"text_encoder_model.text_model.encoder.layers.7.layer_norm2.bias"> : tensor<768xf16>
  util.global private @_params.text_encoder_model.text_model.encoder.layers.8.self_attn.k_proj.weight {noinline} = #stream.parameter.named<"model"::"text_encoder_model.text_model.encoder.layers.8.self_attn.k_proj.weight"> : tensor<768x768xf16>
  util.global private @_params.text_encoder_model.text_model.encoder.layers.8.self_attn.k_proj.bias {noinline} = #stream.parameter.named<"model"::"text_encoder_model.text_model.encoder.layers.8.self_attn.k_proj.bias"> : tensor<768xf16>
  util.global private @_params.text_encoder_model.text_model.encoder.layers.8.self_attn.v_proj.weight {noinline} = #stream.parameter.named<"model"::"text_encoder_model.text_model.encoder.layers.8.self_attn.v_proj.weight"> : tensor<768x768xf16>
  util.global private @_params.text_encoder_model.text_model.encoder.layers.8.self_attn.v_proj.bias {noinline} = #stream.parameter.named<"model"::"text_encoder_model.text_model.encoder.layers.8.self_attn.v_proj.bias"> : tensor<768xf16>
  util.global private @_params.text_encoder_model.text_model.encoder.layers.8.self_attn.q_proj.weight {noinline} = #stream.parameter.named<"model"::"text_encoder_model.text_model.encoder.layers.8.self_attn.q_proj.weight"> : tensor<768x768xf16>
  util.global private @_params.text_encoder_model.text_model.encoder.layers.8.self_attn.q_proj.bias {noinline} = #stream.parameter.named<"model"::"text_encoder_model.text_model.encoder.layers.8.self_attn.q_proj.bias"> : tensor<768xf16>
  util.global private @_params.text_encoder_model.text_model.encoder.layers.8.self_attn.out_proj.weight {noinline} = #stream.parameter.named<"model"::"text_encoder_model.text_model.encoder.layers.8.self_attn.out_proj.weight"> : tensor<768x768xf16>
  util.global private @_params.text_encoder_model.text_model.encoder.layers.8.self_attn.out_proj.bias {noinline} = #stream.parameter.named<"model"::"text_encoder_model.text_model.encoder.layers.8.self_attn.out_proj.bias"> : tensor<768xf16>
  util.global private @_params.text_encoder_model.text_model.encoder.layers.8.layer_norm1.weight {noinline} = #stream.parameter.named<"model"::"text_encoder_model.text_model.encoder.layers.8.layer_norm1.weight"> : tensor<768xf16>
  util.global private @_params.text_encoder_model.text_model.encoder.layers.8.layer_norm1.bias {noinline} = #stream.parameter.named<"model"::"text_encoder_model.text_model.encoder.layers.8.layer_norm1.bias"> : tensor<768xf16>
  util.global private @_params.text_encoder_model.text_model.encoder.layers.8.mlp.fc1.weight {noinline} = #stream.parameter.named<"model"::"text_encoder_model.text_model.encoder.layers.8.mlp.fc1.weight"> : tensor<3072x768xf16>
  util.global private @_params.text_encoder_model.text_model.encoder.layers.8.mlp.fc1.bias {noinline} = #stream.parameter.named<"model"::"text_encoder_model.text_model.encoder.layers.8.mlp.fc1.bias"> : tensor<3072xf16>
  util.global private @_params.text_encoder_model.text_model.encoder.layers.8.mlp.fc2.weight {noinline} = #stream.parameter.named<"model"::"text_encoder_model.text_model.encoder.layers.8.mlp.fc2.weight"> : tensor<768x3072xf16>
  util.global private @_params.text_encoder_model.text_model.encoder.layers.8.mlp.fc2.bias {noinline} = #stream.parameter.named<"model"::"text_encoder_model.text_model.encoder.layers.8.mlp.fc2.bias"> : tensor<768xf16>
  util.global private @_params.text_encoder_model.text_model.encoder.layers.8.layer_norm2.weight {noinline} = #stream.parameter.named<"model"::"text_encoder_model.text_model.encoder.layers.8.layer_norm2.weight"> : tensor<768xf16>
  util.global private @_params.text_encoder_model.text_model.encoder.layers.8.layer_norm2.bias {noinline} = #stream.parameter.named<"model"::"text_encoder_model.text_model.encoder.layers.8.layer_norm2.bias"> : tensor<768xf16>
  util.global private @_params.text_encoder_model.text_model.encoder.layers.9.self_attn.k_proj.weight {noinline} = #stream.parameter.named<"model"::"text_encoder_model.text_model.encoder.layers.9.self_attn.k_proj.weight"> : tensor<768x768xf16>
  util.global private @_params.text_encoder_model.text_model.encoder.layers.9.self_attn.k_proj.bias {noinline} = #stream.parameter.named<"model"::"text_encoder_model.text_model.encoder.layers.9.self_attn.k_proj.bias"> : tensor<768xf16>
  util.global private @_params.text_encoder_model.text_model.encoder.layers.9.self_attn.v_proj.weight {noinline} = #stream.parameter.named<"model"::"text_encoder_model.text_model.encoder.layers.9.self_attn.v_proj.weight"> : tensor<768x768xf16>
  util.global private @_params.text_encoder_model.text_model.encoder.layers.9.self_attn.v_proj.bias {noinline} = #stream.parameter.named<"model"::"text_encoder_model.text_model.encoder.layers.9.self_attn.v_proj.bias"> : tensor<768xf16>
  util.global private @_params.text_encoder_model.text_model.encoder.layers.9.self_attn.q_proj.weight {noinline} = #stream.parameter.named<"model"::"text_encoder_model.text_model.encoder.layers.9.self_attn.q_proj.weight"> : tensor<768x768xf16>
  util.global private @_params.text_encoder_model.text_model.encoder.layers.9.self_attn.q_proj.bias {noinline} = #stream.parameter.named<"model"::"text_encoder_model.text_model.encoder.layers.9.self_attn.q_proj.bias"> : tensor<768xf16>
  util.global private @_params.text_encoder_model.text_model.encoder.layers.9.self_attn.out_proj.weight {noinline} = #stream.parameter.named<"model"::"text_encoder_model.text_model.encoder.layers.9.self_attn.out_proj.weight"> : tensor<768x768xf16>
  util.global private @_params.text_encoder_model.text_model.encoder.layers.9.self_attn.out_proj.bias {noinline} = #stream.parameter.named<"model"::"text_encoder_model.text_model.encoder.layers.9.self_attn.out_proj.bias"> : tensor<768xf16>
  util.global private @_params.text_encoder_model.text_model.encoder.layers.9.layer_norm1.weight {noinline} = #stream.parameter.named<"model"::"text_encoder_model.text_model.encoder.layers.9.layer_norm1.weight"> : tensor<768xf16>
  util.global private @_params.text_encoder_model.text_model.encoder.layers.9.layer_norm1.bias {noinline} = #stream.parameter.named<"model"::"text_encoder_model.text_model.encoder.layers.9.layer_norm1.bias"> : tensor<768xf16>
  util.global private @_params.text_encoder_model.text_model.encoder.layers.9.mlp.fc1.weight {noinline} = #stream.parameter.named<"model"::"text_encoder_model.text_model.encoder.layers.9.mlp.fc1.weight"> : tensor<3072x768xf16>
  util.global private @_params.text_encoder_model.text_model.encoder.layers.9.mlp.fc1.bias {noinline} = #stream.parameter.named<"model"::"text_encoder_model.text_model.encoder.layers.9.mlp.fc1.bias"> : tensor<3072xf16>
  util.global private @_params.text_encoder_model.text_model.encoder.layers.9.mlp.fc2.weight {noinline} = #stream.parameter.named<"model"::"text_encoder_model.text_model.encoder.layers.9.mlp.fc2.weight"> : tensor<768x3072xf16>
  util.global private @_params.text_encoder_model.text_model.encoder.layers.9.mlp.fc2.bias {noinline} = #stream.parameter.named<"model"::"text_encoder_model.text_model.encoder.layers.9.mlp.fc2.bias"> : tensor<768xf16>
  util.global private @_params.text_encoder_model.text_model.encoder.layers.9.layer_norm2.weight {noinline} = #stream.parameter.named<"model"::"text_encoder_model.text_model.encoder.layers.9.layer_norm2.weight"> : tensor<768xf16>
  util.global private @_params.text_encoder_model.text_model.encoder.layers.9.layer_norm2.bias {noinline} = #stream.parameter.named<"model"::"text_encoder_model.text_model.encoder.layers.9.layer_norm2.bias"> : tensor<768xf16>
  util.global private @_params.text_encoder_model.text_model.encoder.layers.10.self_attn.k_proj.weight {noinline} = #stream.parameter.named<"model"::"text_encoder_model.text_model.encoder.layers.10.self_attn.k_proj.weight"> : tensor<768x768xf16>
  util.global private @_params.text_encoder_model.text_model.encoder.layers.10.self_attn.k_proj.bias {noinline} = #stream.parameter.named<"model"::"text_encoder_model.text_model.encoder.layers.10.self_attn.k_proj.bias"> : tensor<768xf16>
  util.global private @_params.text_encoder_model.text_model.encoder.layers.10.self_attn.v_proj.weight {noinline} = #stream.parameter.named<"model"::"text_encoder_model.text_model.encoder.layers.10.self_attn.v_proj.weight"> : tensor<768x768xf16>
  util.global private @_params.text_encoder_model.text_model.encoder.layers.10.self_attn.v_proj.bias {noinline} = #stream.parameter.named<"model"::"text_encoder_model.text_model.encoder.layers.10.self_attn.v_proj.bias"> : tensor<768xf16>
  util.global private @_params.text_encoder_model.text_model.encoder.layers.10.self_attn.q_proj.weight {noinline} = #stream.parameter.named<"model"::"text_encoder_model.text_model.encoder.layers.10.self_attn.q_proj.weight"> : tensor<768x768xf16>
  util.global private @_params.text_encoder_model.text_model.encoder.layers.10.self_attn.q_proj.bias {noinline} = #stream.parameter.named<"model"::"text_encoder_model.text_model.encoder.layers.10.self_attn.q_proj.bias"> : tensor<768xf16>
  util.global private @_params.text_encoder_model.text_model.encoder.layers.10.self_attn.out_proj.weight {noinline} = #stream.parameter.named<"model"::"text_encoder_model.text_model.encoder.layers.10.self_attn.out_proj.weight"> : tensor<768x768xf16>
  util.global private @_params.text_encoder_model.text_model.encoder.layers.10.self_attn.out_proj.bias {noinline} = #stream.parameter.named<"model"::"text_encoder_model.text_model.encoder.layers.10.self_attn.out_proj.bias"> : tensor<768xf16>
  util.global private @_params.text_encoder_model.text_model.encoder.layers.10.layer_norm1.weight {noinline} = #stream.parameter.named<"model"::"text_encoder_model.text_model.encoder.layers.10.layer_norm1.weight"> : tensor<768xf16>
  util.global private @_params.text_encoder_model.text_model.encoder.layers.10.layer_norm1.bias {noinline} = #stream.parameter.named<"model"::"text_encoder_model.text_model.encoder.layers.10.layer_norm1.bias"> : tensor<768xf16>
  util.global private @_params.text_encoder_model.text_model.encoder.layers.10.mlp.fc1.weight {noinline} = #stream.parameter.named<"model"::"text_encoder_model.text_model.encoder.layers.10.mlp.fc1.weight"> : tensor<3072x768xf16>
  util.global private @_params.text_encoder_model.text_model.encoder.layers.10.mlp.fc1.bias {noinline} = #stream.parameter.named<"model"::"text_encoder_model.text_model.encoder.layers.10.mlp.fc1.bias"> : tensor<3072xf16>
  util.global private @_params.text_encoder_model.text_model.encoder.layers.10.mlp.fc2.weight {noinline} = #stream.parameter.named<"model"::"text_encoder_model.text_model.encoder.layers.10.mlp.fc2.weight"> : tensor<768x3072xf16>
  util.global private @_params.text_encoder_model.text_model.encoder.layers.10.mlp.fc2.bias {noinline} = #stream.parameter.named<"model"::"text_encoder_model.text_model.encoder.layers.10.mlp.fc2.bias"> : tensor<768xf16>
  util.global private @_params.text_encoder_model.text_model.encoder.layers.10.layer_norm2.weight {noinline} = #stream.parameter.named<"model"::"text_encoder_model.text_model.encoder.layers.10.layer_norm2.weight"> : tensor<768xf16>
  util.global private @_params.text_encoder_model.text_model.encoder.layers.10.layer_norm2.bias {noinline} = #stream.parameter.named<"model"::"text_encoder_model.text_model.encoder.layers.10.layer_norm2.bias"> : tensor<768xf16>
  util.global private @_params.text_encoder_model.text_model.encoder.layers.11.self_attn.k_proj.weight {noinline} = #stream.parameter.named<"model"::"text_encoder_model.text_model.encoder.layers.11.self_attn.k_proj.weight"> : tensor<768x768xf16>
  util.global private @_params.text_encoder_model.text_model.encoder.layers.11.self_attn.k_proj.bias {noinline} = #stream.parameter.named<"model"::"text_encoder_model.text_model.encoder.layers.11.self_attn.k_proj.bias"> : tensor<768xf16>
  util.global private @_params.text_encoder_model.text_model.encoder.layers.11.self_attn.v_proj.weight {noinline} = #stream.parameter.named<"model"::"text_encoder_model.text_model.encoder.layers.11.self_attn.v_proj.weight"> : tensor<768x768xf16>
  util.global private @_params.text_encoder_model.text_model.encoder.layers.11.self_attn.v_proj.bias {noinline} = #stream.parameter.named<"model"::"text_encoder_model.text_model.encoder.layers.11.self_attn.v_proj.bias"> : tensor<768xf16>
  util.global private @_params.text_encoder_model.text_model.encoder.layers.11.self_attn.q_proj.weight {noinline} = #stream.parameter.named<"model"::"text_encoder_model.text_model.encoder.layers.11.self_attn.q_proj.weight"> : tensor<768x768xf16>
  util.global private @_params.text_encoder_model.text_model.encoder.layers.11.self_attn.q_proj.bias {noinline} = #stream.parameter.named<"model"::"text_encoder_model.text_model.encoder.layers.11.self_attn.q_proj.bias"> : tensor<768xf16>
  util.global private @_params.text_encoder_model.text_model.encoder.layers.11.self_attn.out_proj.weight {noinline} = #stream.parameter.named<"model"::"text_encoder_model.text_model.encoder.layers.11.self_attn.out_proj.weight"> : tensor<768x768xf16>
  util.global private @_params.text_encoder_model.text_model.encoder.layers.11.self_attn.out_proj.bias {noinline} = #stream.parameter.named<"model"::"text_encoder_model.text_model.encoder.layers.11.self_attn.out_proj.bias"> : tensor<768xf16>
  util.global private @_params.text_encoder_model.text_model.encoder.layers.11.layer_norm1.weight {noinline} = #stream.parameter.named<"model"::"text_encoder_model.text_model.encoder.layers.11.layer_norm1.weight"> : tensor<768xf16>
  util.global private @_params.text_encoder_model.text_model.encoder.layers.11.layer_norm1.bias {noinline} = #stream.parameter.named<"model"::"text_encoder_model.text_model.encoder.layers.11.layer_norm1.bias"> : tensor<768xf16>
  util.global private @_params.text_encoder_model.text_model.encoder.layers.11.mlp.fc1.weight {noinline} = #stream.parameter.named<"model"::"text_encoder_model.text_model.encoder.layers.11.mlp.fc1.weight"> : tensor<3072x768xf16>
  util.global private @_params.text_encoder_model.text_model.encoder.layers.11.mlp.fc1.bias {noinline} = #stream.parameter.named<"model"::"text_encoder_model.text_model.encoder.layers.11.mlp.fc1.bias"> : tensor<3072xf16>
  util.global private @_params.text_encoder_model.text_model.encoder.layers.11.mlp.fc2.weight {noinline} = #stream.parameter.named<"model"::"text_encoder_model.text_model.encoder.layers.11.mlp.fc2.weight"> : tensor<768x3072xf16>
  util.global private @_params.text_encoder_model.text_model.encoder.layers.11.mlp.fc2.bias {noinline} = #stream.parameter.named<"model"::"text_encoder_model.text_model.encoder.layers.11.mlp.fc2.bias"> : tensor<768xf16>
  util.global private @_params.text_encoder_model.text_model.encoder.layers.11.layer_norm2.weight {noinline} = #stream.parameter.named<"model"::"text_encoder_model.text_model.encoder.layers.11.layer_norm2.weight"> : tensor<768xf16>
  util.global private @_params.text_encoder_model.text_model.encoder.layers.11.layer_norm2.bias {noinline} = #stream.parameter.named<"model"::"text_encoder_model.text_model.encoder.layers.11.layer_norm2.bias"> : tensor<768xf16>
  util.global private @_params.text_encoder_model.text_model.final_layer_norm.weight {noinline} = #stream.parameter.named<"model"::"text_encoder_model.text_model.final_layer_norm.weight"> : tensor<768xf16>
  util.global private @_params.text_encoder_model.text_model.final_layer_norm.bias {noinline} = #stream.parameter.named<"model"::"text_encoder_model.text_model.final_layer_norm.bias"> : tensor<768xf16>
  func.func @main(%arg0: tensor<1x64xi64>) -> (tensor<1x64x768xf16>, tensor<1x64x768xf16>) attributes {torch.args_schema = "[1, {\22type\22: \22builtins.tuple\22, \22context\22: \22null\22, \22children_spec\22: [{\22type\22: \22builtins.list\22, \22context\22: \22null\22, \22children_spec\22: [{\22type\22: null, \22context\22: null, \22children_spec\22: []}]}, {\22type\22: \22builtins.dict\22, \22context\22: \22[]\22, \22children_spec\22: []}]}]", torch.return_schema = "[1, {\22type\22: \22builtins.tuple\22, \22context\22: \22null\22, \22children_spec\22: [{\22type\22: null, \22context\22: null, \22children_spec\22: []}, {\22type\22: null, \22context\22: null, \22children_spec\22: []}]}]"} {
    %0 = torch_c.from_builtin_tensor %arg0 : tensor<1x64xi64> -> !torch.vtensor<[1,64],si64>
    %1:2 = call @forward(%0) : (!torch.vtensor<[1,64],si64>) -> (!torch.vtensor<[1,64,768],f16>, !torch.vtensor<[1,64,768],f16>)
    %2 = torch_c.to_builtin_tensor %1#0 : !torch.vtensor<[1,64,768],f16> -> tensor<1x64x768xf16>
    %3 = torch_c.to_builtin_tensor %1#1 : !torch.vtensor<[1,64,768],f16> -> tensor<1x64x768xf16>
    return %2, %3 : tensor<1x64x768xf16>, tensor<1x64x768xf16>
  }
  func.func private @forward(%arg0: !torch.vtensor<[1,64],si64>) -> (!torch.vtensor<[1,64,768],f16>, !torch.vtensor<[1,64,768],f16>) {
    %int-1 = torch.constant.int -1
    %int64 = torch.constant.int 64
    %0 = torch.prim.ListConstruct %int-1, %int64 : (!torch.int, !torch.int) -> !torch.list<int>
    %1 = torch.aten.view %arg0, %0 : !torch.vtensor<[1,64],si64>, !torch.list<int> -> !torch.vtensor<[1,64],si64>
    %2 = torch.vtensor.literal(dense_resource<torch_tensor_1_77_torch.int64> : tensor<1x77xsi64>) : !torch.vtensor<[1,77],si64>
    %int0 = torch.constant.int 0
    %int0_0 = torch.constant.int 0
    %int9223372036854775807 = torch.constant.int 9223372036854775807
    %int1 = torch.constant.int 1
    %3 = torch.aten.slice.Tensor %2, %int0, %int0_0, %int9223372036854775807, %int1 : !torch.vtensor<[1,77],si64>, !torch.int, !torch.int, !torch.int, !torch.int -> !torch.vtensor<[1,77],si64>
    %int1_1 = torch.constant.int 1
    %int0_2 = torch.constant.int 0
    %int64_3 = torch.constant.int 64
    %int1_4 = torch.constant.int 1
    %4 = torch.aten.slice.Tensor %3, %int1_1, %int0_2, %int64_3, %int1_4 : !torch.vtensor<[1,77],si64>, !torch.int, !torch.int, !torch.int, !torch.int -> !torch.vtensor<[1,64],si64>
    %_params.text_encoder_model.text_model.embeddings.token_embedding.weight = util.global.load @_params.text_encoder_model.text_model.embeddings.token_embedding.weight : tensor<49408x768xf16>
    %5 = torch_c.from_builtin_tensor %_params.text_encoder_model.text_model.embeddings.token_embedding.weight : tensor<49408x768xf16> -> !torch.vtensor<[49408,768],f16>
    %int-1_5 = torch.constant.int -1
    %false = torch.constant.bool false
    %false_6 = torch.constant.bool false
    %6 = torch.aten.embedding %5, %1, %int-1_5, %false, %false_6 : !torch.vtensor<[49408,768],f16>, !torch.vtensor<[1,64],si64>, !torch.int, !torch.bool, !torch.bool -> !torch.vtensor<[1,64,768],f16>
    %_params.text_encoder_model.text_model.embeddings.position_embedding.weight = util.global.load @_params.text_encoder_model.text_model.embeddings.position_embedding.weight : tensor<77x768xf16>
    %7 = torch_c.from_builtin_tensor %_params.text_encoder_model.text_model.embeddings.position_embedding.weight : tensor<77x768xf16> -> !torch.vtensor<[77,768],f16>
    %int-1_7 = torch.constant.int -1
    %false_8 = torch.constant.bool false
    %false_9 = torch.constant.bool false
    %8 = torch.aten.embedding %7, %4, %int-1_7, %false_8, %false_9 : !torch.vtensor<[77,768],f16>, !torch.vtensor<[1,64],si64>, !torch.int, !torch.bool, !torch.bool -> !torch.vtensor<[1,64,768],f16>
    %int1_10 = torch.constant.int 1
    %9 = torch.aten.add.Tensor %6, %8, %int1_10 : !torch.vtensor<[1,64,768],f16>, !torch.vtensor<[1,64,768],f16>, !torch.int -> !torch.vtensor<[1,64,768],f16>
    %int64_11 = torch.constant.int 64
    %int64_12 = torch.constant.int 64
    %10 = torch.prim.ListConstruct %int64_11, %int64_12 : (!torch.int, !torch.int) -> !torch.list<int>
    %int64_13 = torch.constant.int 64
    %int1_14 = torch.constant.int 1
    %11 = torch.prim.ListConstruct %int64_13, %int1_14 : (!torch.int, !torch.int) -> !torch.list<int>
    %int6 = torch.constant.int 6
    %int0_15 = torch.constant.int 0
    %cpu = torch.constant.device "cpu"
    %false_16 = torch.constant.bool false
    %12 = torch.aten.empty_strided %10, %11, %int6, %int0_15, %cpu, %false_16 : !torch.list<int>, !torch.list<int>, !torch.int, !torch.int, !torch.Device, !torch.bool -> !torch.vtensor<[64,64],f32>
    %float-6.550400e04 = torch.constant.float -6.550400e+04
    %13 = torch.aten.fill.Scalar %12, %float-6.550400e04 : !torch.vtensor<[64,64],f32>, !torch.float -> !torch.vtensor<[64,64],f32>
    %int64_17 = torch.constant.int 64
    %none = torch.constant.none
    %none_18 = torch.constant.none
    %cpu_19 = torch.constant.device "cpu"
    %false_20 = torch.constant.bool false
    %14 = torch.aten.arange %int64_17, %none, %none_18, %cpu_19, %false_20 : !torch.int, !torch.none, !torch.none, !torch.Device, !torch.bool -> !torch.vtensor<[64],si64>
    %int1_21 = torch.constant.int 1
    %int1_22 = torch.constant.int 1
    %15 = torch.aten.add.Scalar %14, %int1_21, %int1_22 : !torch.vtensor<[64],si64>, !torch.int, !torch.int -> !torch.vtensor<[64],si64>
    %int64_23 = torch.constant.int 64
    %int1_24 = torch.constant.int 1
    %16 = torch.prim.ListConstruct %int64_23, %int1_24 : (!torch.int, !torch.int) -> !torch.list<int>
    %17 = torch.aten.view %15, %16 : !torch.vtensor<[64],si64>, !torch.list<int> -> !torch.vtensor<[64,1],si64>
    %18 = torch.aten.lt.Tensor %14, %17 : !torch.vtensor<[64],si64>, !torch.vtensor<[64,1],si64> -> !torch.vtensor<[64,64],i1>
    %float0.000000e00 = torch.constant.float 0.000000e+00
    %int6_25 = torch.constant.int 6
    %int0_26 = torch.constant.int 0
    %cpu_27 = torch.constant.device "cpu"
    %none_28 = torch.constant.none
    %19 = torch.aten.scalar_tensor %float0.000000e00, %int6_25, %int0_26, %cpu_27, %none_28 : !torch.float, !torch.int, !torch.int, !torch.Device, !torch.none -> !torch.vtensor<[],f32>
    %20 = torch.aten.where.self %18, %19, %13 : !torch.vtensor<[64,64],i1>, !torch.vtensor<[],f32>, !torch.vtensor<[64,64],f32> -> !torch.vtensor<[64,64],f32>
    %int5 = torch.constant.int 5
    %21 = torch.prims.convert_element_type %20, %int5 : !torch.vtensor<[64,64],f32>, !torch.int -> !torch.vtensor<[64,64],f16>
    %int0_29 = torch.constant.int 0
    %22 = torch.aten.unsqueeze %21, %int0_29 : !torch.vtensor<[64,64],f16>, !torch.int -> !torch.vtensor<[1,64,64],f16>
    %int1_30 = torch.constant.int 1
    %23 = torch.aten.unsqueeze %22, %int1_30 : !torch.vtensor<[1,64,64],f16>, !torch.int -> !torch.vtensor<[1,1,64,64],f16>
    %int2 = torch.constant.int 2
    %int0_31 = torch.constant.int 0
    %int9223372036854775807_32 = torch.constant.int 9223372036854775807
    %int1_33 = torch.constant.int 1
    %24 = torch.aten.slice.Tensor %23, %int2, %int0_31, %int9223372036854775807_32, %int1_33 : !torch.vtensor<[1,1,64,64],f16>, !torch.int, !torch.int, !torch.int, !torch.int -> !torch.vtensor<[1,1,64,64],f16>
    %int3 = torch.constant.int 3
    %int0_34 = torch.constant.int 0
    %int9223372036854775807_35 = torch.constant.int 9223372036854775807
    %int1_36 = torch.constant.int 1
    %25 = torch.aten.slice.Tensor %24, %int3, %int0_34, %int9223372036854775807_35, %int1_36 : !torch.vtensor<[1,1,64,64],f16>, !torch.int, !torch.int, !torch.int, !torch.int -> !torch.vtensor<[1,1,64,64],f16>
    %int1_37 = torch.constant.int 1
    %int1_38 = torch.constant.int 1
    %int64_39 = torch.constant.int 64
    %int64_40 = torch.constant.int 64
    %26 = torch.prim.ListConstruct %int1_37, %int1_38, %int64_39, %int64_40 : (!torch.int, !torch.int, !torch.int, !torch.int) -> !torch.list<int>
    %false_41 = torch.constant.bool false
    %27 = torch.aten.expand %25, %26, %false_41 : !torch.vtensor<[1,1,64,64],f16>, !torch.list<int>, !torch.bool -> !torch.vtensor<[1,1,64,64],f16>
    %int6_42 = torch.constant.int 6
    %28 = torch.prims.convert_element_type %9, %int6_42 : !torch.vtensor<[1,64,768],f16>, !torch.int -> !torch.vtensor<[1,64,768],f32>
    %int2_43 = torch.constant.int 2
    %29 = torch.prim.ListConstruct %int2_43 : (!torch.int) -> !torch.list<int>
    %int0_44 = torch.constant.int 0
    %true = torch.constant.bool true
    %result0, %result1 = torch.aten.var_mean.correction %28, %29, %int0_44, %true : !torch.vtensor<[1,64,768],f32>, !torch.list<int>, !torch.int, !torch.bool -> !torch.vtensor<[1,64,1],f32>, !torch.vtensor<[1,64,1],f32>
    %float1.000000e-05 = torch.constant.float 1.000000e-05
    %int1_45 = torch.constant.int 1
    %30 = torch.aten.add.Scalar %result0, %float1.000000e-05, %int1_45 : !torch.vtensor<[1,64,1],f32>, !torch.float, !torch.int -> !torch.vtensor<[1,64,1],f32>
    %31 = torch.aten.rsqrt %30 : !torch.vtensor<[1,64,1],f32> -> !torch.vtensor<[1,64,1],f32>
    %int1_46 = torch.constant.int 1
    %32 = torch.aten.sub.Tensor %9, %result1, %int1_46 : !torch.vtensor<[1,64,768],f16>, !torch.vtensor<[1,64,1],f32>, !torch.int -> !torch.vtensor<[1,64,768],f32>
    %33 = torch.aten.mul.Tensor %32, %31 : !torch.vtensor<[1,64,768],f32>, !torch.vtensor<[1,64,1],f32> -> !torch.vtensor<[1,64,768],f32>
    %_params.text_encoder_model.text_model.encoder.layers.0.layer_norm1.weight = util.global.load @_params.text_encoder_model.text_model.encoder.layers.0.layer_norm1.weight : tensor<768xf16>
    %34 = torch_c.from_builtin_tensor %_params.text_encoder_model.text_model.encoder.layers.0.layer_norm1.weight : tensor<768xf16> -> !torch.vtensor<[768],f16>
    %35 = torch.aten.mul.Tensor %33, %34 : !torch.vtensor<[1,64,768],f32>, !torch.vtensor<[768],f16> -> !torch.vtensor<[1,64,768],f32>
    %_params.text_encoder_model.text_model.encoder.layers.0.layer_norm1.bias = util.global.load @_params.text_encoder_model.text_model.encoder.layers.0.layer_norm1.bias : tensor<768xf16>
    %36 = torch_c.from_builtin_tensor %_params.text_encoder_model.text_model.encoder.layers.0.layer_norm1.bias : tensor<768xf16> -> !torch.vtensor<[768],f16>
    %int1_47 = torch.constant.int 1
    %37 = torch.aten.add.Tensor %35, %36, %int1_47 : !torch.vtensor<[1,64,768],f32>, !torch.vtensor<[768],f16>, !torch.int -> !torch.vtensor<[1,64,768],f32>
    %int5_48 = torch.constant.int 5
    %38 = torch.prims.convert_element_type %37, %int5_48 : !torch.vtensor<[1,64,768],f32>, !torch.int -> !torch.vtensor<[1,64,768],f16>
    %int5_49 = torch.constant.int 5
    %39 = torch.prims.convert_element_type %result1, %int5_49 : !torch.vtensor<[1,64,1],f32>, !torch.int -> !torch.vtensor<[1,64,1],f16>
    %int5_50 = torch.constant.int 5
    %40 = torch.prims.convert_element_type %31, %int5_50 : !torch.vtensor<[1,64,1],f32>, !torch.int -> !torch.vtensor<[1,64,1],f16>
    %int64_51 = torch.constant.int 64
    %int768 = torch.constant.int 768
    %41 = torch.prim.ListConstruct %int64_51, %int768 : (!torch.int, !torch.int) -> !torch.list<int>
    %42 = torch.aten.view %38, %41 : !torch.vtensor<[1,64,768],f16>, !torch.list<int> -> !torch.vtensor<[64,768],f16>
    %_params.text_encoder_model.text_model.encoder.layers.0.self_attn.q_proj.weight = util.global.load @_params.text_encoder_model.text_model.encoder.layers.0.self_attn.q_proj.weight : tensor<768x768xf16>
    %43 = torch_c.from_builtin_tensor %_params.text_encoder_model.text_model.encoder.layers.0.self_attn.q_proj.weight : tensor<768x768xf16> -> !torch.vtensor<[768,768],f16>
    %int0_52 = torch.constant.int 0
    %int1_53 = torch.constant.int 1
    %44 = torch.aten.transpose.int %43, %int0_52, %int1_53 : !torch.vtensor<[768,768],f16>, !torch.int, !torch.int -> !torch.vtensor<[768,768],f16>
    %_params.text_encoder_model.text_model.encoder.layers.0.self_attn.q_proj.bias = util.global.load @_params.text_encoder_model.text_model.encoder.layers.0.self_attn.q_proj.bias : tensor<768xf16>
    %45 = torch_c.from_builtin_tensor %_params.text_encoder_model.text_model.encoder.layers.0.self_attn.q_proj.bias : tensor<768xf16> -> !torch.vtensor<[768],f16>
    %int6_54 = torch.constant.int 6
    %46 = torch.prims.convert_element_type %45, %int6_54 : !torch.vtensor<[768],f16>, !torch.int -> !torch.vtensor<[768],f32>
    %int6_55 = torch.constant.int 6
    %47 = torch.prims.convert_element_type %42, %int6_55 : !torch.vtensor<[64,768],f16>, !torch.int -> !torch.vtensor<[64,768],f32>
    %int6_56 = torch.constant.int 6
    %48 = torch.prims.convert_element_type %44, %int6_56 : !torch.vtensor<[768,768],f16>, !torch.int -> !torch.vtensor<[768,768],f32>
    %49 = torch.aten.mm %47, %48 : !torch.vtensor<[64,768],f32>, !torch.vtensor<[768,768],f32> -> !torch.vtensor<[64,768],f32>
    %int1_57 = torch.constant.int 1
    %50 = torch.aten.mul.Scalar %49, %int1_57 : !torch.vtensor<[64,768],f32>, !torch.int -> !torch.vtensor<[64,768],f32>
    %int1_58 = torch.constant.int 1
    %51 = torch.aten.mul.Scalar %46, %int1_58 : !torch.vtensor<[768],f32>, !torch.int -> !torch.vtensor<[768],f32>
    %int1_59 = torch.constant.int 1
    %52 = torch.aten.add.Tensor %50, %51, %int1_59 : !torch.vtensor<[64,768],f32>, !torch.vtensor<[768],f32>, !torch.int -> !torch.vtensor<[64,768],f32>
    %int5_60 = torch.constant.int 5
    %53 = torch.prims.convert_element_type %52, %int5_60 : !torch.vtensor<[64,768],f32>, !torch.int -> !torch.vtensor<[64,768],f16>
    %int1_61 = torch.constant.int 1
    %int64_62 = torch.constant.int 64
    %int768_63 = torch.constant.int 768
    %54 = torch.prim.ListConstruct %int1_61, %int64_62, %int768_63 : (!torch.int, !torch.int, !torch.int) -> !torch.list<int>
    %55 = torch.aten.view %53, %54 : !torch.vtensor<[64,768],f16>, !torch.list<int> -> !torch.vtensor<[1,64,768],f16>
    %float1.250000e-01 = torch.constant.float 1.250000e-01
    %56 = torch.aten.mul.Scalar %55, %float1.250000e-01 : !torch.vtensor<[1,64,768],f16>, !torch.float -> !torch.vtensor<[1,64,768],f16>
    %int64_64 = torch.constant.int 64
    %int768_65 = torch.constant.int 768
    %57 = torch.prim.ListConstruct %int64_64, %int768_65 : (!torch.int, !torch.int) -> !torch.list<int>
    %58 = torch.aten.view %38, %57 : !torch.vtensor<[1,64,768],f16>, !torch.list<int> -> !torch.vtensor<[64,768],f16>
    %_params.text_encoder_model.text_model.encoder.layers.0.self_attn.k_proj.weight = util.global.load @_params.text_encoder_model.text_model.encoder.layers.0.self_attn.k_proj.weight : tensor<768x768xf16>
    %59 = torch_c.from_builtin_tensor %_params.text_encoder_model.text_model.encoder.layers.0.self_attn.k_proj.weight : tensor<768x768xf16> -> !torch.vtensor<[768,768],f16>
    %int0_66 = torch.constant.int 0
    %int1_67 = torch.constant.int 1
    %60 = torch.aten.transpose.int %59, %int0_66, %int1_67 : !torch.vtensor<[768,768],f16>, !torch.int, !torch.int -> !torch.vtensor<[768,768],f16>
    %_params.text_encoder_model.text_model.encoder.layers.0.self_attn.k_proj.bias = util.global.load @_params.text_encoder_model.text_model.encoder.layers.0.self_attn.k_proj.bias : tensor<768xf16>
    %61 = torch_c.from_builtin_tensor %_params.text_encoder_model.text_model.encoder.layers.0.self_attn.k_proj.bias : tensor<768xf16> -> !torch.vtensor<[768],f16>
    %int6_68 = torch.constant.int 6
    %62 = torch.prims.convert_element_type %61, %int6_68 : !torch.vtensor<[768],f16>, !torch.int -> !torch.vtensor<[768],f32>
    %int6_69 = torch.constant.int 6
    %63 = torch.prims.convert_element_type %58, %int6_69 : !torch.vtensor<[64,768],f16>, !torch.int -> !torch.vtensor<[64,768],f32>
    %int6_70 = torch.constant.int 6
    %64 = torch.prims.convert_element_type %60, %int6_70 : !torch.vtensor<[768,768],f16>, !torch.int -> !torch.vtensor<[768,768],f32>
    %65 = torch.aten.mm %63, %64 : !torch.vtensor<[64,768],f32>, !torch.vtensor<[768,768],f32> -> !torch.vtensor<[64,768],f32>
    %int1_71 = torch.constant.int 1
    %66 = torch.aten.mul.Scalar %65, %int1_71 : !torch.vtensor<[64,768],f32>, !torch.int -> !torch.vtensor<[64,768],f32>
    %int1_72 = torch.constant.int 1
    %67 = torch.aten.mul.Scalar %62, %int1_72 : !torch.vtensor<[768],f32>, !torch.int -> !torch.vtensor<[768],f32>
    %int1_73 = torch.constant.int 1
    %68 = torch.aten.add.Tensor %66, %67, %int1_73 : !torch.vtensor<[64,768],f32>, !torch.vtensor<[768],f32>, !torch.int -> !torch.vtensor<[64,768],f32>
    %int5_74 = torch.constant.int 5
    %69 = torch.prims.convert_element_type %68, %int5_74 : !torch.vtensor<[64,768],f32>, !torch.int -> !torch.vtensor<[64,768],f16>
    %int1_75 = torch.constant.int 1
    %int64_76 = torch.constant.int 64
    %int768_77 = torch.constant.int 768
    %70 = torch.prim.ListConstruct %int1_75, %int64_76, %int768_77 : (!torch.int, !torch.int, !torch.int) -> !torch.list<int>
    %71 = torch.aten.view %69, %70 : !torch.vtensor<[64,768],f16>, !torch.list<int> -> !torch.vtensor<[1,64,768],f16>
    %int1_78 = torch.constant.int 1
    %int-1_79 = torch.constant.int -1
    %int12 = torch.constant.int 12
    %int64_80 = torch.constant.int 64
    %72 = torch.prim.ListConstruct %int1_78, %int-1_79, %int12, %int64_80 : (!torch.int, !torch.int, !torch.int, !torch.int) -> !torch.list<int>
    %73 = torch.aten.view %71, %72 : !torch.vtensor<[1,64,768],f16>, !torch.list<int> -> !torch.vtensor<[1,64,12,64],f16>
    %int1_81 = torch.constant.int 1
    %int2_82 = torch.constant.int 2
    %74 = torch.aten.transpose.int %73, %int1_81, %int2_82 : !torch.vtensor<[1,64,12,64],f16>, !torch.int, !torch.int -> !torch.vtensor<[1,12,64,64],f16>
    %int0_83 = torch.constant.int 0
    %75 = torch.aten.clone %74, %int0_83 : !torch.vtensor<[1,12,64,64],f16>, !torch.int -> !torch.vtensor<[1,12,64,64],f16>
    %int64_84 = torch.constant.int 64
    %int768_85 = torch.constant.int 768
    %76 = torch.prim.ListConstruct %int64_84, %int768_85 : (!torch.int, !torch.int) -> !torch.list<int>
    %77 = torch.aten.view %38, %76 : !torch.vtensor<[1,64,768],f16>, !torch.list<int> -> !torch.vtensor<[64,768],f16>
    %_params.text_encoder_model.text_model.encoder.layers.0.self_attn.v_proj.weight = util.global.load @_params.text_encoder_model.text_model.encoder.layers.0.self_attn.v_proj.weight : tensor<768x768xf16>
    %78 = torch_c.from_builtin_tensor %_params.text_encoder_model.text_model.encoder.layers.0.self_attn.v_proj.weight : tensor<768x768xf16> -> !torch.vtensor<[768,768],f16>
    %int0_86 = torch.constant.int 0
    %int1_87 = torch.constant.int 1
    %79 = torch.aten.transpose.int %78, %int0_86, %int1_87 : !torch.vtensor<[768,768],f16>, !torch.int, !torch.int -> !torch.vtensor<[768,768],f16>
    %_params.text_encoder_model.text_model.encoder.layers.0.self_attn.v_proj.bias = util.global.load @_params.text_encoder_model.text_model.encoder.layers.0.self_attn.v_proj.bias : tensor<768xf16>
    %80 = torch_c.from_builtin_tensor %_params.text_encoder_model.text_model.encoder.layers.0.self_attn.v_proj.bias : tensor<768xf16> -> !torch.vtensor<[768],f16>
    %int6_88 = torch.constant.int 6
    %81 = torch.prims.convert_element_type %80, %int6_88 : !torch.vtensor<[768],f16>, !torch.int -> !torch.vtensor<[768],f32>
    %int6_89 = torch.constant.int 6
    %82 = torch.prims.convert_element_type %77, %int6_89 : !torch.vtensor<[64,768],f16>, !torch.int -> !torch.vtensor<[64,768],f32>
    %int6_90 = torch.constant.int 6
    %83 = torch.prims.convert_element_type %79, %int6_90 : !torch.vtensor<[768,768],f16>, !torch.int -> !torch.vtensor<[768,768],f32>
    %84 = torch.aten.mm %82, %83 : !torch.vtensor<[64,768],f32>, !torch.vtensor<[768,768],f32> -> !torch.vtensor<[64,768],f32>
    %int1_91 = torch.constant.int 1
    %85 = torch.aten.mul.Scalar %84, %int1_91 : !torch.vtensor<[64,768],f32>, !torch.int -> !torch.vtensor<[64,768],f32>
    %int1_92 = torch.constant.int 1
    %86 = torch.aten.mul.Scalar %81, %int1_92 : !torch.vtensor<[768],f32>, !torch.int -> !torch.vtensor<[768],f32>
    %int1_93 = torch.constant.int 1
    %87 = torch.aten.add.Tensor %85, %86, %int1_93 : !torch.vtensor<[64,768],f32>, !torch.vtensor<[768],f32>, !torch.int -> !torch.vtensor<[64,768],f32>
    %int5_94 = torch.constant.int 5
    %88 = torch.prims.convert_element_type %87, %int5_94 : !torch.vtensor<[64,768],f32>, !torch.int -> !torch.vtensor<[64,768],f16>
    %int1_95 = torch.constant.int 1
    %int64_96 = torch.constant.int 64
    %int768_97 = torch.constant.int 768
    %89 = torch.prim.ListConstruct %int1_95, %int64_96, %int768_97 : (!torch.int, !torch.int, !torch.int) -> !torch.list<int>
    %90 = torch.aten.view %88, %89 : !torch.vtensor<[64,768],f16>, !torch.list<int> -> !torch.vtensor<[1,64,768],f16>
    %int1_98 = torch.constant.int 1
    %int-1_99 = torch.constant.int -1
    %int12_100 = torch.constant.int 12
    %int64_101 = torch.constant.int 64
    %91 = torch.prim.ListConstruct %int1_98, %int-1_99, %int12_100, %int64_101 : (!torch.int, !torch.int, !torch.int, !torch.int) -> !torch.list<int>
    %92 = torch.aten.view %90, %91 : !torch.vtensor<[1,64,768],f16>, !torch.list<int> -> !torch.vtensor<[1,64,12,64],f16>
    %int1_102 = torch.constant.int 1
    %int2_103 = torch.constant.int 2
    %93 = torch.aten.transpose.int %92, %int1_102, %int2_103 : !torch.vtensor<[1,64,12,64],f16>, !torch.int, !torch.int -> !torch.vtensor<[1,12,64,64],f16>
    %int0_104 = torch.constant.int 0
    %94 = torch.aten.clone %93, %int0_104 : !torch.vtensor<[1,12,64,64],f16>, !torch.int -> !torch.vtensor<[1,12,64,64],f16>
    %int1_105 = torch.constant.int 1
    %int64_106 = torch.constant.int 64
    %int12_107 = torch.constant.int 12
    %int64_108 = torch.constant.int 64
    %95 = torch.prim.ListConstruct %int1_105, %int64_106, %int12_107, %int64_108 : (!torch.int, !torch.int, !torch.int, !torch.int) -> !torch.list<int>
    %96 = torch.aten.view %56, %95 : !torch.vtensor<[1,64,768],f16>, !torch.list<int> -> !torch.vtensor<[1,64,12,64],f16>
    %int1_109 = torch.constant.int 1
    %int2_110 = torch.constant.int 2
    %97 = torch.aten.transpose.int %96, %int1_109, %int2_110 : !torch.vtensor<[1,64,12,64],f16>, !torch.int, !torch.int -> !torch.vtensor<[1,12,64,64],f16>
    %int0_111 = torch.constant.int 0
    %98 = torch.aten.clone %97, %int0_111 : !torch.vtensor<[1,12,64,64],f16>, !torch.int -> !torch.vtensor<[1,12,64,64],f16>
    %int12_112 = torch.constant.int 12
    %int-1_113 = torch.constant.int -1
    %int64_114 = torch.constant.int 64
    %99 = torch.prim.ListConstruct %int12_112, %int-1_113, %int64_114 : (!torch.int, !torch.int, !torch.int) -> !torch.list<int>
    %100 = torch.aten.view %98, %99 : !torch.vtensor<[1,12,64,64],f16>, !torch.list<int> -> !torch.vtensor<[12,64,64],f16>
    %int12_115 = torch.constant.int 12
    %int-1_116 = torch.constant.int -1
    %int64_117 = torch.constant.int 64
    %101 = torch.prim.ListConstruct %int12_115, %int-1_116, %int64_117 : (!torch.int, !torch.int, !torch.int) -> !torch.list<int>
    %102 = torch.aten.view %75, %101 : !torch.vtensor<[1,12,64,64],f16>, !torch.list<int> -> !torch.vtensor<[12,64,64],f16>
    %int12_118 = torch.constant.int 12
    %int-1_119 = torch.constant.int -1
    %int64_120 = torch.constant.int 64
    %103 = torch.prim.ListConstruct %int12_118, %int-1_119, %int64_120 : (!torch.int, !torch.int, !torch.int) -> !torch.list<int>
    %104 = torch.aten.view %94, %103 : !torch.vtensor<[1,12,64,64],f16>, !torch.list<int> -> !torch.vtensor<[12,64,64],f16>
    %int1_121 = torch.constant.int 1
    %int2_122 = torch.constant.int 2
    %105 = torch.aten.transpose.int %102, %int1_121, %int2_122 : !torch.vtensor<[12,64,64],f16>, !torch.int, !torch.int -> !torch.vtensor<[12,64,64],f16>
    %106 = torch.aten.bmm %100, %105 : !torch.vtensor<[12,64,64],f16>, !torch.vtensor<[12,64,64],f16> -> !torch.vtensor<[12,64,64],f16>
    %int1_123 = torch.constant.int 1
    %int12_124 = torch.constant.int 12
    %int64_125 = torch.constant.int 64
    %int64_126 = torch.constant.int 64
    %107 = torch.prim.ListConstruct %int1_123, %int12_124, %int64_125, %int64_126 : (!torch.int, !torch.int, !torch.int, !torch.int) -> !torch.list<int>
    %108 = torch.aten.view %106, %107 : !torch.vtensor<[12,64,64],f16>, !torch.list<int> -> !torch.vtensor<[1,12,64,64],f16>
    %int1_127 = torch.constant.int 1
    %109 = torch.aten.add.Tensor %108, %27, %int1_127 : !torch.vtensor<[1,12,64,64],f16>, !torch.vtensor<[1,1,64,64],f16>, !torch.int -> !torch.vtensor<[1,12,64,64],f16>
    %int12_128 = torch.constant.int 12
    %int64_129 = torch.constant.int 64
    %int64_130 = torch.constant.int 64
    %110 = torch.prim.ListConstruct %int12_128, %int64_129, %int64_130 : (!torch.int, !torch.int, !torch.int) -> !torch.list<int>
    %111 = torch.aten.view %109, %110 : !torch.vtensor<[1,12,64,64],f16>, !torch.list<int> -> !torch.vtensor<[12,64,64],f16>
    %int-1_131 = torch.constant.int -1
    %false_132 = torch.constant.bool false
    %112 = torch.aten._softmax %111, %int-1_131, %false_132 : !torch.vtensor<[12,64,64],f16>, !torch.int, !torch.bool -> !torch.vtensor<[12,64,64],f16>
    %113 = torch.aten.detach %112 : !torch.vtensor<[12,64,64],f16> -> !torch.vtensor<[12,64,64],f16>
    %none_133 = torch.constant.none
    %114 = torch.aten.clone %112, %none_133 : !torch.vtensor<[12,64,64],f16>, !torch.none -> !torch.vtensor<[12,64,64],f16>
    %115 = torch.aten.bmm %114, %104 : !torch.vtensor<[12,64,64],f16>, !torch.vtensor<[12,64,64],f16> -> !torch.vtensor<[12,64,64],f16>
    %int1_134 = torch.constant.int 1
    %int12_135 = torch.constant.int 12
    %int64_136 = torch.constant.int 64
    %int64_137 = torch.constant.int 64
    %116 = torch.prim.ListConstruct %int1_134, %int12_135, %int64_136, %int64_137 : (!torch.int, !torch.int, !torch.int, !torch.int) -> !torch.list<int>
    %117 = torch.aten.view %115, %116 : !torch.vtensor<[12,64,64],f16>, !torch.list<int> -> !torch.vtensor<[1,12,64,64],f16>
    %int1_138 = torch.constant.int 1
    %int2_139 = torch.constant.int 2
    %118 = torch.aten.transpose.int %117, %int1_138, %int2_139 : !torch.vtensor<[1,12,64,64],f16>, !torch.int, !torch.int -> !torch.vtensor<[1,64,12,64],f16>
    %int0_140 = torch.constant.int 0
    %119 = torch.aten.clone %118, %int0_140 : !torch.vtensor<[1,64,12,64],f16>, !torch.int -> !torch.vtensor<[1,64,12,64],f16>
    %int1_141 = torch.constant.int 1
    %int64_142 = torch.constant.int 64
    %int768_143 = torch.constant.int 768
    %120 = torch.prim.ListConstruct %int1_141, %int64_142, %int768_143 : (!torch.int, !torch.int, !torch.int) -> !torch.list<int>
    %121 = torch.aten._unsafe_view %119, %120 : !torch.vtensor<[1,64,12,64],f16>, !torch.list<int> -> !torch.vtensor<[1,64,768],f16>
    %int64_144 = torch.constant.int 64
    %int768_145 = torch.constant.int 768
    %122 = torch.prim.ListConstruct %int64_144, %int768_145 : (!torch.int, !torch.int) -> !torch.list<int>
    %123 = torch.aten.view %121, %122 : !torch.vtensor<[1,64,768],f16>, !torch.list<int> -> !torch.vtensor<[64,768],f16>
    %_params.text_encoder_model.text_model.encoder.layers.0.self_attn.out_proj.weight = util.global.load @_params.text_encoder_model.text_model.encoder.layers.0.self_attn.out_proj.weight : tensor<768x768xf16>
    %124 = torch_c.from_builtin_tensor %_params.text_encoder_model.text_model.encoder.layers.0.self_attn.out_proj.weight : tensor<768x768xf16> -> !torch.vtensor<[768,768],f16>
    %int0_146 = torch.constant.int 0
    %int1_147 = torch.constant.int 1
    %125 = torch.aten.transpose.int %124, %int0_146, %int1_147 : !torch.vtensor<[768,768],f16>, !torch.int, !torch.int -> !torch.vtensor<[768,768],f16>
    %_params.text_encoder_model.text_model.encoder.layers.0.self_attn.out_proj.bias = util.global.load @_params.text_encoder_model.text_model.encoder.layers.0.self_attn.out_proj.bias : tensor<768xf16>
    %126 = torch_c.from_builtin_tensor %_params.text_encoder_model.text_model.encoder.layers.0.self_attn.out_proj.bias : tensor<768xf16> -> !torch.vtensor<[768],f16>
    %int6_148 = torch.constant.int 6
    %127 = torch.prims.convert_element_type %126, %int6_148 : !torch.vtensor<[768],f16>, !torch.int -> !torch.vtensor<[768],f32>
    %int6_149 = torch.constant.int 6
    %128 = torch.prims.convert_element_type %123, %int6_149 : !torch.vtensor<[64,768],f16>, !torch.int -> !torch.vtensor<[64,768],f32>
    %int6_150 = torch.constant.int 6
    %129 = torch.prims.convert_element_type %125, %int6_150 : !torch.vtensor<[768,768],f16>, !torch.int -> !torch.vtensor<[768,768],f32>
    %130 = torch.aten.mm %128, %129 : !torch.vtensor<[64,768],f32>, !torch.vtensor<[768,768],f32> -> !torch.vtensor<[64,768],f32>
    %int1_151 = torch.constant.int 1
    %131 = torch.aten.mul.Scalar %130, %int1_151 : !torch.vtensor<[64,768],f32>, !torch.int -> !torch.vtensor<[64,768],f32>
    %int1_152 = torch.constant.int 1
    %132 = torch.aten.mul.Scalar %127, %int1_152 : !torch.vtensor<[768],f32>, !torch.int -> !torch.vtensor<[768],f32>
    %int1_153 = torch.constant.int 1
    %133 = torch.aten.add.Tensor %131, %132, %int1_153 : !torch.vtensor<[64,768],f32>, !torch.vtensor<[768],f32>, !torch.int -> !torch.vtensor<[64,768],f32>
    %int5_154 = torch.constant.int 5
    %134 = torch.prims.convert_element_type %133, %int5_154 : !torch.vtensor<[64,768],f32>, !torch.int -> !torch.vtensor<[64,768],f16>
    %int1_155 = torch.constant.int 1
    %int64_156 = torch.constant.int 64
    %int768_157 = torch.constant.int 768
    %135 = torch.prim.ListConstruct %int1_155, %int64_156, %int768_157 : (!torch.int, !torch.int, !torch.int) -> !torch.list<int>
    %136 = torch.aten.view %134, %135 : !torch.vtensor<[64,768],f16>, !torch.list<int> -> !torch.vtensor<[1,64,768],f16>
    %int1_158 = torch.constant.int 1
    %137 = torch.aten.add.Tensor %9, %136, %int1_158 : !torch.vtensor<[1,64,768],f16>, !torch.vtensor<[1,64,768],f16>, !torch.int -> !torch.vtensor<[1,64,768],f16>
    %int6_159 = torch.constant.int 6
    %138 = torch.prims.convert_element_type %137, %int6_159 : !torch.vtensor<[1,64,768],f16>, !torch.int -> !torch.vtensor<[1,64,768],f32>
    %int2_160 = torch.constant.int 2
    %139 = torch.prim.ListConstruct %int2_160 : (!torch.int) -> !torch.list<int>
    %int0_161 = torch.constant.int 0
    %true_162 = torch.constant.bool true
    %result0_163, %result1_164 = torch.aten.var_mean.correction %138, %139, %int0_161, %true_162 : !torch.vtensor<[1,64,768],f32>, !torch.list<int>, !torch.int, !torch.bool -> !torch.vtensor<[1,64,1],f32>, !torch.vtensor<[1,64,1],f32>
    %float1.000000e-05_165 = torch.constant.float 1.000000e-05
    %int1_166 = torch.constant.int 1
    %140 = torch.aten.add.Scalar %result0_163, %float1.000000e-05_165, %int1_166 : !torch.vtensor<[1,64,1],f32>, !torch.float, !torch.int -> !torch.vtensor<[1,64,1],f32>
    %141 = torch.aten.rsqrt %140 : !torch.vtensor<[1,64,1],f32> -> !torch.vtensor<[1,64,1],f32>
    %int1_167 = torch.constant.int 1
    %142 = torch.aten.sub.Tensor %137, %result1_164, %int1_167 : !torch.vtensor<[1,64,768],f16>, !torch.vtensor<[1,64,1],f32>, !torch.int -> !torch.vtensor<[1,64,768],f32>
    %143 = torch.aten.mul.Tensor %142, %141 : !torch.vtensor<[1,64,768],f32>, !torch.vtensor<[1,64,1],f32> -> !torch.vtensor<[1,64,768],f32>
    %_params.text_encoder_model.text_model.encoder.layers.0.layer_norm2.weight = util.global.load @_params.text_encoder_model.text_model.encoder.layers.0.layer_norm2.weight : tensor<768xf16>
    %144 = torch_c.from_builtin_tensor %_params.text_encoder_model.text_model.encoder.layers.0.layer_norm2.weight : tensor<768xf16> -> !torch.vtensor<[768],f16>
    %145 = torch.aten.mul.Tensor %143, %144 : !torch.vtensor<[1,64,768],f32>, !torch.vtensor<[768],f16> -> !torch.vtensor<[1,64,768],f32>
    %_params.text_encoder_model.text_model.encoder.layers.0.layer_norm2.bias = util.global.load @_params.text_encoder_model.text_model.encoder.layers.0.layer_norm2.bias : tensor<768xf16>
    %146 = torch_c.from_builtin_tensor %_params.text_encoder_model.text_model.encoder.layers.0.layer_norm2.bias : tensor<768xf16> -> !torch.vtensor<[768],f16>
    %int1_168 = torch.constant.int 1
    %147 = torch.aten.add.Tensor %145, %146, %int1_168 : !torch.vtensor<[1,64,768],f32>, !torch.vtensor<[768],f16>, !torch.int -> !torch.vtensor<[1,64,768],f32>
    %int5_169 = torch.constant.int 5
    %148 = torch.prims.convert_element_type %147, %int5_169 : !torch.vtensor<[1,64,768],f32>, !torch.int -> !torch.vtensor<[1,64,768],f16>
    %int5_170 = torch.constant.int 5
    %149 = torch.prims.convert_element_type %result1_164, %int5_170 : !torch.vtensor<[1,64,1],f32>, !torch.int -> !torch.vtensor<[1,64,1],f16>
    %int5_171 = torch.constant.int 5
    %150 = torch.prims.convert_element_type %141, %int5_171 : !torch.vtensor<[1,64,1],f32>, !torch.int -> !torch.vtensor<[1,64,1],f16>
    %int64_172 = torch.constant.int 64
    %int768_173 = torch.constant.int 768
    %151 = torch.prim.ListConstruct %int64_172, %int768_173 : (!torch.int, !torch.int) -> !torch.list<int>
    %152 = torch.aten.view %148, %151 : !torch.vtensor<[1,64,768],f16>, !torch.list<int> -> !torch.vtensor<[64,768],f16>
    %_params.text_encoder_model.text_model.encoder.layers.0.mlp.fc1.weight = util.global.load @_params.text_encoder_model.text_model.encoder.layers.0.mlp.fc1.weight : tensor<3072x768xf16>
    %153 = torch_c.from_builtin_tensor %_params.text_encoder_model.text_model.encoder.layers.0.mlp.fc1.weight : tensor<3072x768xf16> -> !torch.vtensor<[3072,768],f16>
    %int0_174 = torch.constant.int 0
    %int1_175 = torch.constant.int 1
    %154 = torch.aten.transpose.int %153, %int0_174, %int1_175 : !torch.vtensor<[3072,768],f16>, !torch.int, !torch.int -> !torch.vtensor<[768,3072],f16>
    %_params.text_encoder_model.text_model.encoder.layers.0.mlp.fc1.bias = util.global.load @_params.text_encoder_model.text_model.encoder.layers.0.mlp.fc1.bias : tensor<3072xf16>
    %155 = torch_c.from_builtin_tensor %_params.text_encoder_model.text_model.encoder.layers.0.mlp.fc1.bias : tensor<3072xf16> -> !torch.vtensor<[3072],f16>
    %int6_176 = torch.constant.int 6
    %156 = torch.prims.convert_element_type %155, %int6_176 : !torch.vtensor<[3072],f16>, !torch.int -> !torch.vtensor<[3072],f32>
    %int6_177 = torch.constant.int 6
    %157 = torch.prims.convert_element_type %152, %int6_177 : !torch.vtensor<[64,768],f16>, !torch.int -> !torch.vtensor<[64,768],f32>
    %int6_178 = torch.constant.int 6
    %158 = torch.prims.convert_element_type %154, %int6_178 : !torch.vtensor<[768,3072],f16>, !torch.int -> !torch.vtensor<[768,3072],f32>
    %159 = torch.aten.mm %157, %158 : !torch.vtensor<[64,768],f32>, !torch.vtensor<[768,3072],f32> -> !torch.vtensor<[64,3072],f32>
    %int1_179 = torch.constant.int 1
    %160 = torch.aten.mul.Scalar %159, %int1_179 : !torch.vtensor<[64,3072],f32>, !torch.int -> !torch.vtensor<[64,3072],f32>
    %int1_180 = torch.constant.int 1
    %161 = torch.aten.mul.Scalar %156, %int1_180 : !torch.vtensor<[3072],f32>, !torch.int -> !torch.vtensor<[3072],f32>
    %int1_181 = torch.constant.int 1
    %162 = torch.aten.add.Tensor %160, %161, %int1_181 : !torch.vtensor<[64,3072],f32>, !torch.vtensor<[3072],f32>, !torch.int -> !torch.vtensor<[64,3072],f32>
    %int5_182 = torch.constant.int 5
    %163 = torch.prims.convert_element_type %162, %int5_182 : !torch.vtensor<[64,3072],f32>, !torch.int -> !torch.vtensor<[64,3072],f16>
    %int1_183 = torch.constant.int 1
    %int64_184 = torch.constant.int 64
    %int3072 = torch.constant.int 3072
    %164 = torch.prim.ListConstruct %int1_183, %int64_184, %int3072 : (!torch.int, !torch.int, !torch.int) -> !torch.list<int>
    %165 = torch.aten.view %163, %164 : !torch.vtensor<[64,3072],f16>, !torch.list<int> -> !torch.vtensor<[1,64,3072],f16>
    %float1.702000e00 = torch.constant.float 1.702000e+00
    %166 = torch.aten.mul.Scalar %165, %float1.702000e00 : !torch.vtensor<[1,64,3072],f16>, !torch.float -> !torch.vtensor<[1,64,3072],f16>
    %167 = torch.aten.sigmoid %166 : !torch.vtensor<[1,64,3072],f16> -> !torch.vtensor<[1,64,3072],f16>
    %168 = torch.aten.detach %167 : !torch.vtensor<[1,64,3072],f16> -> !torch.vtensor<[1,64,3072],f16>
    %169 = torch.aten.mul.Tensor %165, %167 : !torch.vtensor<[1,64,3072],f16>, !torch.vtensor<[1,64,3072],f16> -> !torch.vtensor<[1,64,3072],f16>
    %int64_185 = torch.constant.int 64
    %int3072_186 = torch.constant.int 3072
    %170 = torch.prim.ListConstruct %int64_185, %int3072_186 : (!torch.int, !torch.int) -> !torch.list<int>
    %171 = torch.aten.view %169, %170 : !torch.vtensor<[1,64,3072],f16>, !torch.list<int> -> !torch.vtensor<[64,3072],f16>
    %_params.text_encoder_model.text_model.encoder.layers.0.mlp.fc2.weight = util.global.load @_params.text_encoder_model.text_model.encoder.layers.0.mlp.fc2.weight : tensor<768x3072xf16>
    %172 = torch_c.from_builtin_tensor %_params.text_encoder_model.text_model.encoder.layers.0.mlp.fc2.weight : tensor<768x3072xf16> -> !torch.vtensor<[768,3072],f16>
    %int0_187 = torch.constant.int 0
    %int1_188 = torch.constant.int 1
    %173 = torch.aten.transpose.int %172, %int0_187, %int1_188 : !torch.vtensor<[768,3072],f16>, !torch.int, !torch.int -> !torch.vtensor<[3072,768],f16>
    %_params.text_encoder_model.text_model.encoder.layers.0.mlp.fc2.bias = util.global.load @_params.text_encoder_model.text_model.encoder.layers.0.mlp.fc2.bias : tensor<768xf16>
    %174 = torch_c.from_builtin_tensor %_params.text_encoder_model.text_model.encoder.layers.0.mlp.fc2.bias : tensor<768xf16> -> !torch.vtensor<[768],f16>
    %int6_189 = torch.constant.int 6
    %175 = torch.prims.convert_element_type %174, %int6_189 : !torch.vtensor<[768],f16>, !torch.int -> !torch.vtensor<[768],f32>
    %int6_190 = torch.constant.int 6
    %176 = torch.prims.convert_element_type %171, %int6_190 : !torch.vtensor<[64,3072],f16>, !torch.int -> !torch.vtensor<[64,3072],f32>
    %int6_191 = torch.constant.int 6
    %177 = torch.prims.convert_element_type %173, %int6_191 : !torch.vtensor<[3072,768],f16>, !torch.int -> !torch.vtensor<[3072,768],f32>
    %178 = torch.aten.mm %176, %177 : !torch.vtensor<[64,3072],f32>, !torch.vtensor<[3072,768],f32> -> !torch.vtensor<[64,768],f32>
    %int1_192 = torch.constant.int 1
    %179 = torch.aten.mul.Scalar %178, %int1_192 : !torch.vtensor<[64,768],f32>, !torch.int -> !torch.vtensor<[64,768],f32>
    %int1_193 = torch.constant.int 1
    %180 = torch.aten.mul.Scalar %175, %int1_193 : !torch.vtensor<[768],f32>, !torch.int -> !torch.vtensor<[768],f32>
    %int1_194 = torch.constant.int 1
    %181 = torch.aten.add.Tensor %179, %180, %int1_194 : !torch.vtensor<[64,768],f32>, !torch.vtensor<[768],f32>, !torch.int -> !torch.vtensor<[64,768],f32>
    %int5_195 = torch.constant.int 5
    %182 = torch.prims.convert_element_type %181, %int5_195 : !torch.vtensor<[64,768],f32>, !torch.int -> !torch.vtensor<[64,768],f16>
    %int1_196 = torch.constant.int 1
    %int64_197 = torch.constant.int 64
    %int768_198 = torch.constant.int 768
    %183 = torch.prim.ListConstruct %int1_196, %int64_197, %int768_198 : (!torch.int, !torch.int, !torch.int) -> !torch.list<int>
    %184 = torch.aten.view %182, %183 : !torch.vtensor<[64,768],f16>, !torch.list<int> -> !torch.vtensor<[1,64,768],f16>
    %int1_199 = torch.constant.int 1
    %185 = torch.aten.add.Tensor %137, %184, %int1_199 : !torch.vtensor<[1,64,768],f16>, !torch.vtensor<[1,64,768],f16>, !torch.int -> !torch.vtensor<[1,64,768],f16>
    %int6_200 = torch.constant.int 6
    %186 = torch.prims.convert_element_type %185, %int6_200 : !torch.vtensor<[1,64,768],f16>, !torch.int -> !torch.vtensor<[1,64,768],f32>
    %int2_201 = torch.constant.int 2
    %187 = torch.prim.ListConstruct %int2_201 : (!torch.int) -> !torch.list<int>
    %int0_202 = torch.constant.int 0
    %true_203 = torch.constant.bool true
    %result0_204, %result1_205 = torch.aten.var_mean.correction %186, %187, %int0_202, %true_203 : !torch.vtensor<[1,64,768],f32>, !torch.list<int>, !torch.int, !torch.bool -> !torch.vtensor<[1,64,1],f32>, !torch.vtensor<[1,64,1],f32>
    %float1.000000e-05_206 = torch.constant.float 1.000000e-05
    %int1_207 = torch.constant.int 1
    %188 = torch.aten.add.Scalar %result0_204, %float1.000000e-05_206, %int1_207 : !torch.vtensor<[1,64,1],f32>, !torch.float, !torch.int -> !torch.vtensor<[1,64,1],f32>
    %189 = torch.aten.rsqrt %188 : !torch.vtensor<[1,64,1],f32> -> !torch.vtensor<[1,64,1],f32>
    %int1_208 = torch.constant.int 1
    %190 = torch.aten.sub.Tensor %185, %result1_205, %int1_208 : !torch.vtensor<[1,64,768],f16>, !torch.vtensor<[1,64,1],f32>, !torch.int -> !torch.vtensor<[1,64,768],f32>
    %191 = torch.aten.mul.Tensor %190, %189 : !torch.vtensor<[1,64,768],f32>, !torch.vtensor<[1,64,1],f32> -> !torch.vtensor<[1,64,768],f32>
    %_params.text_encoder_model.text_model.encoder.layers.1.layer_norm1.weight = util.global.load @_params.text_encoder_model.text_model.encoder.layers.1.layer_norm1.weight : tensor<768xf16>
    %192 = torch_c.from_builtin_tensor %_params.text_encoder_model.text_model.encoder.layers.1.layer_norm1.weight : tensor<768xf16> -> !torch.vtensor<[768],f16>
    %193 = torch.aten.mul.Tensor %191, %192 : !torch.vtensor<[1,64,768],f32>, !torch.vtensor<[768],f16> -> !torch.vtensor<[1,64,768],f32>
    %_params.text_encoder_model.text_model.encoder.layers.1.layer_norm1.bias = util.global.load @_params.text_encoder_model.text_model.encoder.layers.1.layer_norm1.bias : tensor<768xf16>
    %194 = torch_c.from_builtin_tensor %_params.text_encoder_model.text_model.encoder.layers.1.layer_norm1.bias : tensor<768xf16> -> !torch.vtensor<[768],f16>
    %int1_209 = torch.constant.int 1
    %195 = torch.aten.add.Tensor %193, %194, %int1_209 : !torch.vtensor<[1,64,768],f32>, !torch.vtensor<[768],f16>, !torch.int -> !torch.vtensor<[1,64,768],f32>
    %int5_210 = torch.constant.int 5
    %196 = torch.prims.convert_element_type %195, %int5_210 : !torch.vtensor<[1,64,768],f32>, !torch.int -> !torch.vtensor<[1,64,768],f16>
    %int5_211 = torch.constant.int 5
    %197 = torch.prims.convert_element_type %result1_205, %int5_211 : !torch.vtensor<[1,64,1],f32>, !torch.int -> !torch.vtensor<[1,64,1],f16>
    %int5_212 = torch.constant.int 5
    %198 = torch.prims.convert_element_type %189, %int5_212 : !torch.vtensor<[1,64,1],f32>, !torch.int -> !torch.vtensor<[1,64,1],f16>
    %int64_213 = torch.constant.int 64
    %int768_214 = torch.constant.int 768
    %199 = torch.prim.ListConstruct %int64_213, %int768_214 : (!torch.int, !torch.int) -> !torch.list<int>
    %200 = torch.aten.view %196, %199 : !torch.vtensor<[1,64,768],f16>, !torch.list<int> -> !torch.vtensor<[64,768],f16>
    %_params.text_encoder_model.text_model.encoder.layers.1.self_attn.q_proj.weight = util.global.load @_params.text_encoder_model.text_model.encoder.layers.1.self_attn.q_proj.weight : tensor<768x768xf16>
    %201 = torch_c.from_builtin_tensor %_params.text_encoder_model.text_model.encoder.layers.1.self_attn.q_proj.weight : tensor<768x768xf16> -> !torch.vtensor<[768,768],f16>
    %int0_215 = torch.constant.int 0
    %int1_216 = torch.constant.int 1
    %202 = torch.aten.transpose.int %201, %int0_215, %int1_216 : !torch.vtensor<[768,768],f16>, !torch.int, !torch.int -> !torch.vtensor<[768,768],f16>
    %_params.text_encoder_model.text_model.encoder.layers.1.self_attn.q_proj.bias = util.global.load @_params.text_encoder_model.text_model.encoder.layers.1.self_attn.q_proj.bias : tensor<768xf16>
    %203 = torch_c.from_builtin_tensor %_params.text_encoder_model.text_model.encoder.layers.1.self_attn.q_proj.bias : tensor<768xf16> -> !torch.vtensor<[768],f16>
    %int6_217 = torch.constant.int 6
    %204 = torch.prims.convert_element_type %203, %int6_217 : !torch.vtensor<[768],f16>, !torch.int -> !torch.vtensor<[768],f32>
    %int6_218 = torch.constant.int 6
    %205 = torch.prims.convert_element_type %200, %int6_218 : !torch.vtensor<[64,768],f16>, !torch.int -> !torch.vtensor<[64,768],f32>
    %int6_219 = torch.constant.int 6
    %206 = torch.prims.convert_element_type %202, %int6_219 : !torch.vtensor<[768,768],f16>, !torch.int -> !torch.vtensor<[768,768],f32>
    %207 = torch.aten.mm %205, %206 : !torch.vtensor<[64,768],f32>, !torch.vtensor<[768,768],f32> -> !torch.vtensor<[64,768],f32>
    %int1_220 = torch.constant.int 1
    %208 = torch.aten.mul.Scalar %207, %int1_220 : !torch.vtensor<[64,768],f32>, !torch.int -> !torch.vtensor<[64,768],f32>
    %int1_221 = torch.constant.int 1
    %209 = torch.aten.mul.Scalar %204, %int1_221 : !torch.vtensor<[768],f32>, !torch.int -> !torch.vtensor<[768],f32>
    %int1_222 = torch.constant.int 1
    %210 = torch.aten.add.Tensor %208, %209, %int1_222 : !torch.vtensor<[64,768],f32>, !torch.vtensor<[768],f32>, !torch.int -> !torch.vtensor<[64,768],f32>
    %int5_223 = torch.constant.int 5
    %211 = torch.prims.convert_element_type %210, %int5_223 : !torch.vtensor<[64,768],f32>, !torch.int -> !torch.vtensor<[64,768],f16>
    %int1_224 = torch.constant.int 1
    %int64_225 = torch.constant.int 64
    %int768_226 = torch.constant.int 768
    %212 = torch.prim.ListConstruct %int1_224, %int64_225, %int768_226 : (!torch.int, !torch.int, !torch.int) -> !torch.list<int>
    %213 = torch.aten.view %211, %212 : !torch.vtensor<[64,768],f16>, !torch.list<int> -> !torch.vtensor<[1,64,768],f16>
    %float1.250000e-01_227 = torch.constant.float 1.250000e-01
    %214 = torch.aten.mul.Scalar %213, %float1.250000e-01_227 : !torch.vtensor<[1,64,768],f16>, !torch.float -> !torch.vtensor<[1,64,768],f16>
    %int64_228 = torch.constant.int 64
    %int768_229 = torch.constant.int 768
    %215 = torch.prim.ListConstruct %int64_228, %int768_229 : (!torch.int, !torch.int) -> !torch.list<int>
    %216 = torch.aten.view %196, %215 : !torch.vtensor<[1,64,768],f16>, !torch.list<int> -> !torch.vtensor<[64,768],f16>
    %_params.text_encoder_model.text_model.encoder.layers.1.self_attn.k_proj.weight = util.global.load @_params.text_encoder_model.text_model.encoder.layers.1.self_attn.k_proj.weight : tensor<768x768xf16>
    %217 = torch_c.from_builtin_tensor %_params.text_encoder_model.text_model.encoder.layers.1.self_attn.k_proj.weight : tensor<768x768xf16> -> !torch.vtensor<[768,768],f16>
    %int0_230 = torch.constant.int 0
    %int1_231 = torch.constant.int 1
    %218 = torch.aten.transpose.int %217, %int0_230, %int1_231 : !torch.vtensor<[768,768],f16>, !torch.int, !torch.int -> !torch.vtensor<[768,768],f16>
    %_params.text_encoder_model.text_model.encoder.layers.1.self_attn.k_proj.bias = util.global.load @_params.text_encoder_model.text_model.encoder.layers.1.self_attn.k_proj.bias : tensor<768xf16>
    %219 = torch_c.from_builtin_tensor %_params.text_encoder_model.text_model.encoder.layers.1.self_attn.k_proj.bias : tensor<768xf16> -> !torch.vtensor<[768],f16>
    %int6_232 = torch.constant.int 6
    %220 = torch.prims.convert_element_type %219, %int6_232 : !torch.vtensor<[768],f16>, !torch.int -> !torch.vtensor<[768],f32>
    %int6_233 = torch.constant.int 6
    %221 = torch.prims.convert_element_type %216, %int6_233 : !torch.vtensor<[64,768],f16>, !torch.int -> !torch.vtensor<[64,768],f32>
    %int6_234 = torch.constant.int 6
    %222 = torch.prims.convert_element_type %218, %int6_234 : !torch.vtensor<[768,768],f16>, !torch.int -> !torch.vtensor<[768,768],f32>
    %223 = torch.aten.mm %221, %222 : !torch.vtensor<[64,768],f32>, !torch.vtensor<[768,768],f32> -> !torch.vtensor<[64,768],f32>
    %int1_235 = torch.constant.int 1
    %224 = torch.aten.mul.Scalar %223, %int1_235 : !torch.vtensor<[64,768],f32>, !torch.int -> !torch.vtensor<[64,768],f32>
    %int1_236 = torch.constant.int 1
    %225 = torch.aten.mul.Scalar %220, %int1_236 : !torch.vtensor<[768],f32>, !torch.int -> !torch.vtensor<[768],f32>
    %int1_237 = torch.constant.int 1
    %226 = torch.aten.add.Tensor %224, %225, %int1_237 : !torch.vtensor<[64,768],f32>, !torch.vtensor<[768],f32>, !torch.int -> !torch.vtensor<[64,768],f32>
    %int5_238 = torch.constant.int 5
    %227 = torch.prims.convert_element_type %226, %int5_238 : !torch.vtensor<[64,768],f32>, !torch.int -> !torch.vtensor<[64,768],f16>
    %int1_239 = torch.constant.int 1
    %int64_240 = torch.constant.int 64
    %int768_241 = torch.constant.int 768
    %228 = torch.prim.ListConstruct %int1_239, %int64_240, %int768_241 : (!torch.int, !torch.int, !torch.int) -> !torch.list<int>
    %229 = torch.aten.view %227, %228 : !torch.vtensor<[64,768],f16>, !torch.list<int> -> !torch.vtensor<[1,64,768],f16>
    %int1_242 = torch.constant.int 1
    %int-1_243 = torch.constant.int -1
    %int12_244 = torch.constant.int 12
    %int64_245 = torch.constant.int 64
    %230 = torch.prim.ListConstruct %int1_242, %int-1_243, %int12_244, %int64_245 : (!torch.int, !torch.int, !torch.int, !torch.int) -> !torch.list<int>
    %231 = torch.aten.view %229, %230 : !torch.vtensor<[1,64,768],f16>, !torch.list<int> -> !torch.vtensor<[1,64,12,64],f16>
    %int1_246 = torch.constant.int 1
    %int2_247 = torch.constant.int 2
    %232 = torch.aten.transpose.int %231, %int1_246, %int2_247 : !torch.vtensor<[1,64,12,64],f16>, !torch.int, !torch.int -> !torch.vtensor<[1,12,64,64],f16>
    %int0_248 = torch.constant.int 0
    %233 = torch.aten.clone %232, %int0_248 : !torch.vtensor<[1,12,64,64],f16>, !torch.int -> !torch.vtensor<[1,12,64,64],f16>
    %int64_249 = torch.constant.int 64
    %int768_250 = torch.constant.int 768
    %234 = torch.prim.ListConstruct %int64_249, %int768_250 : (!torch.int, !torch.int) -> !torch.list<int>
    %235 = torch.aten.view %196, %234 : !torch.vtensor<[1,64,768],f16>, !torch.list<int> -> !torch.vtensor<[64,768],f16>
    %_params.text_encoder_model.text_model.encoder.layers.1.self_attn.v_proj.weight = util.global.load @_params.text_encoder_model.text_model.encoder.layers.1.self_attn.v_proj.weight : tensor<768x768xf16>
    %236 = torch_c.from_builtin_tensor %_params.text_encoder_model.text_model.encoder.layers.1.self_attn.v_proj.weight : tensor<768x768xf16> -> !torch.vtensor<[768,768],f16>
    %int0_251 = torch.constant.int 0
    %int1_252 = torch.constant.int 1
    %237 = torch.aten.transpose.int %236, %int0_251, %int1_252 : !torch.vtensor<[768,768],f16>, !torch.int, !torch.int -> !torch.vtensor<[768,768],f16>
    %_params.text_encoder_model.text_model.encoder.layers.1.self_attn.v_proj.bias = util.global.load @_params.text_encoder_model.text_model.encoder.layers.1.self_attn.v_proj.bias : tensor<768xf16>
    %238 = torch_c.from_builtin_tensor %_params.text_encoder_model.text_model.encoder.layers.1.self_attn.v_proj.bias : tensor<768xf16> -> !torch.vtensor<[768],f16>
    %int6_253 = torch.constant.int 6
    %239 = torch.prims.convert_element_type %238, %int6_253 : !torch.vtensor<[768],f16>, !torch.int -> !torch.vtensor<[768],f32>
    %int6_254 = torch.constant.int 6
    %240 = torch.prims.convert_element_type %235, %int6_254 : !torch.vtensor<[64,768],f16>, !torch.int -> !torch.vtensor<[64,768],f32>
    %int6_255 = torch.constant.int 6
    %241 = torch.prims.convert_element_type %237, %int6_255 : !torch.vtensor<[768,768],f16>, !torch.int -> !torch.vtensor<[768,768],f32>
    %242 = torch.aten.mm %240, %241 : !torch.vtensor<[64,768],f32>, !torch.vtensor<[768,768],f32> -> !torch.vtensor<[64,768],f32>
    %int1_256 = torch.constant.int 1
    %243 = torch.aten.mul.Scalar %242, %int1_256 : !torch.vtensor<[64,768],f32>, !torch.int -> !torch.vtensor<[64,768],f32>
    %int1_257 = torch.constant.int 1
    %244 = torch.aten.mul.Scalar %239, %int1_257 : !torch.vtensor<[768],f32>, !torch.int -> !torch.vtensor<[768],f32>
    %int1_258 = torch.constant.int 1
    %245 = torch.aten.add.Tensor %243, %244, %int1_258 : !torch.vtensor<[64,768],f32>, !torch.vtensor<[768],f32>, !torch.int -> !torch.vtensor<[64,768],f32>
    %int5_259 = torch.constant.int 5
    %246 = torch.prims.convert_element_type %245, %int5_259 : !torch.vtensor<[64,768],f32>, !torch.int -> !torch.vtensor<[64,768],f16>
    %int1_260 = torch.constant.int 1
    %int64_261 = torch.constant.int 64
    %int768_262 = torch.constant.int 768
    %247 = torch.prim.ListConstruct %int1_260, %int64_261, %int768_262 : (!torch.int, !torch.int, !torch.int) -> !torch.list<int>
    %248 = torch.aten.view %246, %247 : !torch.vtensor<[64,768],f16>, !torch.list<int> -> !torch.vtensor<[1,64,768],f16>
    %int1_263 = torch.constant.int 1
    %int-1_264 = torch.constant.int -1
    %int12_265 = torch.constant.int 12
    %int64_266 = torch.constant.int 64
    %249 = torch.prim.ListConstruct %int1_263, %int-1_264, %int12_265, %int64_266 : (!torch.int, !torch.int, !torch.int, !torch.int) -> !torch.list<int>
    %250 = torch.aten.view %248, %249 : !torch.vtensor<[1,64,768],f16>, !torch.list<int> -> !torch.vtensor<[1,64,12,64],f16>
    %int1_267 = torch.constant.int 1
    %int2_268 = torch.constant.int 2
    %251 = torch.aten.transpose.int %250, %int1_267, %int2_268 : !torch.vtensor<[1,64,12,64],f16>, !torch.int, !torch.int -> !torch.vtensor<[1,12,64,64],f16>
    %int0_269 = torch.constant.int 0
    %252 = torch.aten.clone %251, %int0_269 : !torch.vtensor<[1,12,64,64],f16>, !torch.int -> !torch.vtensor<[1,12,64,64],f16>
    %int1_270 = torch.constant.int 1
    %int64_271 = torch.constant.int 64
    %int12_272 = torch.constant.int 12
    %int64_273 = torch.constant.int 64
    %253 = torch.prim.ListConstruct %int1_270, %int64_271, %int12_272, %int64_273 : (!torch.int, !torch.int, !torch.int, !torch.int) -> !torch.list<int>
    %254 = torch.aten.view %214, %253 : !torch.vtensor<[1,64,768],f16>, !torch.list<int> -> !torch.vtensor<[1,64,12,64],f16>
    %int1_274 = torch.constant.int 1
    %int2_275 = torch.constant.int 2
    %255 = torch.aten.transpose.int %254, %int1_274, %int2_275 : !torch.vtensor<[1,64,12,64],f16>, !torch.int, !torch.int -> !torch.vtensor<[1,12,64,64],f16>
    %int0_276 = torch.constant.int 0
    %256 = torch.aten.clone %255, %int0_276 : !torch.vtensor<[1,12,64,64],f16>, !torch.int -> !torch.vtensor<[1,12,64,64],f16>
    %int12_277 = torch.constant.int 12
    %int-1_278 = torch.constant.int -1
    %int64_279 = torch.constant.int 64
    %257 = torch.prim.ListConstruct %int12_277, %int-1_278, %int64_279 : (!torch.int, !torch.int, !torch.int) -> !torch.list<int>
    %258 = torch.aten.view %256, %257 : !torch.vtensor<[1,12,64,64],f16>, !torch.list<int> -> !torch.vtensor<[12,64,64],f16>
    %int12_280 = torch.constant.int 12
    %int-1_281 = torch.constant.int -1
    %int64_282 = torch.constant.int 64
    %259 = torch.prim.ListConstruct %int12_280, %int-1_281, %int64_282 : (!torch.int, !torch.int, !torch.int) -> !torch.list<int>
    %260 = torch.aten.view %233, %259 : !torch.vtensor<[1,12,64,64],f16>, !torch.list<int> -> !torch.vtensor<[12,64,64],f16>
    %int12_283 = torch.constant.int 12
    %int-1_284 = torch.constant.int -1
    %int64_285 = torch.constant.int 64
    %261 = torch.prim.ListConstruct %int12_283, %int-1_284, %int64_285 : (!torch.int, !torch.int, !torch.int) -> !torch.list<int>
    %262 = torch.aten.view %252, %261 : !torch.vtensor<[1,12,64,64],f16>, !torch.list<int> -> !torch.vtensor<[12,64,64],f16>
    %int1_286 = torch.constant.int 1
    %int2_287 = torch.constant.int 2
    %263 = torch.aten.transpose.int %260, %int1_286, %int2_287 : !torch.vtensor<[12,64,64],f16>, !torch.int, !torch.int -> !torch.vtensor<[12,64,64],f16>
    %264 = torch.aten.bmm %258, %263 : !torch.vtensor<[12,64,64],f16>, !torch.vtensor<[12,64,64],f16> -> !torch.vtensor<[12,64,64],f16>
    %int1_288 = torch.constant.int 1
    %int12_289 = torch.constant.int 12
    %int64_290 = torch.constant.int 64
    %int64_291 = torch.constant.int 64
    %265 = torch.prim.ListConstruct %int1_288, %int12_289, %int64_290, %int64_291 : (!torch.int, !torch.int, !torch.int, !torch.int) -> !torch.list<int>
    %266 = torch.aten.view %264, %265 : !torch.vtensor<[12,64,64],f16>, !torch.list<int> -> !torch.vtensor<[1,12,64,64],f16>
    %int1_292 = torch.constant.int 1
    %267 = torch.aten.add.Tensor %266, %27, %int1_292 : !torch.vtensor<[1,12,64,64],f16>, !torch.vtensor<[1,1,64,64],f16>, !torch.int -> !torch.vtensor<[1,12,64,64],f16>
    %int12_293 = torch.constant.int 12
    %int64_294 = torch.constant.int 64
    %int64_295 = torch.constant.int 64
    %268 = torch.prim.ListConstruct %int12_293, %int64_294, %int64_295 : (!torch.int, !torch.int, !torch.int) -> !torch.list<int>
    %269 = torch.aten.view %267, %268 : !torch.vtensor<[1,12,64,64],f16>, !torch.list<int> -> !torch.vtensor<[12,64,64],f16>
    %int-1_296 = torch.constant.int -1
    %false_297 = torch.constant.bool false
    %270 = torch.aten._softmax %269, %int-1_296, %false_297 : !torch.vtensor<[12,64,64],f16>, !torch.int, !torch.bool -> !torch.vtensor<[12,64,64],f16>
    %271 = torch.aten.detach %270 : !torch.vtensor<[12,64,64],f16> -> !torch.vtensor<[12,64,64],f16>
    %none_298 = torch.constant.none
    %272 = torch.aten.clone %270, %none_298 : !torch.vtensor<[12,64,64],f16>, !torch.none -> !torch.vtensor<[12,64,64],f16>
    %273 = torch.aten.bmm %272, %262 : !torch.vtensor<[12,64,64],f16>, !torch.vtensor<[12,64,64],f16> -> !torch.vtensor<[12,64,64],f16>
    %int1_299 = torch.constant.int 1
    %int12_300 = torch.constant.int 12
    %int64_301 = torch.constant.int 64
    %int64_302 = torch.constant.int 64
    %274 = torch.prim.ListConstruct %int1_299, %int12_300, %int64_301, %int64_302 : (!torch.int, !torch.int, !torch.int, !torch.int) -> !torch.list<int>
    %275 = torch.aten.view %273, %274 : !torch.vtensor<[12,64,64],f16>, !torch.list<int> -> !torch.vtensor<[1,12,64,64],f16>
    %int1_303 = torch.constant.int 1
    %int2_304 = torch.constant.int 2
    %276 = torch.aten.transpose.int %275, %int1_303, %int2_304 : !torch.vtensor<[1,12,64,64],f16>, !torch.int, !torch.int -> !torch.vtensor<[1,64,12,64],f16>
    %int0_305 = torch.constant.int 0
    %277 = torch.aten.clone %276, %int0_305 : !torch.vtensor<[1,64,12,64],f16>, !torch.int -> !torch.vtensor<[1,64,12,64],f16>
    %int1_306 = torch.constant.int 1
    %int64_307 = torch.constant.int 64
    %int768_308 = torch.constant.int 768
    %278 = torch.prim.ListConstruct %int1_306, %int64_307, %int768_308 : (!torch.int, !torch.int, !torch.int) -> !torch.list<int>
    %279 = torch.aten._unsafe_view %277, %278 : !torch.vtensor<[1,64,12,64],f16>, !torch.list<int> -> !torch.vtensor<[1,64,768],f16>
    %int64_309 = torch.constant.int 64
    %int768_310 = torch.constant.int 768
    %280 = torch.prim.ListConstruct %int64_309, %int768_310 : (!torch.int, !torch.int) -> !torch.list<int>
    %281 = torch.aten.view %279, %280 : !torch.vtensor<[1,64,768],f16>, !torch.list<int> -> !torch.vtensor<[64,768],f16>
    %_params.text_encoder_model.text_model.encoder.layers.1.self_attn.out_proj.weight = util.global.load @_params.text_encoder_model.text_model.encoder.layers.1.self_attn.out_proj.weight : tensor<768x768xf16>
    %282 = torch_c.from_builtin_tensor %_params.text_encoder_model.text_model.encoder.layers.1.self_attn.out_proj.weight : tensor<768x768xf16> -> !torch.vtensor<[768,768],f16>
    %int0_311 = torch.constant.int 0
    %int1_312 = torch.constant.int 1
    %283 = torch.aten.transpose.int %282, %int0_311, %int1_312 : !torch.vtensor<[768,768],f16>, !torch.int, !torch.int -> !torch.vtensor<[768,768],f16>
    %_params.text_encoder_model.text_model.encoder.layers.1.self_attn.out_proj.bias = util.global.load @_params.text_encoder_model.text_model.encoder.layers.1.self_attn.out_proj.bias : tensor<768xf16>
    %284 = torch_c.from_builtin_tensor %_params.text_encoder_model.text_model.encoder.layers.1.self_attn.out_proj.bias : tensor<768xf16> -> !torch.vtensor<[768],f16>
    %int6_313 = torch.constant.int 6
    %285 = torch.prims.convert_element_type %284, %int6_313 : !torch.vtensor<[768],f16>, !torch.int -> !torch.vtensor<[768],f32>
    %int6_314 = torch.constant.int 6
    %286 = torch.prims.convert_element_type %281, %int6_314 : !torch.vtensor<[64,768],f16>, !torch.int -> !torch.vtensor<[64,768],f32>
    %int6_315 = torch.constant.int 6
    %287 = torch.prims.convert_element_type %283, %int6_315 : !torch.vtensor<[768,768],f16>, !torch.int -> !torch.vtensor<[768,768],f32>
    %288 = torch.aten.mm %286, %287 : !torch.vtensor<[64,768],f32>, !torch.vtensor<[768,768],f32> -> !torch.vtensor<[64,768],f32>
    %int1_316 = torch.constant.int 1
    %289 = torch.aten.mul.Scalar %288, %int1_316 : !torch.vtensor<[64,768],f32>, !torch.int -> !torch.vtensor<[64,768],f32>
    %int1_317 = torch.constant.int 1
    %290 = torch.aten.mul.Scalar %285, %int1_317 : !torch.vtensor<[768],f32>, !torch.int -> !torch.vtensor<[768],f32>
    %int1_318 = torch.constant.int 1
    %291 = torch.aten.add.Tensor %289, %290, %int1_318 : !torch.vtensor<[64,768],f32>, !torch.vtensor<[768],f32>, !torch.int -> !torch.vtensor<[64,768],f32>
    %int5_319 = torch.constant.int 5
    %292 = torch.prims.convert_element_type %291, %int5_319 : !torch.vtensor<[64,768],f32>, !torch.int -> !torch.vtensor<[64,768],f16>
    %int1_320 = torch.constant.int 1
    %int64_321 = torch.constant.int 64
    %int768_322 = torch.constant.int 768
    %293 = torch.prim.ListConstruct %int1_320, %int64_321, %int768_322 : (!torch.int, !torch.int, !torch.int) -> !torch.list<int>
    %294 = torch.aten.view %292, %293 : !torch.vtensor<[64,768],f16>, !torch.list<int> -> !torch.vtensor<[1,64,768],f16>
    %int1_323 = torch.constant.int 1
    %295 = torch.aten.add.Tensor %185, %294, %int1_323 : !torch.vtensor<[1,64,768],f16>, !torch.vtensor<[1,64,768],f16>, !torch.int -> !torch.vtensor<[1,64,768],f16>
    %int6_324 = torch.constant.int 6
    %296 = torch.prims.convert_element_type %295, %int6_324 : !torch.vtensor<[1,64,768],f16>, !torch.int -> !torch.vtensor<[1,64,768],f32>
    %int2_325 = torch.constant.int 2
    %297 = torch.prim.ListConstruct %int2_325 : (!torch.int) -> !torch.list<int>
    %int0_326 = torch.constant.int 0
    %true_327 = torch.constant.bool true
    %result0_328, %result1_329 = torch.aten.var_mean.correction %296, %297, %int0_326, %true_327 : !torch.vtensor<[1,64,768],f32>, !torch.list<int>, !torch.int, !torch.bool -> !torch.vtensor<[1,64,1],f32>, !torch.vtensor<[1,64,1],f32>
    %float1.000000e-05_330 = torch.constant.float 1.000000e-05
    %int1_331 = torch.constant.int 1
    %298 = torch.aten.add.Scalar %result0_328, %float1.000000e-05_330, %int1_331 : !torch.vtensor<[1,64,1],f32>, !torch.float, !torch.int -> !torch.vtensor<[1,64,1],f32>
    %299 = torch.aten.rsqrt %298 : !torch.vtensor<[1,64,1],f32> -> !torch.vtensor<[1,64,1],f32>
    %int1_332 = torch.constant.int 1
    %300 = torch.aten.sub.Tensor %295, %result1_329, %int1_332 : !torch.vtensor<[1,64,768],f16>, !torch.vtensor<[1,64,1],f32>, !torch.int -> !torch.vtensor<[1,64,768],f32>
    %301 = torch.aten.mul.Tensor %300, %299 : !torch.vtensor<[1,64,768],f32>, !torch.vtensor<[1,64,1],f32> -> !torch.vtensor<[1,64,768],f32>
    %_params.text_encoder_model.text_model.encoder.layers.1.layer_norm2.weight = util.global.load @_params.text_encoder_model.text_model.encoder.layers.1.layer_norm2.weight : tensor<768xf16>
    %302 = torch_c.from_builtin_tensor %_params.text_encoder_model.text_model.encoder.layers.1.layer_norm2.weight : tensor<768xf16> -> !torch.vtensor<[768],f16>
    %303 = torch.aten.mul.Tensor %301, %302 : !torch.vtensor<[1,64,768],f32>, !torch.vtensor<[768],f16> -> !torch.vtensor<[1,64,768],f32>
    %_params.text_encoder_model.text_model.encoder.layers.1.layer_norm2.bias = util.global.load @_params.text_encoder_model.text_model.encoder.layers.1.layer_norm2.bias : tensor<768xf16>
    %304 = torch_c.from_builtin_tensor %_params.text_encoder_model.text_model.encoder.layers.1.layer_norm2.bias : tensor<768xf16> -> !torch.vtensor<[768],f16>
    %int1_333 = torch.constant.int 1
    %305 = torch.aten.add.Tensor %303, %304, %int1_333 : !torch.vtensor<[1,64,768],f32>, !torch.vtensor<[768],f16>, !torch.int -> !torch.vtensor<[1,64,768],f32>
    %int5_334 = torch.constant.int 5
    %306 = torch.prims.convert_element_type %305, %int5_334 : !torch.vtensor<[1,64,768],f32>, !torch.int -> !torch.vtensor<[1,64,768],f16>
    %int5_335 = torch.constant.int 5
    %307 = torch.prims.convert_element_type %result1_329, %int5_335 : !torch.vtensor<[1,64,1],f32>, !torch.int -> !torch.vtensor<[1,64,1],f16>
    %int5_336 = torch.constant.int 5
    %308 = torch.prims.convert_element_type %299, %int5_336 : !torch.vtensor<[1,64,1],f32>, !torch.int -> !torch.vtensor<[1,64,1],f16>
    %int64_337 = torch.constant.int 64
    %int768_338 = torch.constant.int 768
    %309 = torch.prim.ListConstruct %int64_337, %int768_338 : (!torch.int, !torch.int) -> !torch.list<int>
    %310 = torch.aten.view %306, %309 : !torch.vtensor<[1,64,768],f16>, !torch.list<int> -> !torch.vtensor<[64,768],f16>
    %_params.text_encoder_model.text_model.encoder.layers.1.mlp.fc1.weight = util.global.load @_params.text_encoder_model.text_model.encoder.layers.1.mlp.fc1.weight : tensor<3072x768xf16>
    %311 = torch_c.from_builtin_tensor %_params.text_encoder_model.text_model.encoder.layers.1.mlp.fc1.weight : tensor<3072x768xf16> -> !torch.vtensor<[3072,768],f16>
    %int0_339 = torch.constant.int 0
    %int1_340 = torch.constant.int 1
    %312 = torch.aten.transpose.int %311, %int0_339, %int1_340 : !torch.vtensor<[3072,768],f16>, !torch.int, !torch.int -> !torch.vtensor<[768,3072],f16>
    %_params.text_encoder_model.text_model.encoder.layers.1.mlp.fc1.bias = util.global.load @_params.text_encoder_model.text_model.encoder.layers.1.mlp.fc1.bias : tensor<3072xf16>
    %313 = torch_c.from_builtin_tensor %_params.text_encoder_model.text_model.encoder.layers.1.mlp.fc1.bias : tensor<3072xf16> -> !torch.vtensor<[3072],f16>
    %int6_341 = torch.constant.int 6
    %314 = torch.prims.convert_element_type %313, %int6_341 : !torch.vtensor<[3072],f16>, !torch.int -> !torch.vtensor<[3072],f32>
    %int6_342 = torch.constant.int 6
    %315 = torch.prims.convert_element_type %310, %int6_342 : !torch.vtensor<[64,768],f16>, !torch.int -> !torch.vtensor<[64,768],f32>
    %int6_343 = torch.constant.int 6
    %316 = torch.prims.convert_element_type %312, %int6_343 : !torch.vtensor<[768,3072],f16>, !torch.int -> !torch.vtensor<[768,3072],f32>
    %317 = torch.aten.mm %315, %316 : !torch.vtensor<[64,768],f32>, !torch.vtensor<[768,3072],f32> -> !torch.vtensor<[64,3072],f32>
    %int1_344 = torch.constant.int 1
    %318 = torch.aten.mul.Scalar %317, %int1_344 : !torch.vtensor<[64,3072],f32>, !torch.int -> !torch.vtensor<[64,3072],f32>
    %int1_345 = torch.constant.int 1
    %319 = torch.aten.mul.Scalar %314, %int1_345 : !torch.vtensor<[3072],f32>, !torch.int -> !torch.vtensor<[3072],f32>
    %int1_346 = torch.constant.int 1
    %320 = torch.aten.add.Tensor %318, %319, %int1_346 : !torch.vtensor<[64,3072],f32>, !torch.vtensor<[3072],f32>, !torch.int -> !torch.vtensor<[64,3072],f32>
    %int5_347 = torch.constant.int 5
    %321 = torch.prims.convert_element_type %320, %int5_347 : !torch.vtensor<[64,3072],f32>, !torch.int -> !torch.vtensor<[64,3072],f16>
    %int1_348 = torch.constant.int 1
    %int64_349 = torch.constant.int 64
    %int3072_350 = torch.constant.int 3072
    %322 = torch.prim.ListConstruct %int1_348, %int64_349, %int3072_350 : (!torch.int, !torch.int, !torch.int) -> !torch.list<int>
    %323 = torch.aten.view %321, %322 : !torch.vtensor<[64,3072],f16>, !torch.list<int> -> !torch.vtensor<[1,64,3072],f16>
    %float1.702000e00_351 = torch.constant.float 1.702000e+00
    %324 = torch.aten.mul.Scalar %323, %float1.702000e00_351 : !torch.vtensor<[1,64,3072],f16>, !torch.float -> !torch.vtensor<[1,64,3072],f16>
    %325 = torch.aten.sigmoid %324 : !torch.vtensor<[1,64,3072],f16> -> !torch.vtensor<[1,64,3072],f16>
    %326 = torch.aten.detach %325 : !torch.vtensor<[1,64,3072],f16> -> !torch.vtensor<[1,64,3072],f16>
    %327 = torch.aten.mul.Tensor %323, %325 : !torch.vtensor<[1,64,3072],f16>, !torch.vtensor<[1,64,3072],f16> -> !torch.vtensor<[1,64,3072],f16>
    %int64_352 = torch.constant.int 64
    %int3072_353 = torch.constant.int 3072
    %328 = torch.prim.ListConstruct %int64_352, %int3072_353 : (!torch.int, !torch.int) -> !torch.list<int>
    %329 = torch.aten.view %327, %328 : !torch.vtensor<[1,64,3072],f16>, !torch.list<int> -> !torch.vtensor<[64,3072],f16>
    %_params.text_encoder_model.text_model.encoder.layers.1.mlp.fc2.weight = util.global.load @_params.text_encoder_model.text_model.encoder.layers.1.mlp.fc2.weight : tensor<768x3072xf16>
    %330 = torch_c.from_builtin_tensor %_params.text_encoder_model.text_model.encoder.layers.1.mlp.fc2.weight : tensor<768x3072xf16> -> !torch.vtensor<[768,3072],f16>
    %int0_354 = torch.constant.int 0
    %int1_355 = torch.constant.int 1
    %331 = torch.aten.transpose.int %330, %int0_354, %int1_355 : !torch.vtensor<[768,3072],f16>, !torch.int, !torch.int -> !torch.vtensor<[3072,768],f16>
    %_params.text_encoder_model.text_model.encoder.layers.1.mlp.fc2.bias = util.global.load @_params.text_encoder_model.text_model.encoder.layers.1.mlp.fc2.bias : tensor<768xf16>
    %332 = torch_c.from_builtin_tensor %_params.text_encoder_model.text_model.encoder.layers.1.mlp.fc2.bias : tensor<768xf16> -> !torch.vtensor<[768],f16>
    %int6_356 = torch.constant.int 6
    %333 = torch.prims.convert_element_type %332, %int6_356 : !torch.vtensor<[768],f16>, !torch.int -> !torch.vtensor<[768],f32>
    %int6_357 = torch.constant.int 6
    %334 = torch.prims.convert_element_type %329, %int6_357 : !torch.vtensor<[64,3072],f16>, !torch.int -> !torch.vtensor<[64,3072],f32>
    %int6_358 = torch.constant.int 6
    %335 = torch.prims.convert_element_type %331, %int6_358 : !torch.vtensor<[3072,768],f16>, !torch.int -> !torch.vtensor<[3072,768],f32>
    %336 = torch.aten.mm %334, %335 : !torch.vtensor<[64,3072],f32>, !torch.vtensor<[3072,768],f32> -> !torch.vtensor<[64,768],f32>
    %int1_359 = torch.constant.int 1
    %337 = torch.aten.mul.Scalar %336, %int1_359 : !torch.vtensor<[64,768],f32>, !torch.int -> !torch.vtensor<[64,768],f32>
    %int1_360 = torch.constant.int 1
    %338 = torch.aten.mul.Scalar %333, %int1_360 : !torch.vtensor<[768],f32>, !torch.int -> !torch.vtensor<[768],f32>
    %int1_361 = torch.constant.int 1
    %339 = torch.aten.add.Tensor %337, %338, %int1_361 : !torch.vtensor<[64,768],f32>, !torch.vtensor<[768],f32>, !torch.int -> !torch.vtensor<[64,768],f32>
    %int5_362 = torch.constant.int 5
    %340 = torch.prims.convert_element_type %339, %int5_362 : !torch.vtensor<[64,768],f32>, !torch.int -> !torch.vtensor<[64,768],f16>
    %int1_363 = torch.constant.int 1
    %int64_364 = torch.constant.int 64
    %int768_365 = torch.constant.int 768
    %341 = torch.prim.ListConstruct %int1_363, %int64_364, %int768_365 : (!torch.int, !torch.int, !torch.int) -> !torch.list<int>
    %342 = torch.aten.view %340, %341 : !torch.vtensor<[64,768],f16>, !torch.list<int> -> !torch.vtensor<[1,64,768],f16>
    %int1_366 = torch.constant.int 1
    %343 = torch.aten.add.Tensor %295, %342, %int1_366 : !torch.vtensor<[1,64,768],f16>, !torch.vtensor<[1,64,768],f16>, !torch.int -> !torch.vtensor<[1,64,768],f16>
    %int6_367 = torch.constant.int 6
    %344 = torch.prims.convert_element_type %343, %int6_367 : !torch.vtensor<[1,64,768],f16>, !torch.int -> !torch.vtensor<[1,64,768],f32>
    %int2_368 = torch.constant.int 2
    %345 = torch.prim.ListConstruct %int2_368 : (!torch.int) -> !torch.list<int>
    %int0_369 = torch.constant.int 0
    %true_370 = torch.constant.bool true
    %result0_371, %result1_372 = torch.aten.var_mean.correction %344, %345, %int0_369, %true_370 : !torch.vtensor<[1,64,768],f32>, !torch.list<int>, !torch.int, !torch.bool -> !torch.vtensor<[1,64,1],f32>, !torch.vtensor<[1,64,1],f32>
    %float1.000000e-05_373 = torch.constant.float 1.000000e-05
    %int1_374 = torch.constant.int 1
    %346 = torch.aten.add.Scalar %result0_371, %float1.000000e-05_373, %int1_374 : !torch.vtensor<[1,64,1],f32>, !torch.float, !torch.int -> !torch.vtensor<[1,64,1],f32>
    %347 = torch.aten.rsqrt %346 : !torch.vtensor<[1,64,1],f32> -> !torch.vtensor<[1,64,1],f32>
    %int1_375 = torch.constant.int 1
    %348 = torch.aten.sub.Tensor %343, %result1_372, %int1_375 : !torch.vtensor<[1,64,768],f16>, !torch.vtensor<[1,64,1],f32>, !torch.int -> !torch.vtensor<[1,64,768],f32>
    %349 = torch.aten.mul.Tensor %348, %347 : !torch.vtensor<[1,64,768],f32>, !torch.vtensor<[1,64,1],f32> -> !torch.vtensor<[1,64,768],f32>
    %_params.text_encoder_model.text_model.encoder.layers.2.layer_norm1.weight = util.global.load @_params.text_encoder_model.text_model.encoder.layers.2.layer_norm1.weight : tensor<768xf16>
    %350 = torch_c.from_builtin_tensor %_params.text_encoder_model.text_model.encoder.layers.2.layer_norm1.weight : tensor<768xf16> -> !torch.vtensor<[768],f16>
    %351 = torch.aten.mul.Tensor %349, %350 : !torch.vtensor<[1,64,768],f32>, !torch.vtensor<[768],f16> -> !torch.vtensor<[1,64,768],f32>
    %_params.text_encoder_model.text_model.encoder.layers.2.layer_norm1.bias = util.global.load @_params.text_encoder_model.text_model.encoder.layers.2.layer_norm1.bias : tensor<768xf16>
    %352 = torch_c.from_builtin_tensor %_params.text_encoder_model.text_model.encoder.layers.2.layer_norm1.bias : tensor<768xf16> -> !torch.vtensor<[768],f16>
    %int1_376 = torch.constant.int 1
    %353 = torch.aten.add.Tensor %351, %352, %int1_376 : !torch.vtensor<[1,64,768],f32>, !torch.vtensor<[768],f16>, !torch.int -> !torch.vtensor<[1,64,768],f32>
    %int5_377 = torch.constant.int 5
    %354 = torch.prims.convert_element_type %353, %int5_377 : !torch.vtensor<[1,64,768],f32>, !torch.int -> !torch.vtensor<[1,64,768],f16>
    %int5_378 = torch.constant.int 5
    %355 = torch.prims.convert_element_type %result1_372, %int5_378 : !torch.vtensor<[1,64,1],f32>, !torch.int -> !torch.vtensor<[1,64,1],f16>
    %int5_379 = torch.constant.int 5
    %356 = torch.prims.convert_element_type %347, %int5_379 : !torch.vtensor<[1,64,1],f32>, !torch.int -> !torch.vtensor<[1,64,1],f16>
    %int64_380 = torch.constant.int 64
    %int768_381 = torch.constant.int 768
    %357 = torch.prim.ListConstruct %int64_380, %int768_381 : (!torch.int, !torch.int) -> !torch.list<int>
    %358 = torch.aten.view %354, %357 : !torch.vtensor<[1,64,768],f16>, !torch.list<int> -> !torch.vtensor<[64,768],f16>
    %_params.text_encoder_model.text_model.encoder.layers.2.self_attn.q_proj.weight = util.global.load @_params.text_encoder_model.text_model.encoder.layers.2.self_attn.q_proj.weight : tensor<768x768xf16>
    %359 = torch_c.from_builtin_tensor %_params.text_encoder_model.text_model.encoder.layers.2.self_attn.q_proj.weight : tensor<768x768xf16> -> !torch.vtensor<[768,768],f16>
    %int0_382 = torch.constant.int 0
    %int1_383 = torch.constant.int 1
    %360 = torch.aten.transpose.int %359, %int0_382, %int1_383 : !torch.vtensor<[768,768],f16>, !torch.int, !torch.int -> !torch.vtensor<[768,768],f16>
    %_params.text_encoder_model.text_model.encoder.layers.2.self_attn.q_proj.bias = util.global.load @_params.text_encoder_model.text_model.encoder.layers.2.self_attn.q_proj.bias : tensor<768xf16>
    %361 = torch_c.from_builtin_tensor %_params.text_encoder_model.text_model.encoder.layers.2.self_attn.q_proj.bias : tensor<768xf16> -> !torch.vtensor<[768],f16>
    %int6_384 = torch.constant.int 6
    %362 = torch.prims.convert_element_type %361, %int6_384 : !torch.vtensor<[768],f16>, !torch.int -> !torch.vtensor<[768],f32>
    %int6_385 = torch.constant.int 6
    %363 = torch.prims.convert_element_type %358, %int6_385 : !torch.vtensor<[64,768],f16>, !torch.int -> !torch.vtensor<[64,768],f32>
    %int6_386 = torch.constant.int 6
    %364 = torch.prims.convert_element_type %360, %int6_386 : !torch.vtensor<[768,768],f16>, !torch.int -> !torch.vtensor<[768,768],f32>
    %365 = torch.aten.mm %363, %364 : !torch.vtensor<[64,768],f32>, !torch.vtensor<[768,768],f32> -> !torch.vtensor<[64,768],f32>
    %int1_387 = torch.constant.int 1
    %366 = torch.aten.mul.Scalar %365, %int1_387 : !torch.vtensor<[64,768],f32>, !torch.int -> !torch.vtensor<[64,768],f32>
    %int1_388 = torch.constant.int 1
    %367 = torch.aten.mul.Scalar %362, %int1_388 : !torch.vtensor<[768],f32>, !torch.int -> !torch.vtensor<[768],f32>
    %int1_389 = torch.constant.int 1
    %368 = torch.aten.add.Tensor %366, %367, %int1_389 : !torch.vtensor<[64,768],f32>, !torch.vtensor<[768],f32>, !torch.int -> !torch.vtensor<[64,768],f32>
    %int5_390 = torch.constant.int 5
    %369 = torch.prims.convert_element_type %368, %int5_390 : !torch.vtensor<[64,768],f32>, !torch.int -> !torch.vtensor<[64,768],f16>
    %int1_391 = torch.constant.int 1
    %int64_392 = torch.constant.int 64
    %int768_393 = torch.constant.int 768
    %370 = torch.prim.ListConstruct %int1_391, %int64_392, %int768_393 : (!torch.int, !torch.int, !torch.int) -> !torch.list<int>
    %371 = torch.aten.view %369, %370 : !torch.vtensor<[64,768],f16>, !torch.list<int> -> !torch.vtensor<[1,64,768],f16>
    %float1.250000e-01_394 = torch.constant.float 1.250000e-01
    %372 = torch.aten.mul.Scalar %371, %float1.250000e-01_394 : !torch.vtensor<[1,64,768],f16>, !torch.float -> !torch.vtensor<[1,64,768],f16>
    %int64_395 = torch.constant.int 64
    %int768_396 = torch.constant.int 768
    %373 = torch.prim.ListConstruct %int64_395, %int768_396 : (!torch.int, !torch.int) -> !torch.list<int>
    %374 = torch.aten.view %354, %373 : !torch.vtensor<[1,64,768],f16>, !torch.list<int> -> !torch.vtensor<[64,768],f16>
    %_params.text_encoder_model.text_model.encoder.layers.2.self_attn.k_proj.weight = util.global.load @_params.text_encoder_model.text_model.encoder.layers.2.self_attn.k_proj.weight : tensor<768x768xf16>
    %375 = torch_c.from_builtin_tensor %_params.text_encoder_model.text_model.encoder.layers.2.self_attn.k_proj.weight : tensor<768x768xf16> -> !torch.vtensor<[768,768],f16>
    %int0_397 = torch.constant.int 0
    %int1_398 = torch.constant.int 1
    %376 = torch.aten.transpose.int %375, %int0_397, %int1_398 : !torch.vtensor<[768,768],f16>, !torch.int, !torch.int -> !torch.vtensor<[768,768],f16>
    %_params.text_encoder_model.text_model.encoder.layers.2.self_attn.k_proj.bias = util.global.load @_params.text_encoder_model.text_model.encoder.layers.2.self_attn.k_proj.bias : tensor<768xf16>
    %377 = torch_c.from_builtin_tensor %_params.text_encoder_model.text_model.encoder.layers.2.self_attn.k_proj.bias : tensor<768xf16> -> !torch.vtensor<[768],f16>
    %int6_399 = torch.constant.int 6
    %378 = torch.prims.convert_element_type %377, %int6_399 : !torch.vtensor<[768],f16>, !torch.int -> !torch.vtensor<[768],f32>
    %int6_400 = torch.constant.int 6
    %379 = torch.prims.convert_element_type %374, %int6_400 : !torch.vtensor<[64,768],f16>, !torch.int -> !torch.vtensor<[64,768],f32>
    %int6_401 = torch.constant.int 6
    %380 = torch.prims.convert_element_type %376, %int6_401 : !torch.vtensor<[768,768],f16>, !torch.int -> !torch.vtensor<[768,768],f32>
    %381 = torch.aten.mm %379, %380 : !torch.vtensor<[64,768],f32>, !torch.vtensor<[768,768],f32> -> !torch.vtensor<[64,768],f32>
    %int1_402 = torch.constant.int 1
    %382 = torch.aten.mul.Scalar %381, %int1_402 : !torch.vtensor<[64,768],f32>, !torch.int -> !torch.vtensor<[64,768],f32>
    %int1_403 = torch.constant.int 1
    %383 = torch.aten.mul.Scalar %378, %int1_403 : !torch.vtensor<[768],f32>, !torch.int -> !torch.vtensor<[768],f32>
    %int1_404 = torch.constant.int 1
    %384 = torch.aten.add.Tensor %382, %383, %int1_404 : !torch.vtensor<[64,768],f32>, !torch.vtensor<[768],f32>, !torch.int -> !torch.vtensor<[64,768],f32>
    %int5_405 = torch.constant.int 5
    %385 = torch.prims.convert_element_type %384, %int5_405 : !torch.vtensor<[64,768],f32>, !torch.int -> !torch.vtensor<[64,768],f16>
    %int1_406 = torch.constant.int 1
    %int64_407 = torch.constant.int 64
    %int768_408 = torch.constant.int 768
    %386 = torch.prim.ListConstruct %int1_406, %int64_407, %int768_408 : (!torch.int, !torch.int, !torch.int) -> !torch.list<int>
    %387 = torch.aten.view %385, %386 : !torch.vtensor<[64,768],f16>, !torch.list<int> -> !torch.vtensor<[1,64,768],f16>
    %int1_409 = torch.constant.int 1
    %int-1_410 = torch.constant.int -1
    %int12_411 = torch.constant.int 12
    %int64_412 = torch.constant.int 64
    %388 = torch.prim.ListConstruct %int1_409, %int-1_410, %int12_411, %int64_412 : (!torch.int, !torch.int, !torch.int, !torch.int) -> !torch.list<int>
    %389 = torch.aten.view %387, %388 : !torch.vtensor<[1,64,768],f16>, !torch.list<int> -> !torch.vtensor<[1,64,12,64],f16>
    %int1_413 = torch.constant.int 1
    %int2_414 = torch.constant.int 2
    %390 = torch.aten.transpose.int %389, %int1_413, %int2_414 : !torch.vtensor<[1,64,12,64],f16>, !torch.int, !torch.int -> !torch.vtensor<[1,12,64,64],f16>
    %int0_415 = torch.constant.int 0
    %391 = torch.aten.clone %390, %int0_415 : !torch.vtensor<[1,12,64,64],f16>, !torch.int -> !torch.vtensor<[1,12,64,64],f16>
    %int64_416 = torch.constant.int 64
    %int768_417 = torch.constant.int 768
    %392 = torch.prim.ListConstruct %int64_416, %int768_417 : (!torch.int, !torch.int) -> !torch.list<int>
    %393 = torch.aten.view %354, %392 : !torch.vtensor<[1,64,768],f16>, !torch.list<int> -> !torch.vtensor<[64,768],f16>
    %_params.text_encoder_model.text_model.encoder.layers.2.self_attn.v_proj.weight = util.global.load @_params.text_encoder_model.text_model.encoder.layers.2.self_attn.v_proj.weight : tensor<768x768xf16>
    %394 = torch_c.from_builtin_tensor %_params.text_encoder_model.text_model.encoder.layers.2.self_attn.v_proj.weight : tensor<768x768xf16> -> !torch.vtensor<[768,768],f16>
    %int0_418 = torch.constant.int 0
    %int1_419 = torch.constant.int 1
    %395 = torch.aten.transpose.int %394, %int0_418, %int1_419 : !torch.vtensor<[768,768],f16>, !torch.int, !torch.int -> !torch.vtensor<[768,768],f16>
    %_params.text_encoder_model.text_model.encoder.layers.2.self_attn.v_proj.bias = util.global.load @_params.text_encoder_model.text_model.encoder.layers.2.self_attn.v_proj.bias : tensor<768xf16>
    %396 = torch_c.from_builtin_tensor %_params.text_encoder_model.text_model.encoder.layers.2.self_attn.v_proj.bias : tensor<768xf16> -> !torch.vtensor<[768],f16>
    %int6_420 = torch.constant.int 6
    %397 = torch.prims.convert_element_type %396, %int6_420 : !torch.vtensor<[768],f16>, !torch.int -> !torch.vtensor<[768],f32>
    %int6_421 = torch.constant.int 6
    %398 = torch.prims.convert_element_type %393, %int6_421 : !torch.vtensor<[64,768],f16>, !torch.int -> !torch.vtensor<[64,768],f32>
    %int6_422 = torch.constant.int 6
    %399 = torch.prims.convert_element_type %395, %int6_422 : !torch.vtensor<[768,768],f16>, !torch.int -> !torch.vtensor<[768,768],f32>
    %400 = torch.aten.mm %398, %399 : !torch.vtensor<[64,768],f32>, !torch.vtensor<[768,768],f32> -> !torch.vtensor<[64,768],f32>
    %int1_423 = torch.constant.int 1
    %401 = torch.aten.mul.Scalar %400, %int1_423 : !torch.vtensor<[64,768],f32>, !torch.int -> !torch.vtensor<[64,768],f32>
    %int1_424 = torch.constant.int 1
    %402 = torch.aten.mul.Scalar %397, %int1_424 : !torch.vtensor<[768],f32>, !torch.int -> !torch.vtensor<[768],f32>
    %int1_425 = torch.constant.int 1
    %403 = torch.aten.add.Tensor %401, %402, %int1_425 : !torch.vtensor<[64,768],f32>, !torch.vtensor<[768],f32>, !torch.int -> !torch.vtensor<[64,768],f32>
    %int5_426 = torch.constant.int 5
    %404 = torch.prims.convert_element_type %403, %int5_426 : !torch.vtensor<[64,768],f32>, !torch.int -> !torch.vtensor<[64,768],f16>
    %int1_427 = torch.constant.int 1
    %int64_428 = torch.constant.int 64
    %int768_429 = torch.constant.int 768
    %405 = torch.prim.ListConstruct %int1_427, %int64_428, %int768_429 : (!torch.int, !torch.int, !torch.int) -> !torch.list<int>
    %406 = torch.aten.view %404, %405 : !torch.vtensor<[64,768],f16>, !torch.list<int> -> !torch.vtensor<[1,64,768],f16>
    %int1_430 = torch.constant.int 1
    %int-1_431 = torch.constant.int -1
    %int12_432 = torch.constant.int 12
    %int64_433 = torch.constant.int 64
    %407 = torch.prim.ListConstruct %int1_430, %int-1_431, %int12_432, %int64_433 : (!torch.int, !torch.int, !torch.int, !torch.int) -> !torch.list<int>
    %408 = torch.aten.view %406, %407 : !torch.vtensor<[1,64,768],f16>, !torch.list<int> -> !torch.vtensor<[1,64,12,64],f16>
    %int1_434 = torch.constant.int 1
    %int2_435 = torch.constant.int 2
    %409 = torch.aten.transpose.int %408, %int1_434, %int2_435 : !torch.vtensor<[1,64,12,64],f16>, !torch.int, !torch.int -> !torch.vtensor<[1,12,64,64],f16>
    %int0_436 = torch.constant.int 0
    %410 = torch.aten.clone %409, %int0_436 : !torch.vtensor<[1,12,64,64],f16>, !torch.int -> !torch.vtensor<[1,12,64,64],f16>
    %int1_437 = torch.constant.int 1
    %int64_438 = torch.constant.int 64
    %int12_439 = torch.constant.int 12
    %int64_440 = torch.constant.int 64
    %411 = torch.prim.ListConstruct %int1_437, %int64_438, %int12_439, %int64_440 : (!torch.int, !torch.int, !torch.int, !torch.int) -> !torch.list<int>
    %412 = torch.aten.view %372, %411 : !torch.vtensor<[1,64,768],f16>, !torch.list<int> -> !torch.vtensor<[1,64,12,64],f16>
    %int1_441 = torch.constant.int 1
    %int2_442 = torch.constant.int 2
    %413 = torch.aten.transpose.int %412, %int1_441, %int2_442 : !torch.vtensor<[1,64,12,64],f16>, !torch.int, !torch.int -> !torch.vtensor<[1,12,64,64],f16>
    %int0_443 = torch.constant.int 0
    %414 = torch.aten.clone %413, %int0_443 : !torch.vtensor<[1,12,64,64],f16>, !torch.int -> !torch.vtensor<[1,12,64,64],f16>
    %int12_444 = torch.constant.int 12
    %int-1_445 = torch.constant.int -1
    %int64_446 = torch.constant.int 64
    %415 = torch.prim.ListConstruct %int12_444, %int-1_445, %int64_446 : (!torch.int, !torch.int, !torch.int) -> !torch.list<int>
    %416 = torch.aten.view %414, %415 : !torch.vtensor<[1,12,64,64],f16>, !torch.list<int> -> !torch.vtensor<[12,64,64],f16>
    %int12_447 = torch.constant.int 12
    %int-1_448 = torch.constant.int -1
    %int64_449 = torch.constant.int 64
    %417 = torch.prim.ListConstruct %int12_447, %int-1_448, %int64_449 : (!torch.int, !torch.int, !torch.int) -> !torch.list<int>
    %418 = torch.aten.view %391, %417 : !torch.vtensor<[1,12,64,64],f16>, !torch.list<int> -> !torch.vtensor<[12,64,64],f16>
    %int12_450 = torch.constant.int 12
    %int-1_451 = torch.constant.int -1
    %int64_452 = torch.constant.int 64
    %419 = torch.prim.ListConstruct %int12_450, %int-1_451, %int64_452 : (!torch.int, !torch.int, !torch.int) -> !torch.list<int>
    %420 = torch.aten.view %410, %419 : !torch.vtensor<[1,12,64,64],f16>, !torch.list<int> -> !torch.vtensor<[12,64,64],f16>
    %int1_453 = torch.constant.int 1
    %int2_454 = torch.constant.int 2
    %421 = torch.aten.transpose.int %418, %int1_453, %int2_454 : !torch.vtensor<[12,64,64],f16>, !torch.int, !torch.int -> !torch.vtensor<[12,64,64],f16>
    %422 = torch.aten.bmm %416, %421 : !torch.vtensor<[12,64,64],f16>, !torch.vtensor<[12,64,64],f16> -> !torch.vtensor<[12,64,64],f16>
    %int1_455 = torch.constant.int 1
    %int12_456 = torch.constant.int 12
    %int64_457 = torch.constant.int 64
    %int64_458 = torch.constant.int 64
    %423 = torch.prim.ListConstruct %int1_455, %int12_456, %int64_457, %int64_458 : (!torch.int, !torch.int, !torch.int, !torch.int) -> !torch.list<int>
    %424 = torch.aten.view %422, %423 : !torch.vtensor<[12,64,64],f16>, !torch.list<int> -> !torch.vtensor<[1,12,64,64],f16>
    %int1_459 = torch.constant.int 1
    %425 = torch.aten.add.Tensor %424, %27, %int1_459 : !torch.vtensor<[1,12,64,64],f16>, !torch.vtensor<[1,1,64,64],f16>, !torch.int -> !torch.vtensor<[1,12,64,64],f16>
    %int12_460 = torch.constant.int 12
    %int64_461 = torch.constant.int 64
    %int64_462 = torch.constant.int 64
    %426 = torch.prim.ListConstruct %int12_460, %int64_461, %int64_462 : (!torch.int, !torch.int, !torch.int) -> !torch.list<int>
    %427 = torch.aten.view %425, %426 : !torch.vtensor<[1,12,64,64],f16>, !torch.list<int> -> !torch.vtensor<[12,64,64],f16>
    %int-1_463 = torch.constant.int -1
    %false_464 = torch.constant.bool false
    %428 = torch.aten._softmax %427, %int-1_463, %false_464 : !torch.vtensor<[12,64,64],f16>, !torch.int, !torch.bool -> !torch.vtensor<[12,64,64],f16>
    %429 = torch.aten.detach %428 : !torch.vtensor<[12,64,64],f16> -> !torch.vtensor<[12,64,64],f16>
    %none_465 = torch.constant.none
    %430 = torch.aten.clone %428, %none_465 : !torch.vtensor<[12,64,64],f16>, !torch.none -> !torch.vtensor<[12,64,64],f16>
    %431 = torch.aten.bmm %430, %420 : !torch.vtensor<[12,64,64],f16>, !torch.vtensor<[12,64,64],f16> -> !torch.vtensor<[12,64,64],f16>
    %int1_466 = torch.constant.int 1
    %int12_467 = torch.constant.int 12
    %int64_468 = torch.constant.int 64
    %int64_469 = torch.constant.int 64
    %432 = torch.prim.ListConstruct %int1_466, %int12_467, %int64_468, %int64_469 : (!torch.int, !torch.int, !torch.int, !torch.int) -> !torch.list<int>
    %433 = torch.aten.view %431, %432 : !torch.vtensor<[12,64,64],f16>, !torch.list<int> -> !torch.vtensor<[1,12,64,64],f16>
    %int1_470 = torch.constant.int 1
    %int2_471 = torch.constant.int 2
    %434 = torch.aten.transpose.int %433, %int1_470, %int2_471 : !torch.vtensor<[1,12,64,64],f16>, !torch.int, !torch.int -> !torch.vtensor<[1,64,12,64],f16>
    %int0_472 = torch.constant.int 0
    %435 = torch.aten.clone %434, %int0_472 : !torch.vtensor<[1,64,12,64],f16>, !torch.int -> !torch.vtensor<[1,64,12,64],f16>
    %int1_473 = torch.constant.int 1
    %int64_474 = torch.constant.int 64
    %int768_475 = torch.constant.int 768
    %436 = torch.prim.ListConstruct %int1_473, %int64_474, %int768_475 : (!torch.int, !torch.int, !torch.int) -> !torch.list<int>
    %437 = torch.aten._unsafe_view %435, %436 : !torch.vtensor<[1,64,12,64],f16>, !torch.list<int> -> !torch.vtensor<[1,64,768],f16>
    %int64_476 = torch.constant.int 64
    %int768_477 = torch.constant.int 768
    %438 = torch.prim.ListConstruct %int64_476, %int768_477 : (!torch.int, !torch.int) -> !torch.list<int>
    %439 = torch.aten.view %437, %438 : !torch.vtensor<[1,64,768],f16>, !torch.list<int> -> !torch.vtensor<[64,768],f16>
    %_params.text_encoder_model.text_model.encoder.layers.2.self_attn.out_proj.weight = util.global.load @_params.text_encoder_model.text_model.encoder.layers.2.self_attn.out_proj.weight : tensor<768x768xf16>
    %440 = torch_c.from_builtin_tensor %_params.text_encoder_model.text_model.encoder.layers.2.self_attn.out_proj.weight : tensor<768x768xf16> -> !torch.vtensor<[768,768],f16>
    %int0_478 = torch.constant.int 0
    %int1_479 = torch.constant.int 1
    %441 = torch.aten.transpose.int %440, %int0_478, %int1_479 : !torch.vtensor<[768,768],f16>, !torch.int, !torch.int -> !torch.vtensor<[768,768],f16>
    %_params.text_encoder_model.text_model.encoder.layers.2.self_attn.out_proj.bias = util.global.load @_params.text_encoder_model.text_model.encoder.layers.2.self_attn.out_proj.bias : tensor<768xf16>
    %442 = torch_c.from_builtin_tensor %_params.text_encoder_model.text_model.encoder.layers.2.self_attn.out_proj.bias : tensor<768xf16> -> !torch.vtensor<[768],f16>
    %int6_480 = torch.constant.int 6
    %443 = torch.prims.convert_element_type %442, %int6_480 : !torch.vtensor<[768],f16>, !torch.int -> !torch.vtensor<[768],f32>
    %int6_481 = torch.constant.int 6
    %444 = torch.prims.convert_element_type %439, %int6_481 : !torch.vtensor<[64,768],f16>, !torch.int -> !torch.vtensor<[64,768],f32>
    %int6_482 = torch.constant.int 6
    %445 = torch.prims.convert_element_type %441, %int6_482 : !torch.vtensor<[768,768],f16>, !torch.int -> !torch.vtensor<[768,768],f32>
    %446 = torch.aten.mm %444, %445 : !torch.vtensor<[64,768],f32>, !torch.vtensor<[768,768],f32> -> !torch.vtensor<[64,768],f32>
    %int1_483 = torch.constant.int 1
    %447 = torch.aten.mul.Scalar %446, %int1_483 : !torch.vtensor<[64,768],f32>, !torch.int -> !torch.vtensor<[64,768],f32>
    %int1_484 = torch.constant.int 1
    %448 = torch.aten.mul.Scalar %443, %int1_484 : !torch.vtensor<[768],f32>, !torch.int -> !torch.vtensor<[768],f32>
    %int1_485 = torch.constant.int 1
    %449 = torch.aten.add.Tensor %447, %448, %int1_485 : !torch.vtensor<[64,768],f32>, !torch.vtensor<[768],f32>, !torch.int -> !torch.vtensor<[64,768],f32>
    %int5_486 = torch.constant.int 5
    %450 = torch.prims.convert_element_type %449, %int5_486 : !torch.vtensor<[64,768],f32>, !torch.int -> !torch.vtensor<[64,768],f16>
    %int1_487 = torch.constant.int 1
    %int64_488 = torch.constant.int 64
    %int768_489 = torch.constant.int 768
    %451 = torch.prim.ListConstruct %int1_487, %int64_488, %int768_489 : (!torch.int, !torch.int, !torch.int) -> !torch.list<int>
    %452 = torch.aten.view %450, %451 : !torch.vtensor<[64,768],f16>, !torch.list<int> -> !torch.vtensor<[1,64,768],f16>
    %int1_490 = torch.constant.int 1
    %453 = torch.aten.add.Tensor %343, %452, %int1_490 : !torch.vtensor<[1,64,768],f16>, !torch.vtensor<[1,64,768],f16>, !torch.int -> !torch.vtensor<[1,64,768],f16>
    %int6_491 = torch.constant.int 6
    %454 = torch.prims.convert_element_type %453, %int6_491 : !torch.vtensor<[1,64,768],f16>, !torch.int -> !torch.vtensor<[1,64,768],f32>
    %int2_492 = torch.constant.int 2
    %455 = torch.prim.ListConstruct %int2_492 : (!torch.int) -> !torch.list<int>
    %int0_493 = torch.constant.int 0
    %true_494 = torch.constant.bool true
    %result0_495, %result1_496 = torch.aten.var_mean.correction %454, %455, %int0_493, %true_494 : !torch.vtensor<[1,64,768],f32>, !torch.list<int>, !torch.int, !torch.bool -> !torch.vtensor<[1,64,1],f32>, !torch.vtensor<[1,64,1],f32>
    %float1.000000e-05_497 = torch.constant.float 1.000000e-05
    %int1_498 = torch.constant.int 1
    %456 = torch.aten.add.Scalar %result0_495, %float1.000000e-05_497, %int1_498 : !torch.vtensor<[1,64,1],f32>, !torch.float, !torch.int -> !torch.vtensor<[1,64,1],f32>
    %457 = torch.aten.rsqrt %456 : !torch.vtensor<[1,64,1],f32> -> !torch.vtensor<[1,64,1],f32>
    %int1_499 = torch.constant.int 1
    %458 = torch.aten.sub.Tensor %453, %result1_496, %int1_499 : !torch.vtensor<[1,64,768],f16>, !torch.vtensor<[1,64,1],f32>, !torch.int -> !torch.vtensor<[1,64,768],f32>
    %459 = torch.aten.mul.Tensor %458, %457 : !torch.vtensor<[1,64,768],f32>, !torch.vtensor<[1,64,1],f32> -> !torch.vtensor<[1,64,768],f32>
    %_params.text_encoder_model.text_model.encoder.layers.2.layer_norm2.weight = util.global.load @_params.text_encoder_model.text_model.encoder.layers.2.layer_norm2.weight : tensor<768xf16>
    %460 = torch_c.from_builtin_tensor %_params.text_encoder_model.text_model.encoder.layers.2.layer_norm2.weight : tensor<768xf16> -> !torch.vtensor<[768],f16>
    %461 = torch.aten.mul.Tensor %459, %460 : !torch.vtensor<[1,64,768],f32>, !torch.vtensor<[768],f16> -> !torch.vtensor<[1,64,768],f32>
    %_params.text_encoder_model.text_model.encoder.layers.2.layer_norm2.bias = util.global.load @_params.text_encoder_model.text_model.encoder.layers.2.layer_norm2.bias : tensor<768xf16>
    %462 = torch_c.from_builtin_tensor %_params.text_encoder_model.text_model.encoder.layers.2.layer_norm2.bias : tensor<768xf16> -> !torch.vtensor<[768],f16>
    %int1_500 = torch.constant.int 1
    %463 = torch.aten.add.Tensor %461, %462, %int1_500 : !torch.vtensor<[1,64,768],f32>, !torch.vtensor<[768],f16>, !torch.int -> !torch.vtensor<[1,64,768],f32>
    %int5_501 = torch.constant.int 5
    %464 = torch.prims.convert_element_type %463, %int5_501 : !torch.vtensor<[1,64,768],f32>, !torch.int -> !torch.vtensor<[1,64,768],f16>
    %int5_502 = torch.constant.int 5
    %465 = torch.prims.convert_element_type %result1_496, %int5_502 : !torch.vtensor<[1,64,1],f32>, !torch.int -> !torch.vtensor<[1,64,1],f16>
    %int5_503 = torch.constant.int 5
    %466 = torch.prims.convert_element_type %457, %int5_503 : !torch.vtensor<[1,64,1],f32>, !torch.int -> !torch.vtensor<[1,64,1],f16>
    %int64_504 = torch.constant.int 64
    %int768_505 = torch.constant.int 768
    %467 = torch.prim.ListConstruct %int64_504, %int768_505 : (!torch.int, !torch.int) -> !torch.list<int>
    %468 = torch.aten.view %464, %467 : !torch.vtensor<[1,64,768],f16>, !torch.list<int> -> !torch.vtensor<[64,768],f16>
    %_params.text_encoder_model.text_model.encoder.layers.2.mlp.fc1.weight = util.global.load @_params.text_encoder_model.text_model.encoder.layers.2.mlp.fc1.weight : tensor<3072x768xf16>
    %469 = torch_c.from_builtin_tensor %_params.text_encoder_model.text_model.encoder.layers.2.mlp.fc1.weight : tensor<3072x768xf16> -> !torch.vtensor<[3072,768],f16>
    %int0_506 = torch.constant.int 0
    %int1_507 = torch.constant.int 1
    %470 = torch.aten.transpose.int %469, %int0_506, %int1_507 : !torch.vtensor<[3072,768],f16>, !torch.int, !torch.int -> !torch.vtensor<[768,3072],f16>
    %_params.text_encoder_model.text_model.encoder.layers.2.mlp.fc1.bias = util.global.load @_params.text_encoder_model.text_model.encoder.layers.2.mlp.fc1.bias : tensor<3072xf16>
    %471 = torch_c.from_builtin_tensor %_params.text_encoder_model.text_model.encoder.layers.2.mlp.fc1.bias : tensor<3072xf16> -> !torch.vtensor<[3072],f16>
    %int6_508 = torch.constant.int 6
    %472 = torch.prims.convert_element_type %471, %int6_508 : !torch.vtensor<[3072],f16>, !torch.int -> !torch.vtensor<[3072],f32>
    %int6_509 = torch.constant.int 6
    %473 = torch.prims.convert_element_type %468, %int6_509 : !torch.vtensor<[64,768],f16>, !torch.int -> !torch.vtensor<[64,768],f32>
    %int6_510 = torch.constant.int 6
    %474 = torch.prims.convert_element_type %470, %int6_510 : !torch.vtensor<[768,3072],f16>, !torch.int -> !torch.vtensor<[768,3072],f32>
    %475 = torch.aten.mm %473, %474 : !torch.vtensor<[64,768],f32>, !torch.vtensor<[768,3072],f32> -> !torch.vtensor<[64,3072],f32>
    %int1_511 = torch.constant.int 1
    %476 = torch.aten.mul.Scalar %475, %int1_511 : !torch.vtensor<[64,3072],f32>, !torch.int -> !torch.vtensor<[64,3072],f32>
    %int1_512 = torch.constant.int 1
    %477 = torch.aten.mul.Scalar %472, %int1_512 : !torch.vtensor<[3072],f32>, !torch.int -> !torch.vtensor<[3072],f32>
    %int1_513 = torch.constant.int 1
    %478 = torch.aten.add.Tensor %476, %477, %int1_513 : !torch.vtensor<[64,3072],f32>, !torch.vtensor<[3072],f32>, !torch.int -> !torch.vtensor<[64,3072],f32>
    %int5_514 = torch.constant.int 5
    %479 = torch.prims.convert_element_type %478, %int5_514 : !torch.vtensor<[64,3072],f32>, !torch.int -> !torch.vtensor<[64,3072],f16>
    %int1_515 = torch.constant.int 1
    %int64_516 = torch.constant.int 64
    %int3072_517 = torch.constant.int 3072
    %480 = torch.prim.ListConstruct %int1_515, %int64_516, %int3072_517 : (!torch.int, !torch.int, !torch.int) -> !torch.list<int>
    %481 = torch.aten.view %479, %480 : !torch.vtensor<[64,3072],f16>, !torch.list<int> -> !torch.vtensor<[1,64,3072],f16>
    %float1.702000e00_518 = torch.constant.float 1.702000e+00
    %482 = torch.aten.mul.Scalar %481, %float1.702000e00_518 : !torch.vtensor<[1,64,3072],f16>, !torch.float -> !torch.vtensor<[1,64,3072],f16>
    %483 = torch.aten.sigmoid %482 : !torch.vtensor<[1,64,3072],f16> -> !torch.vtensor<[1,64,3072],f16>
    %484 = torch.aten.detach %483 : !torch.vtensor<[1,64,3072],f16> -> !torch.vtensor<[1,64,3072],f16>
    %485 = torch.aten.mul.Tensor %481, %483 : !torch.vtensor<[1,64,3072],f16>, !torch.vtensor<[1,64,3072],f16> -> !torch.vtensor<[1,64,3072],f16>
    %int64_519 = torch.constant.int 64
    %int3072_520 = torch.constant.int 3072
    %486 = torch.prim.ListConstruct %int64_519, %int3072_520 : (!torch.int, !torch.int) -> !torch.list<int>
    %487 = torch.aten.view %485, %486 : !torch.vtensor<[1,64,3072],f16>, !torch.list<int> -> !torch.vtensor<[64,3072],f16>
    %_params.text_encoder_model.text_model.encoder.layers.2.mlp.fc2.weight = util.global.load @_params.text_encoder_model.text_model.encoder.layers.2.mlp.fc2.weight : tensor<768x3072xf16>
    %488 = torch_c.from_builtin_tensor %_params.text_encoder_model.text_model.encoder.layers.2.mlp.fc2.weight : tensor<768x3072xf16> -> !torch.vtensor<[768,3072],f16>
    %int0_521 = torch.constant.int 0
    %int1_522 = torch.constant.int 1
    %489 = torch.aten.transpose.int %488, %int0_521, %int1_522 : !torch.vtensor<[768,3072],f16>, !torch.int, !torch.int -> !torch.vtensor<[3072,768],f16>
    %_params.text_encoder_model.text_model.encoder.layers.2.mlp.fc2.bias = util.global.load @_params.text_encoder_model.text_model.encoder.layers.2.mlp.fc2.bias : tensor<768xf16>
    %490 = torch_c.from_builtin_tensor %_params.text_encoder_model.text_model.encoder.layers.2.mlp.fc2.bias : tensor<768xf16> -> !torch.vtensor<[768],f16>
    %int6_523 = torch.constant.int 6
    %491 = torch.prims.convert_element_type %490, %int6_523 : !torch.vtensor<[768],f16>, !torch.int -> !torch.vtensor<[768],f32>
    %int6_524 = torch.constant.int 6
    %492 = torch.prims.convert_element_type %487, %int6_524 : !torch.vtensor<[64,3072],f16>, !torch.int -> !torch.vtensor<[64,3072],f32>
    %int6_525 = torch.constant.int 6
    %493 = torch.prims.convert_element_type %489, %int6_525 : !torch.vtensor<[3072,768],f16>, !torch.int -> !torch.vtensor<[3072,768],f32>
    %494 = torch.aten.mm %492, %493 : !torch.vtensor<[64,3072],f32>, !torch.vtensor<[3072,768],f32> -> !torch.vtensor<[64,768],f32>
    %int1_526 = torch.constant.int 1
    %495 = torch.aten.mul.Scalar %494, %int1_526 : !torch.vtensor<[64,768],f32>, !torch.int -> !torch.vtensor<[64,768],f32>
    %int1_527 = torch.constant.int 1
    %496 = torch.aten.mul.Scalar %491, %int1_527 : !torch.vtensor<[768],f32>, !torch.int -> !torch.vtensor<[768],f32>
    %int1_528 = torch.constant.int 1
    %497 = torch.aten.add.Tensor %495, %496, %int1_528 : !torch.vtensor<[64,768],f32>, !torch.vtensor<[768],f32>, !torch.int -> !torch.vtensor<[64,768],f32>
    %int5_529 = torch.constant.int 5
    %498 = torch.prims.convert_element_type %497, %int5_529 : !torch.vtensor<[64,768],f32>, !torch.int -> !torch.vtensor<[64,768],f16>
    %int1_530 = torch.constant.int 1
    %int64_531 = torch.constant.int 64
    %int768_532 = torch.constant.int 768
    %499 = torch.prim.ListConstruct %int1_530, %int64_531, %int768_532 : (!torch.int, !torch.int, !torch.int) -> !torch.list<int>
    %500 = torch.aten.view %498, %499 : !torch.vtensor<[64,768],f16>, !torch.list<int> -> !torch.vtensor<[1,64,768],f16>
    %int1_533 = torch.constant.int 1
    %501 = torch.aten.add.Tensor %453, %500, %int1_533 : !torch.vtensor<[1,64,768],f16>, !torch.vtensor<[1,64,768],f16>, !torch.int -> !torch.vtensor<[1,64,768],f16>
    %int6_534 = torch.constant.int 6
    %502 = torch.prims.convert_element_type %501, %int6_534 : !torch.vtensor<[1,64,768],f16>, !torch.int -> !torch.vtensor<[1,64,768],f32>
    %int2_535 = torch.constant.int 2
    %503 = torch.prim.ListConstruct %int2_535 : (!torch.int) -> !torch.list<int>
    %int0_536 = torch.constant.int 0
    %true_537 = torch.constant.bool true
    %result0_538, %result1_539 = torch.aten.var_mean.correction %502, %503, %int0_536, %true_537 : !torch.vtensor<[1,64,768],f32>, !torch.list<int>, !torch.int, !torch.bool -> !torch.vtensor<[1,64,1],f32>, !torch.vtensor<[1,64,1],f32>
…
    %1700 = torch.prim.ListConstruct %int1_1809, %int64_1810, %int768_1811 : (!torch.int, !torch.int, !torch.int) -> !torch.list<int>
    %1701 = torch.aten._unsafe_view %1699, %1700 : !torch.vtensor<[1,64,12,64],f16>, !torch.list<int> -> !torch.vtensor<[1,64,768],f16>
    %int64_1812 = torch.constant.int 64
    %int768_1813 = torch.constant.int 768
    %1702 = torch.prim.ListConstruct %int64_1812, %int768_1813 : (!torch.int, !torch.int) -> !torch.list<int>
    %1703 = torch.aten.view %1701, %1702 : !torch.vtensor<[1,64,768],f16>, !torch.list<int> -> !torch.vtensor<[64,768],f16>
    %_params.text_encoder_model.text_model.encoder.layers.10.self_attn.out_proj.weight = util.global.load @_params.text_encoder_model.text_model.encoder.layers.10.self_attn.out_proj.weight : tensor<768x768xf16>
    %1704 = torch_c.from_builtin_tensor %_params.text_encoder_model.text_model.encoder.layers.10.self_attn.out_proj.weight : tensor<768x768xf16> -> !torch.vtensor<[768,768],f16>
    %int0_1814 = torch.constant.int 0
    %int1_1815 = torch.constant.int 1
    %1705 = torch.aten.transpose.int %1704, %int0_1814, %int1_1815 : !torch.vtensor<[768,768],f16>, !torch.int, !torch.int -> !torch.vtensor<[768,768],f16>
    %_params.text_encoder_model.text_model.encoder.layers.10.self_attn.out_proj.bias = util.global.load @_params.text_encoder_model.text_model.encoder.layers.10.self_attn.out_proj.bias : tensor<768xf16>
    %1706 = torch_c.from_builtin_tensor %_params.text_encoder_model.text_model.encoder.layers.10.self_attn.out_proj.bias : tensor<768xf16> -> !torch.vtensor<[768],f16>
    %int6_1816 = torch.constant.int 6
    %1707 = torch.prims.convert_element_type %1706, %int6_1816 : !torch.vtensor<[768],f16>, !torch.int -> !torch.vtensor<[768],f32>
    %int6_1817 = torch.constant.int 6
    %1708 = torch.prims.convert_element_type %1703, %int6_1817 : !torch.vtensor<[64,768],f16>, !torch.int -> !torch.vtensor<[64,768],f32>
    %int6_1818 = torch.constant.int 6
    %1709 = torch.prims.convert_element_type %1705, %int6_1818 : !torch.vtensor<[768,768],f16>, !torch.int -> !torch.vtensor<[768,768],f32>
    %1710 = torch.aten.mm %1708, %1709 : !torch.vtensor<[64,768],f32>, !torch.vtensor<[768,768],f32> -> !torch.vtensor<[64,768],f32>
    %int1_1819 = torch.constant.int 1
    %1711 = torch.aten.mul.Scalar %1710, %int1_1819 : !torch.vtensor<[64,768],f32>, !torch.int -> !torch.vtensor<[64,768],f32>
    %int1_1820 = torch.constant.int 1
    %1712 = torch.aten.mul.Scalar %1707, %int1_1820 : !torch.vtensor<[768],f32>, !torch.int -> !torch.vtensor<[768],f32>
    %int1_1821 = torch.constant.int 1
    %1713 = torch.aten.add.Tensor %1711, %1712, %int1_1821 : !torch.vtensor<[64,768],f32>, !torch.vtensor<[768],f32>, !torch.int -> !torch.vtensor<[64,768],f32>
    %int5_1822 = torch.constant.int 5
    %1714 = torch.prims.convert_element_type %1713, %int5_1822 : !torch.vtensor<[64,768],f32>, !torch.int -> !torch.vtensor<[64,768],f16>
    %int1_1823 = torch.constant.int 1
    %int64_1824 = torch.constant.int 64
    %int768_1825 = torch.constant.int 768
    %1715 = torch.prim.ListConstruct %int1_1823, %int64_1824, %int768_1825 : (!torch.int, !torch.int, !torch.int) -> !torch.list<int>
    %1716 = torch.aten.view %1714, %1715 : !torch.vtensor<[64,768],f16>, !torch.list<int> -> !torch.vtensor<[1,64,768],f16>
    %int1_1826 = torch.constant.int 1
    %1717 = torch.aten.add.Tensor %1607, %1716, %int1_1826 : !torch.vtensor<[1,64,768],f16>, !torch.vtensor<[1,64,768],f16>, !torch.int -> !torch.vtensor<[1,64,768],f16>
    %int6_1827 = torch.constant.int 6
    %1718 = torch.prims.convert_element_type %1717, %int6_1827 : !torch.vtensor<[1,64,768],f16>, !torch.int -> !torch.vtensor<[1,64,768],f32>
    %int2_1828 = torch.constant.int 2
    %1719 = torch.prim.ListConstruct %int2_1828 : (!torch.int) -> !torch.list<int>
    %int0_1829 = torch.constant.int 0
    %true_1830 = torch.constant.bool true
    %result0_1831, %result1_1832 = torch.aten.var_mean.correction %1718, %1719, %int0_1829, %true_1830 : !torch.vtensor<[1,64,768],f32>, !torch.list<int>, !torch.int, !torch.bool -> !torch.vtensor<[1,64,1],f32>, !torch.vtensor<[1,64,1],f32>
    %float1.000000e-05_1833 = torch.constant.float 1.000000e-05
    %int1_1834 = torch.constant.int 1
    %1720 = torch.aten.add.Scalar %result0_1831, %float1.000000e-05_1833, %int1_1834 : !torch.vtensor<[1,64,1],f32>, !torch.float, !torch.int -> !torch.vtensor<[1,64,1],f32>
    %1721 = torch.aten.rsqrt %1720 : !torch.vtensor<[1,64,1],f32> -> !torch.vtensor<[1,64,1],f32>
    %int1_1835 = torch.constant.int 1
    %1722 = torch.aten.sub.Tensor %1717, %result1_1832, %int1_1835 : !torch.vtensor<[1,64,768],f16>, !torch.vtensor<[1,64,1],f32>, !torch.int -> !torch.vtensor<[1,64,768],f32>
    %1723 = torch.aten.mul.Tensor %1722, %1721 : !torch.vtensor<[1,64,768],f32>, !torch.vtensor<[1,64,1],f32> -> !torch.vtensor<[1,64,768],f32>
    %_params.text_encoder_model.text_model.encoder.layers.10.layer_norm2.weight = util.global.load @_params.text_encoder_model.text_model.encoder.layers.10.layer_norm2.weight : tensor<768xf16>
    %1724 = torch_c.from_builtin_tensor %_params.text_encoder_model.text_model.encoder.layers.10.layer_norm2.weight : tensor<768xf16> -> !torch.vtensor<[768],f16>
    %1725 = torch.aten.mul.Tensor %1723, %1724 : !torch.vtensor<[1,64,768],f32>, !torch.vtensor<[768],f16> -> !torch.vtensor<[1,64,768],f32>
    %_params.text_encoder_model.text_model.encoder.layers.10.layer_norm2.bias = util.global.load @_params.text_encoder_model.text_model.encoder.layers.10.layer_norm2.bias : tensor<768xf16>
    %1726 = torch_c.from_builtin_tensor %_params.text_encoder_model.text_model.encoder.layers.10.layer_norm2.bias : tensor<768xf16> -> !torch.vtensor<[768],f16>
    %int1_1836 = torch.constant.int 1
    %1727 = torch.aten.add.Tensor %1725, %1726, %int1_1836 : !torch.vtensor<[1,64,768],f32>, !torch.vtensor<[768],f16>, !torch.int -> !torch.vtensor<[1,64,768],f32>
    %int5_1837 = torch.constant.int 5
    %1728 = torch.prims.convert_element_type %1727, %int5_1837 : !torch.vtensor<[1,64,768],f32>, !torch.int -> !torch.vtensor<[1,64,768],f16>
    %int5_1838 = torch.constant.int 5
    %1729 = torch.prims.convert_element_type %result1_1832, %int5_1838 : !torch.vtensor<[1,64,1],f32>, !torch.int -> !torch.vtensor<[1,64,1],f16>
    %int5_1839 = torch.constant.int 5
    %1730 = torch.prims.convert_element_type %1721, %int5_1839 : !torch.vtensor<[1,64,1],f32>, !torch.int -> !torch.vtensor<[1,64,1],f16>
    %int64_1840 = torch.constant.int 64
    %int768_1841 = torch.constant.int 768
    %1731 = torch.prim.ListConstruct %int64_1840, %int768_1841 : (!torch.int, !torch.int) -> !torch.list<int>
    %1732 = torch.aten.view %1728, %1731 : !torch.vtensor<[1,64,768],f16>, !torch.list<int> -> !torch.vtensor<[64,768],f16>
    %_params.text_encoder_model.text_model.encoder.layers.10.mlp.fc1.weight = util.global.load @_params.text_encoder_model.text_model.encoder.layers.10.mlp.fc1.weight : tensor<3072x768xf16>
    %1733 = torch_c.from_builtin_tensor %_params.text_encoder_model.text_model.encoder.layers.10.mlp.fc1.weight : tensor<3072x768xf16> -> !torch.vtensor<[3072,768],f16>
    %int0_1842 = torch.constant.int 0
    %int1_1843 = torch.constant.int 1
    %1734 = torch.aten.transpose.int %1733, %int0_1842, %int1_1843 : !torch.vtensor<[3072,768],f16>, !torch.int, !torch.int -> !torch.vtensor<[768,3072],f16>
    %_params.text_encoder_model.text_model.encoder.layers.10.mlp.fc1.bias = util.global.load @_params.text_encoder_model.text_model.encoder.layers.10.mlp.fc1.bias : tensor<3072xf16>
    %1735 = torch_c.from_builtin_tensor %_params.text_encoder_model.text_model.encoder.layers.10.mlp.fc1.bias : tensor<3072xf16> -> !torch.vtensor<[3072],f16>
    %int6_1844 = torch.constant.int 6
    %1736 = torch.prims.convert_element_type %1735, %int6_1844 : !torch.vtensor<[3072],f16>, !torch.int -> !torch.vtensor<[3072],f32>
    %int6_1845 = torch.constant.int 6
    %1737 = torch.prims.convert_element_type %1732, %int6_1845 : !torch.vtensor<[64,768],f16>, !torch.int -> !torch.vtensor<[64,768],f32>
    %int6_1846 = torch.constant.int 6
    %1738 = torch.prims.convert_element_type %1734, %int6_1846 : !torch.vtensor<[768,3072],f16>, !torch.int -> !torch.vtensor<[768,3072],f32>
    %1739 = torch.aten.mm %1737, %1738 : !torch.vtensor<[64,768],f32>, !torch.vtensor<[768,3072],f32> -> !torch.vtensor<[64,3072],f32>
    %int1_1847 = torch.constant.int 1
    %1740 = torch.aten.mul.Scalar %1739, %int1_1847 : !torch.vtensor<[64,3072],f32>, !torch.int -> !torch.vtensor<[64,3072],f32>
    %int1_1848 = torch.constant.int 1
    %1741 = torch.aten.mul.Scalar %1736, %int1_1848 : !torch.vtensor<[3072],f32>, !torch.int -> !torch.vtensor<[3072],f32>
    %int1_1849 = torch.constant.int 1
    %1742 = torch.aten.add.Tensor %1740, %1741, %int1_1849 : !torch.vtensor<[64,3072],f32>, !torch.vtensor<[3072],f32>, !torch.int -> !torch.vtensor<[64,3072],f32>
    %int5_1850 = torch.constant.int 5
    %1743 = torch.prims.convert_element_type %1742, %int5_1850 : !torch.vtensor<[64,3072],f32>, !torch.int -> !torch.vtensor<[64,3072],f16>
    %int1_1851 = torch.constant.int 1
    %int64_1852 = torch.constant.int 64
    %int3072_1853 = torch.constant.int 3072
    %1744 = torch.prim.ListConstruct %int1_1851, %int64_1852, %int3072_1853 : (!torch.int, !torch.int, !torch.int) -> !torch.list<int>
    %1745 = torch.aten.view %1743, %1744 : !torch.vtensor<[64,3072],f16>, !torch.list<int> -> !torch.vtensor<[1,64,3072],f16>
    %float1.702000e00_1854 = torch.constant.float 1.702000e+00
    %1746 = torch.aten.mul.Scalar %1745, %float1.702000e00_1854 : !torch.vtensor<[1,64,3072],f16>, !torch.float -> !torch.vtensor<[1,64,3072],f16>
    %1747 = torch.aten.sigmoid %1746 : !torch.vtensor<[1,64,3072],f16> -> !torch.vtensor<[1,64,3072],f16>
    %1748 = torch.aten.detach %1747 : !torch.vtensor<[1,64,3072],f16> -> !torch.vtensor<[1,64,3072],f16>
    %1749 = torch.aten.mul.Tensor %1745, %1747 : !torch.vtensor<[1,64,3072],f16>, !torch.vtensor<[1,64,3072],f16> -> !torch.vtensor<[1,64,3072],f16>
    %int64_1855 = torch.constant.int 64
    %int3072_1856 = torch.constant.int 3072
    %1750 = torch.prim.ListConstruct %int64_1855, %int3072_1856 : (!torch.int, !torch.int) -> !torch.list<int>
    %1751 = torch.aten.view %1749, %1750 : !torch.vtensor<[1,64,3072],f16>, !torch.list<int> -> !torch.vtensor<[64,3072],f16>
    %_params.text_encoder_model.text_model.encoder.layers.10.mlp.fc2.weight = util.global.load @_params.text_encoder_model.text_model.encoder.layers.10.mlp.fc2.weight : tensor<768x3072xf16>
    %1752 = torch_c.from_builtin_tensor %_params.text_encoder_model.text_model.encoder.layers.10.mlp.fc2.weight : tensor<768x3072xf16> -> !torch.vtensor<[768,3072],f16>
    %int0_1857 = torch.constant.int 0
    %int1_1858 = torch.constant.int 1
    %1753 = torch.aten.transpose.int %1752, %int0_1857, %int1_1858 : !torch.vtensor<[768,3072],f16>, !torch.int, !torch.int -> !torch.vtensor<[3072,768],f16>
    %_params.text_encoder_model.text_model.encoder.layers.10.mlp.fc2.bias = util.global.load @_params.text_encoder_model.text_model.encoder.layers.10.mlp.fc2.bias : tensor<768xf16>
    %1754 = torch_c.from_builtin_tensor %_params.text_encoder_model.text_model.encoder.layers.10.mlp.fc2.bias : tensor<768xf16> -> !torch.vtensor<[768],f16>
    %int6_1859 = torch.constant.int 6
    %1755 = torch.prims.convert_element_type %1754, %int6_1859 : !torch.vtensor<[768],f16>, !torch.int -> !torch.vtensor<[768],f32>
    %int6_1860 = torch.constant.int 6
    %1756 = torch.prims.convert_element_type %1751, %int6_1860 : !torch.vtensor<[64,3072],f16>, !torch.int -> !torch.vtensor<[64,3072],f32>
    %int6_1861 = torch.constant.int 6
    %1757 = torch.prims.convert_element_type %1753, %int6_1861 : !torch.vtensor<[3072,768],f16>, !torch.int -> !torch.vtensor<[3072,768],f32>
    %1758 = torch.aten.mm %1756, %1757 : !torch.vtensor<[64,3072],f32>, !torch.vtensor<[3072,768],f32> -> !torch.vtensor<[64,768],f32>
    %int1_1862 = torch.constant.int 1
    %1759 = torch.aten.mul.Scalar %1758, %int1_1862 : !torch.vtensor<[64,768],f32>, !torch.int -> !torch.vtensor<[64,768],f32>
    %int1_1863 = torch.constant.int 1
    %1760 = torch.aten.mul.Scalar %1755, %int1_1863 : !torch.vtensor<[768],f32>, !torch.int -> !torch.vtensor<[768],f32>
    %int1_1864 = torch.constant.int 1
    %1761 = torch.aten.add.Tensor %1759, %1760, %int1_1864 : !torch.vtensor<[64,768],f32>, !torch.vtensor<[768],f32>, !torch.int -> !torch.vtensor<[64,768],f32>
    %int5_1865 = torch.constant.int 5
    %1762 = torch.prims.convert_element_type %1761, %int5_1865 : !torch.vtensor<[64,768],f32>, !torch.int -> !torch.vtensor<[64,768],f16>
    %int1_1866 = torch.constant.int 1
    %int64_1867 = torch.constant.int 64
    %int768_1868 = torch.constant.int 768
    %1763 = torch.prim.ListConstruct %int1_1866, %int64_1867, %int768_1868 : (!torch.int, !torch.int, !torch.int) -> !torch.list<int>
    %1764 = torch.aten.view %1762, %1763 : !torch.vtensor<[64,768],f16>, !torch.list<int> -> !torch.vtensor<[1,64,768],f16>
    %int1_1869 = torch.constant.int 1
    %1765 = torch.aten.add.Tensor %1717, %1764, %int1_1869 : !torch.vtensor<[1,64,768],f16>, !torch.vtensor<[1,64,768],f16>, !torch.int -> !torch.vtensor<[1,64,768],f16>
    %int6_1870 = torch.constant.int 6
    %1766 = torch.prims.convert_element_type %1765, %int6_1870 : !torch.vtensor<[1,64,768],f16>, !torch.int -> !torch.vtensor<[1,64,768],f32>
    %int2_1871 = torch.constant.int 2
    %1767 = torch.prim.ListConstruct %int2_1871 : (!torch.int) -> !torch.list<int>
    %int0_1872 = torch.constant.int 0
    %true_1873 = torch.constant.bool true
    %result0_1874, %result1_1875 = torch.aten.var_mean.correction %1766, %1767, %int0_1872, %true_1873 : !torch.vtensor<[1,64,768],f32>, !torch.list<int>, !torch.int, !torch.bool -> !torch.vtensor<[1,64,1],f32>, !torch.vtensor<[1,64,1],f32>
    %float1.000000e-05_1876 = torch.constant.float 1.000000e-05
    %int1_1877 = torch.constant.int 1
    %1768 = torch.aten.add.Scalar %result0_1874, %float1.000000e-05_1876, %int1_1877 : !torch.vtensor<[1,64,1],f32>, !torch.float, !torch.int -> !torch.vtensor<[1,64,1],f32>
    %1769 = torch.aten.rsqrt %1768 : !torch.vtensor<[1,64,1],f32> -> !torch.vtensor<[1,64,1],f32>
    %int1_1878 = torch.constant.int 1
    %1770 = torch.aten.sub.Tensor %1765, %result1_1875, %int1_1878 : !torch.vtensor<[1,64,768],f16>, !torch.vtensor<[1,64,1],f32>, !torch.int -> !torch.vtensor<[1,64,768],f32>
    %1771 = torch.aten.mul.Tensor %1770, %1769 : !torch.vtensor<[1,64,768],f32>, !torch.vtensor<[1,64,1],f32> -> !torch.vtensor<[1,64,768],f32>
    %_params.text_encoder_model.text_model.encoder.layers.11.layer_norm1.weight = util.global.load @_params.text_encoder_model.text_model.encoder.layers.11.layer_norm1.weight : tensor<768xf16>
    %1772 = torch_c.from_builtin_tensor %_params.text_encoder_model.text_model.encoder.layers.11.layer_norm1.weight : tensor<768xf16> -> !torch.vtensor<[768],f16>
    %1773 = torch.aten.mul.Tensor %1771, %1772 : !torch.vtensor<[1,64,768],f32>, !torch.vtensor<[768],f16> -> !torch.vtensor<[1,64,768],f32>
    %_params.text_encoder_model.text_model.encoder.layers.11.layer_norm1.bias = util.global.load @_params.text_encoder_model.text_model.encoder.layers.11.layer_norm1.bias : tensor<768xf16>
    %1774 = torch_c.from_builtin_tensor %_params.text_encoder_model.text_model.encoder.layers.11.layer_norm1.bias : tensor<768xf16> -> !torch.vtensor<[768],f16>
    %int1_1879 = torch.constant.int 1
    %1775 = torch.aten.add.Tensor %1773, %1774, %int1_1879 : !torch.vtensor<[1,64,768],f32>, !torch.vtensor<[768],f16>, !torch.int -> !torch.vtensor<[1,64,768],f32>
    %int5_1880 = torch.constant.int 5
    %1776 = torch.prims.convert_element_type %1775, %int5_1880 : !torch.vtensor<[1,64,768],f32>, !torch.int -> !torch.vtensor<[1,64,768],f16>
    %int5_1881 = torch.constant.int 5
    %1777 = torch.prims.convert_element_type %result1_1875, %int5_1881 : !torch.vtensor<[1,64,1],f32>, !torch.int -> !torch.vtensor<[1,64,1],f16>
    %int5_1882 = torch.constant.int 5
    %1778 = torch.prims.convert_element_type %1769, %int5_1882 : !torch.vtensor<[1,64,1],f32>, !torch.int -> !torch.vtensor<[1,64,1],f16>
    %int64_1883 = torch.constant.int 64
    %int768_1884 = torch.constant.int 768
    %1779 = torch.prim.ListConstruct %int64_1883, %int768_1884 : (!torch.int, !torch.int) -> !torch.list<int>
    %1780 = torch.aten.view %1776, %1779 : !torch.vtensor<[1,64,768],f16>, !torch.list<int> -> !torch.vtensor<[64,768],f16>
    %_params.text_encoder_model.text_model.encoder.layers.11.self_attn.q_proj.weight = util.global.load @_params.text_encoder_model.text_model.encoder.layers.11.self_attn.q_proj.weight : tensor<768x768xf16>
    %1781 = torch_c.from_builtin_tensor %_params.text_encoder_model.text_model.encoder.layers.11.self_attn.q_proj.weight : tensor<768x768xf16> -> !torch.vtensor<[768,768],f16>
    %int0_1885 = torch.constant.int 0
    %int1_1886 = torch.constant.int 1
    %1782 = torch.aten.transpose.int %1781, %int0_1885, %int1_1886 : !torch.vtensor<[768,768],f16>, !torch.int, !torch.int -> !torch.vtensor<[768,768],f16>
    %_params.text_encoder_model.text_model.encoder.layers.11.self_attn.q_proj.bias = util.global.load @_params.text_encoder_model.text_model.encoder.layers.11.self_attn.q_proj.bias : tensor<768xf16>
    %1783 = torch_c.from_builtin_tensor %_params.text_encoder_model.text_model.encoder.layers.11.self_attn.q_proj.bias : tensor<768xf16> -> !torch.vtensor<[768],f16>
    %int6_1887 = torch.constant.int 6
    %1784 = torch.prims.convert_element_type %1783, %int6_1887 : !torch.vtensor<[768],f16>, !torch.int -> !torch.vtensor<[768],f32>
    %int6_1888 = torch.constant.int 6
    %1785 = torch.prims.convert_element_type %1780, %int6_1888 : !torch.vtensor<[64,768],f16>, !torch.int -> !torch.vtensor<[64,768],f32>
    %int6_1889 = torch.constant.int 6
    %1786 = torch.prims.convert_element_type %1782, %int6_1889 : !torch.vtensor<[768,768],f16>, !torch.int -> !torch.vtensor<[768,768],f32>
    %1787 = torch.aten.mm %1785, %1786 : !torch.vtensor<[64,768],f32>, !torch.vtensor<[768,768],f32> -> !torch.vtensor<[64,768],f32>
    %int1_1890 = torch.constant.int 1
    %1788 = torch.aten.mul.Scalar %1787, %int1_1890 : !torch.vtensor<[64,768],f32>, !torch.int -> !torch.vtensor<[64,768],f32>
    %int1_1891 = torch.constant.int 1
    %1789 = torch.aten.mul.Scalar %1784, %int1_1891 : !torch.vtensor<[768],f32>, !torch.int -> !torch.vtensor<[768],f32>
    %int1_1892 = torch.constant.int 1
    %1790 = torch.aten.add.Tensor %1788, %1789, %int1_1892 : !torch.vtensor<[64,768],f32>, !torch.vtensor<[768],f32>, !torch.int -> !torch.vtensor<[64,768],f32>
    %int5_1893 = torch.constant.int 5
    %1791 = torch.prims.convert_element_type %1790, %int5_1893 : !torch.vtensor<[64,768],f32>, !torch.int -> !torch.vtensor<[64,768],f16>
    %int1_1894 = torch.constant.int 1
    %int64_1895 = torch.constant.int 64
    %int768_1896 = torch.constant.int 768
    %1792 = torch.prim.ListConstruct %int1_1894, %int64_1895, %int768_1896 : (!torch.int, !torch.int, !torch.int) -> !torch.list<int>
    %1793 = torch.aten.view %1791, %1792 : !torch.vtensor<[64,768],f16>, !torch.list<int> -> !torch.vtensor<[1,64,768],f16>
    %float1.250000e-01_1897 = torch.constant.float 1.250000e-01
    %1794 = torch.aten.mul.Scalar %1793, %float1.250000e-01_1897 : !torch.vtensor<[1,64,768],f16>, !torch.float -> !torch.vtensor<[1,64,768],f16>
    %int64_1898 = torch.constant.int 64
    %int768_1899 = torch.constant.int 768
    %1795 = torch.prim.ListConstruct %int64_1898, %int768_1899 : (!torch.int, !torch.int) -> !torch.list<int>
    %1796 = torch.aten.view %1776, %1795 : !torch.vtensor<[1,64,768],f16>, !torch.list<int> -> !torch.vtensor<[64,768],f16>
    %_params.text_encoder_model.text_model.encoder.layers.11.self_attn.k_proj.weight = util.global.load @_params.text_encoder_model.text_model.encoder.layers.11.self_attn.k_proj.weight : tensor<768x768xf16>
    %1797 = torch_c.from_builtin_tensor %_params.text_encoder_model.text_model.encoder.layers.11.self_attn.k_proj.weight : tensor<768x768xf16> -> !torch.vtensor<[768,768],f16>
    %int0_1900 = torch.constant.int 0
    %int1_1901 = torch.constant.int 1
    %1798 = torch.aten.transpose.int %1797, %int0_1900, %int1_1901 : !torch.vtensor<[768,768],f16>, !torch.int, !torch.int -> !torch.vtensor<[768,768],f16>
    %_params.text_encoder_model.text_model.encoder.layers.11.self_attn.k_proj.bias = util.global.load @_params.text_encoder_model.text_model.encoder.layers.11.self_attn.k_proj.bias : tensor<768xf16>
    %1799 = torch_c.from_builtin_tensor %_params.text_encoder_model.text_model.encoder.layers.11.self_attn.k_proj.bias : tensor<768xf16> -> !torch.vtensor<[768],f16>
    %int6_1902 = torch.constant.int 6
    %1800 = torch.prims.convert_element_type %1799, %int6_1902 : !torch.vtensor<[768],f16>, !torch.int -> !torch.vtensor<[768],f32>
    %int6_1903 = torch.constant.int 6
    %1801 = torch.prims.convert_element_type %1796, %int6_1903 : !torch.vtensor<[64,768],f16>, !torch.int -> !torch.vtensor<[64,768],f32>
    %int6_1904 = torch.constant.int 6
    %1802 = torch.prims.convert_element_type %1798, %int6_1904 : !torch.vtensor<[768,768],f16>, !torch.int -> !torch.vtensor<[768,768],f32>
    %1803 = torch.aten.mm %1801, %1802 : !torch.vtensor<[64,768],f32>, !torch.vtensor<[768,768],f32> -> !torch.vtensor<[64,768],f32>
    %int1_1905 = torch.constant.int 1
    %1804 = torch.aten.mul.Scalar %1803, %int1_1905 : !torch.vtensor<[64,768],f32>, !torch.int -> !torch.vtensor<[64,768],f32>
    %int1_1906 = torch.constant.int 1
    %1805 = torch.aten.mul.Scalar %1800, %int1_1906 : !torch.vtensor<[768],f32>, !torch.int -> !torch.vtensor<[768],f32>
    %int1_1907 = torch.constant.int 1
    %1806 = torch.aten.add.Tensor %1804, %1805, %int1_1907 : !torch.vtensor<[64,768],f32>, !torch.vtensor<[768],f32>, !torch.int -> !torch.vtensor<[64,768],f32>
    %int5_1908 = torch.constant.int 5
    %1807 = torch.prims.convert_element_type %1806, %int5_1908 : !torch.vtensor<[64,768],f32>, !torch.int -> !torch.vtensor<[64,768],f16>
    %int1_1909 = torch.constant.int 1
    %int64_1910 = torch.constant.int 64
    %int768_1911 = torch.constant.int 768
    %1808 = torch.prim.ListConstruct %int1_1909, %int64_1910, %int768_1911 : (!torch.int, !torch.int, !torch.int) -> !torch.list<int>
    %1809 = torch.aten.view %1807, %1808 : !torch.vtensor<[64,768],f16>, !torch.list<int> -> !torch.vtensor<[1,64,768],f16>
    %int1_1912 = torch.constant.int 1
    %int-1_1913 = torch.constant.int -1
    %int12_1914 = torch.constant.int 12
    %int64_1915 = torch.constant.int 64
    %1810 = torch.prim.ListConstruct %int1_1912, %int-1_1913, %int12_1914, %int64_1915 : (!torch.int, !torch.int, !torch.int, !torch.int) -> !torch.list<int>
    %1811 = torch.aten.view %1809, %1810 : !torch.vtensor<[1,64,768],f16>, !torch.list<int> -> !torch.vtensor<[1,64,12,64],f16>
    %int1_1916 = torch.constant.int 1
    %int2_1917 = torch.constant.int 2
    %1812 = torch.aten.transpose.int %1811, %int1_1916, %int2_1917 : !torch.vtensor<[1,64,12,64],f16>, !torch.int, !torch.int -> !torch.vtensor<[1,12,64,64],f16>
    %int0_1918 = torch.constant.int 0
    %1813 = torch.aten.clone %1812, %int0_1918 : !torch.vtensor<[1,12,64,64],f16>, !torch.int -> !torch.vtensor<[1,12,64,64],f16>
    %int64_1919 = torch.constant.int 64
    %int768_1920 = torch.constant.int 768
    %1814 = torch.prim.ListConstruct %int64_1919, %int768_1920 : (!torch.int, !torch.int) -> !torch.list<int>
    %1815 = torch.aten.view %1776, %1814 : !torch.vtensor<[1,64,768],f16>, !torch.list<int> -> !torch.vtensor<[64,768],f16>
    %_params.text_encoder_model.text_model.encoder.layers.11.self_attn.v_proj.weight = util.global.load @_params.text_encoder_model.text_model.encoder.layers.11.self_attn.v_proj.weight : tensor<768x768xf16>
    %1816 = torch_c.from_builtin_tensor %_params.text_encoder_model.text_model.encoder.layers.11.self_attn.v_proj.weight : tensor<768x768xf16> -> !torch.vtensor<[768,768],f16>
    %int0_1921 = torch.constant.int 0
    %int1_1922 = torch.constant.int 1
    %1817 = torch.aten.transpose.int %1816, %int0_1921, %int1_1922 : !torch.vtensor<[768,768],f16>, !torch.int, !torch.int -> !torch.vtensor<[768,768],f16>
    %_params.text_encoder_model.text_model.encoder.layers.11.self_attn.v_proj.bias = util.global.load @_params.text_encoder_model.text_model.encoder.layers.11.self_attn.v_proj.bias : tensor<768xf16>
    %1818 = torch_c.from_builtin_tensor %_params.text_encoder_model.text_model.encoder.layers.11.self_attn.v_proj.bias : tensor<768xf16> -> !torch.vtensor<[768],f16>
    %int6_1923 = torch.constant.int 6
    %1819 = torch.prims.convert_element_type %1818, %int6_1923 : !torch.vtensor<[768],f16>, !torch.int -> !torch.vtensor<[768],f32>
    %int6_1924 = torch.constant.int 6
    %1820 = torch.prims.convert_element_type %1815, %int6_1924 : !torch.vtensor<[64,768],f16>, !torch.int -> !torch.vtensor<[64,768],f32>
    %int6_1925 = torch.constant.int 6
    %1821 = torch.prims.convert_element_type %1817, %int6_1925 : !torch.vtensor<[768,768],f16>, !torch.int -> !torch.vtensor<[768,768],f32>
    %1822 = torch.aten.mm %1820, %1821 : !torch.vtensor<[64,768],f32>, !torch.vtensor<[768,768],f32> -> !torch.vtensor<[64,768],f32>
    %int1_1926 = torch.constant.int 1
    %1823 = torch.aten.mul.Scalar %1822, %int1_1926 : !torch.vtensor<[64,768],f32>, !torch.int -> !torch.vtensor<[64,768],f32>
    %int1_1927 = torch.constant.int 1
    %1824 = torch.aten.mul.Scalar %1819, %int1_1927 : !torch.vtensor<[768],f32>, !torch.int -> !torch.vtensor<[768],f32>
    %int1_1928 = torch.constant.int 1
    %1825 = torch.aten.add.Tensor %1823, %1824, %int1_1928 : !torch.vtensor<[64,768],f32>, !torch.vtensor<[768],f32>, !torch.int -> !torch.vtensor<[64,768],f32>
    %int5_1929 = torch.constant.int 5
    %1826 = torch.prims.convert_element_type %1825, %int5_1929 : !torch.vtensor<[64,768],f32>, !torch.int -> !torch.vtensor<[64,768],f16>
    %int1_1930 = torch.constant.int 1
    %int64_1931 = torch.constant.int 64
    %int768_1932 = torch.constant.int 768
    %1827 = torch.prim.ListConstruct %int1_1930, %int64_1931, %int768_1932 : (!torch.int, !torch.int, !torch.int) -> !torch.list<int>
    %1828 = torch.aten.view %1826, %1827 : !torch.vtensor<[64,768],f16>, !torch.list<int> -> !torch.vtensor<[1,64,768],f16>
    %int1_1933 = torch.constant.int 1
    %int-1_1934 = torch.constant.int -1
    %int12_1935 = torch.constant.int 12
    %int64_1936 = torch.constant.int 64
    %1829 = torch.prim.ListConstruct %int1_1933, %int-1_1934, %int12_1935, %int64_1936 : (!torch.int, !torch.int, !torch.int, !torch.int) -> !torch.list<int>
    %1830 = torch.aten.view %1828, %1829 : !torch.vtensor<[1,64,768],f16>, !torch.list<int> -> !torch.vtensor<[1,64,12,64],f16>
    %int1_1937 = torch.constant.int 1
    %int2_1938 = torch.constant.int 2
    %1831 = torch.aten.transpose.int %1830, %int1_1937, %int2_1938 : !torch.vtensor<[1,64,12,64],f16>, !torch.int, !torch.int -> !torch.vtensor<[1,12,64,64],f16>
    %int0_1939 = torch.constant.int 0
    %1832 = torch.aten.clone %1831, %int0_1939 : !torch.vtensor<[1,12,64,64],f16>, !torch.int -> !torch.vtensor<[1,12,64,64],f16>
    %int1_1940 = torch.constant.int 1
    %int64_1941 = torch.constant.int 64
    %int12_1942 = torch.constant.int 12
    %int64_1943 = torch.constant.int 64
    %1833 = torch.prim.ListConstruct %int1_1940, %int64_1941, %int12_1942, %int64_1943 : (!torch.int, !torch.int, !torch.int, !torch.int) -> !torch.list<int>
    %1834 = torch.aten.view %1794, %1833 : !torch.vtensor<[1,64,768],f16>, !torch.list<int> -> !torch.vtensor<[1,64,12,64],f16>
    %int1_1944 = torch.constant.int 1
    %int2_1945 = torch.constant.int 2
    %1835 = torch.aten.transpose.int %1834, %int1_1944, %int2_1945 : !torch.vtensor<[1,64,12,64],f16>, !torch.int, !torch.int -> !torch.vtensor<[1,12,64,64],f16>
    %int0_1946 = torch.constant.int 0
    %1836 = torch.aten.clone %1835, %int0_1946 : !torch.vtensor<[1,12,64,64],f16>, !torch.int -> !torch.vtensor<[1,12,64,64],f16>
    %int12_1947 = torch.constant.int 12
    %int-1_1948 = torch.constant.int -1
    %int64_1949 = torch.constant.int 64
    %1837 = torch.prim.ListConstruct %int12_1947, %int-1_1948, %int64_1949 : (!torch.int, !torch.int, !torch.int) -> !torch.list<int>
    %1838 = torch.aten.view %1836, %1837 : !torch.vtensor<[1,12,64,64],f16>, !torch.list<int> -> !torch.vtensor<[12,64,64],f16>
    %int12_1950 = torch.constant.int 12
    %int-1_1951 = torch.constant.int -1
    %int64_1952 = torch.constant.int 64
    %1839 = torch.prim.ListConstruct %int12_1950, %int-1_1951, %int64_1952 : (!torch.int, !torch.int, !torch.int) -> !torch.list<int>
    %1840 = torch.aten.view %1813, %1839 : !torch.vtensor<[1,12,64,64],f16>, !torch.list<int> -> !torch.vtensor<[12,64,64],f16>
    %int12_1953 = torch.constant.int 12
    %int-1_1954 = torch.constant.int -1
    %int64_1955 = torch.constant.int 64
    %1841 = torch.prim.ListConstruct %int12_1953, %int-1_1954, %int64_1955 : (!torch.int, !torch.int, !torch.int) -> !torch.list<int>
    %1842 = torch.aten.view %1832, %1841 : !torch.vtensor<[1,12,64,64],f16>, !torch.list<int> -> !torch.vtensor<[12,64,64],f16>
    %int1_1956 = torch.constant.int 1
    %int2_1957 = torch.constant.int 2
    %1843 = torch.aten.transpose.int %1840, %int1_1956, %int2_1957 : !torch.vtensor<[12,64,64],f16>, !torch.int, !torch.int -> !torch.vtensor<[12,64,64],f16>
    %1844 = torch.aten.bmm %1838, %1843 : !torch.vtensor<[12,64,64],f16>, !torch.vtensor<[12,64,64],f16> -> !torch.vtensor<[12,64,64],f16>
    %int1_1958 = torch.constant.int 1
    %int12_1959 = torch.constant.int 12
    %int64_1960 = torch.constant.int 64
    %int64_1961 = torch.constant.int 64
    %1845 = torch.prim.ListConstruct %int1_1958, %int12_1959, %int64_1960, %int64_1961 : (!torch.int, !torch.int, !torch.int, !torch.int) -> !torch.list<int>
    %1846 = torch.aten.view %1844, %1845 : !torch.vtensor<[12,64,64],f16>, !torch.list<int> -> !torch.vtensor<[1,12,64,64],f16>
    %int1_1962 = torch.constant.int 1
    %1847 = torch.aten.add.Tensor %1846, %27, %int1_1962 : !torch.vtensor<[1,12,64,64],f16>, !torch.vtensor<[1,1,64,64],f16>, !torch.int -> !torch.vtensor<[1,12,64,64],f16>
    %int12_1963 = torch.constant.int 12
    %int64_1964 = torch.constant.int 64
    %int64_1965 = torch.constant.int 64
    %1848 = torch.prim.ListConstruct %int12_1963, %int64_1964, %int64_1965 : (!torch.int, !torch.int, !torch.int) -> !torch.list<int>
    %1849 = torch.aten.view %1847, %1848 : !torch.vtensor<[1,12,64,64],f16>, !torch.list<int> -> !torch.vtensor<[12,64,64],f16>
    %int-1_1966 = torch.constant.int -1
    %false_1967 = torch.constant.bool false
    %1850 = torch.aten._softmax %1849, %int-1_1966, %false_1967 : !torch.vtensor<[12,64,64],f16>, !torch.int, !torch.bool -> !torch.vtensor<[12,64,64],f16>
    %1851 = torch.aten.detach %1850 : !torch.vtensor<[12,64,64],f16> -> !torch.vtensor<[12,64,64],f16>
    %none_1968 = torch.constant.none
    %1852 = torch.aten.clone %1850, %none_1968 : !torch.vtensor<[12,64,64],f16>, !torch.none -> !torch.vtensor<[12,64,64],f16>
    %1853 = torch.aten.bmm %1852, %1842 : !torch.vtensor<[12,64,64],f16>, !torch.vtensor<[12,64,64],f16> -> !torch.vtensor<[12,64,64],f16>
    %int1_1969 = torch.constant.int 1
    %int12_1970 = torch.constant.int 12
    %int64_1971 = torch.constant.int 64
    %int64_1972 = torch.constant.int 64
    %1854 = torch.prim.ListConstruct %int1_1969, %int12_1970, %int64_1971, %int64_1972 : (!torch.int, !torch.int, !torch.int, !torch.int) -> !torch.list<int>
    %1855 = torch.aten.view %1853, %1854 : !torch.vtensor<[12,64,64],f16>, !torch.list<int> -> !torch.vtensor<[1,12,64,64],f16>
    %int1_1973 = torch.constant.int 1
    %int2_1974 = torch.constant.int 2
    %1856 = torch.aten.transpose.int %1855, %int1_1973, %int2_1974 : !torch.vtensor<[1,12,64,64],f16>, !torch.int, !torch.int -> !torch.vtensor<[1,64,12,64],f16>
    %int0_1975 = torch.constant.int 0
    %1857 = torch.aten.clone %1856, %int0_1975 : !torch.vtensor<[1,64,12,64],f16>, !torch.int -> !torch.vtensor<[1,64,12,64],f16>
    %int1_1976 = torch.constant.int 1
    %int64_1977 = torch.constant.int 64
    %int768_1978 = torch.constant.int 768
    %1858 = torch.prim.ListConstruct %int1_1976, %int64_1977, %int768_1978 : (!torch.int, !torch.int, !torch.int) -> !torch.list<int>
    %1859 = torch.aten._unsafe_view %1857, %1858 : !torch.vtensor<[1,64,12,64],f16>, !torch.list<int> -> !torch.vtensor<[1,64,768],f16>
    %int64_1979 = torch.constant.int 64
    %int768_1980 = torch.constant.int 768
    %1860 = torch.prim.ListConstruct %int64_1979, %int768_1980 : (!torch.int, !torch.int) -> !torch.list<int>
    %1861 = torch.aten.view %1859, %1860 : !torch.vtensor<[1,64,768],f16>, !torch.list<int> -> !torch.vtensor<[64,768],f16>
    %_params.text_encoder_model.text_model.encoder.layers.11.self_attn.out_proj.weight = util.global.load @_params.text_encoder_model.text_model.encoder.layers.11.self_attn.out_proj.weight : tensor<768x768xf16>
    %1862 = torch_c.from_builtin_tensor %_params.text_encoder_model.text_model.encoder.layers.11.self_attn.out_proj.weight : tensor<768x768xf16> -> !torch.vtensor<[768,768],f16>
    %int0_1981 = torch.constant.int 0
    %int1_1982 = torch.constant.int 1
    %1863 = torch.aten.transpose.int %1862, %int0_1981, %int1_1982 : !torch.vtensor<[768,768],f16>, !torch.int, !torch.int -> !torch.vtensor<[768,768],f16>
    %_params.text_encoder_model.text_model.encoder.layers.11.self_attn.out_proj.bias = util.global.load @_params.text_encoder_model.text_model.encoder.layers.11.self_attn.out_proj.bias : tensor<768xf16>
    %1864 = torch_c.from_builtin_tensor %_params.text_encoder_model.text_model.encoder.layers.11.self_attn.out_proj.bias : tensor<768xf16> -> !torch.vtensor<[768],f16>
    %int6_1983 = torch.constant.int 6
    %1865 = torch.prims.convert_element_type %1864, %int6_1983 : !torch.vtensor<[768],f16>, !torch.int -> !torch.vtensor<[768],f32>
    %int6_1984 = torch.constant.int 6
    %1866 = torch.prims.convert_element_type %1861, %int6_1984 : !torch.vtensor<[64,768],f16>, !torch.int -> !torch.vtensor<[64,768],f32>
    %int6_1985 = torch.constant.int 6
    %1867 = torch.prims.convert_element_type %1863, %int6_1985 : !torch.vtensor<[768,768],f16>, !torch.int -> !torch.vtensor<[768,768],f32>
    %1868 = torch.aten.mm %1866, %1867 : !torch.vtensor<[64,768],f32>, !torch.vtensor<[768,768],f32> -> !torch.vtensor<[64,768],f32>
    %int1_1986 = torch.constant.int 1
    %1869 = torch.aten.mul.Scalar %1868, %int1_1986 : !torch.vtensor<[64,768],f32>, !torch.int -> !torch.vtensor<[64,768],f32>
    %int1_1987 = torch.constant.int 1
    %1870 = torch.aten.mul.Scalar %1865, %int1_1987 : !torch.vtensor<[768],f32>, !torch.int -> !torch.vtensor<[768],f32>
    %int1_1988 = torch.constant.int 1
    %1871 = torch.aten.add.Tensor %1869, %1870, %int1_1988 : !torch.vtensor<[64,768],f32>, !torch.vtensor<[768],f32>, !torch.int -> !torch.vtensor<[64,768],f32>
    %int5_1989 = torch.constant.int 5
    %1872 = torch.prims.convert_element_type %1871, %int5_1989 : !torch.vtensor<[64,768],f32>, !torch.int -> !torch.vtensor<[64,768],f16>
    %int1_1990 = torch.constant.int 1
    %int64_1991 = torch.constant.int 64
    %int768_1992 = torch.constant.int 768
    %1873 = torch.prim.ListConstruct %int1_1990, %int64_1991, %int768_1992 : (!torch.int, !torch.int, !torch.int) -> !torch.list<int>
    %1874 = torch.aten.view %1872, %1873 : !torch.vtensor<[64,768],f16>, !torch.list<int> -> !torch.vtensor<[1,64,768],f16>
    %int1_1993 = torch.constant.int 1
    %1875 = torch.aten.add.Tensor %1765, %1874, %int1_1993 : !torch.vtensor<[1,64,768],f16>, !torch.vtensor<[1,64,768],f16>, !torch.int -> !torch.vtensor<[1,64,768],f16>
    %int6_1994 = torch.constant.int 6
    %1876 = torch.prims.convert_element_type %1875, %int6_1994 : !torch.vtensor<[1,64,768],f16>, !torch.int -> !torch.vtensor<[1,64,768],f32>
    %int2_1995 = torch.constant.int 2
    %1877 = torch.prim.ListConstruct %int2_1995 : (!torch.int) -> !torch.list<int>
    %int0_1996 = torch.constant.int 0
    %true_1997 = torch.constant.bool true
    %result0_1998, %result1_1999 = torch.aten.var_mean.correction %1876, %1877, %int0_1996, %true_1997 : !torch.vtensor<[1,64,768],f32>, !torch.list<int>, !torch.int, !torch.bool -> !torch.vtensor<[1,64,1],f32>, !torch.vtensor<[1,64,1],f32>
    %float1.000000e-05_2000 = torch.constant.float 1.000000e-05
    %int1_2001 = torch.constant.int 1
    %1878 = torch.aten.add.Scalar %result0_1998, %float1.000000e-05_2000, %int1_2001 : !torch.vtensor<[1,64,1],f32>, !torch.float, !torch.int -> !torch.vtensor<[1,64,1],f32>
    %1879 = torch.aten.rsqrt %1878 : !torch.vtensor<[1,64,1],f32> -> !torch.vtensor<[1,64,1],f32>
    %int1_2002 = torch.constant.int 1
    %1880 = torch.aten.sub.Tensor %1875, %result1_1999, %int1_2002 : !torch.vtensor<[1,64,768],f16>, !torch.vtensor<[1,64,1],f32>, !torch.int -> !torch.vtensor<[1,64,768],f32>
    %1881 = torch.aten.mul.Tensor %1880, %1879 : !torch.vtensor<[1,64,768],f32>, !torch.vtensor<[1,64,1],f32> -> !torch.vtensor<[1,64,768],f32>
    %_params.text_encoder_model.text_model.encoder.layers.11.layer_norm2.weight = util.global.load @_params.text_encoder_model.text_model.encoder.layers.11.layer_norm2.weight : tensor<768xf16>
    %1882 = torch_c.from_builtin_tensor %_params.text_encoder_model.text_model.encoder.layers.11.layer_norm2.weight : tensor<768xf16> -> !torch.vtensor<[768],f16>
    %1883 = torch.aten.mul.Tensor %1881, %1882 : !torch.vtensor<[1,64,768],f32>, !torch.vtensor<[768],f16> -> !torch.vtensor<[1,64,768],f32>
    %_params.text_encoder_model.text_model.encoder.layers.11.layer_norm2.bias = util.global.load @_params.text_encoder_model.text_model.encoder.layers.11.layer_norm2.bias : tensor<768xf16>
    %1884 = torch_c.from_builtin_tensor %_params.text_encoder_model.text_model.encoder.layers.11.layer_norm2.bias : tensor<768xf16> -> !torch.vtensor<[768],f16>
    %int1_2003 = torch.constant.int 1
    %1885 = torch.aten.add.Tensor %1883, %1884, %int1_2003 : !torch.vtensor<[1,64,768],f32>, !torch.vtensor<[768],f16>, !torch.int -> !torch.vtensor<[1,64,768],f32>
    %int5_2004 = torch.constant.int 5
    %1886 = torch.prims.convert_element_type %1885, %int5_2004 : !torch.vtensor<[1,64,768],f32>, !torch.int -> !torch.vtensor<[1,64,768],f16>
    %int5_2005 = torch.constant.int 5
    %1887 = torch.prims.convert_element_type %result1_1999, %int5_2005 : !torch.vtensor<[1,64,1],f32>, !torch.int -> !torch.vtensor<[1,64,1],f16>
    %int5_2006 = torch.constant.int 5
    %1888 = torch.prims.convert_element_type %1879, %int5_2006 : !torch.vtensor<[1,64,1],f32>, !torch.int -> !torch.vtensor<[1,64,1],f16>
    %int64_2007 = torch.constant.int 64
    %int768_2008 = torch.constant.int 768
    %1889 = torch.prim.ListConstruct %int64_2007, %int768_2008 : (!torch.int, !torch.int) -> !torch.list<int>
    %1890 = torch.aten.view %1886, %1889 : !torch.vtensor<[1,64,768],f16>, !torch.list<int> -> !torch.vtensor<[64,768],f16>
    %_params.text_encoder_model.text_model.encoder.layers.11.mlp.fc1.weight = util.global.load @_params.text_encoder_model.text_model.encoder.layers.11.mlp.fc1.weight : tensor<3072x768xf16>
    %1891 = torch_c.from_builtin_tensor %_params.text_encoder_model.text_model.encoder.layers.11.mlp.fc1.weight : tensor<3072x768xf16> -> !torch.vtensor<[3072,768],f16>
    %int0_2009 = torch.constant.int 0
    %int1_2010 = torch.constant.int 1
    %1892 = torch.aten.transpose.int %1891, %int0_2009, %int1_2010 : !torch.vtensor<[3072,768],f16>, !torch.int, !torch.int -> !torch.vtensor<[768,3072],f16>
    %_params.text_encoder_model.text_model.encoder.layers.11.mlp.fc1.bias = util.global.load @_params.text_encoder_model.text_model.encoder.layers.11.mlp.fc1.bias : tensor<3072xf16>
    %1893 = torch_c.from_builtin_tensor %_params.text_encoder_model.text_model.encoder.layers.11.mlp.fc1.bias : tensor<3072xf16> -> !torch.vtensor<[3072],f16>
    %int6_2011 = torch.constant.int 6
    %1894 = torch.prims.convert_element_type %1893, %int6_2011 : !torch.vtensor<[3072],f16>, !torch.int -> !torch.vtensor<[3072],f32>
    %int6_2012 = torch.constant.int 6
    %1895 = torch.prims.convert_element_type %1890, %int6_2012 : !torch.vtensor<[64,768],f16>, !torch.int -> !torch.vtensor<[64,768],f32>
    %int6_2013 = torch.constant.int 6
    %1896 = torch.prims.convert_element_type %1892, %int6_2013 : !torch.vtensor<[768,3072],f16>, !torch.int -> !torch.vtensor<[768,3072],f32>
    %1897 = torch.aten.mm %1895, %1896 : !torch.vtensor<[64,768],f32>, !torch.vtensor<[768,3072],f32> -> !torch.vtensor<[64,3072],f32>
    %int1_2014 = torch.constant.int 1
    %1898 = torch.aten.mul.Scalar %1897, %int1_2014 : !torch.vtensor<[64,3072],f32>, !torch.int -> !torch.vtensor<[64,3072],f32>
    %int1_2015 = torch.constant.int 1
    %1899 = torch.aten.mul.Scalar %1894, %int1_2015 : !torch.vtensor<[3072],f32>, !torch.int -> !torch.vtensor<[3072],f32>
    %int1_2016 = torch.constant.int 1
    %1900 = torch.aten.add.Tensor %1898, %1899, %int1_2016 : !torch.vtensor<[64,3072],f32>, !torch.vtensor<[3072],f32>, !torch.int -> !torch.vtensor<[64,3072],f32>
    %int5_2017 = torch.constant.int 5
    %1901 = torch.prims.convert_element_type %1900, %int5_2017 : !torch.vtensor<[64,3072],f32>, !torch.int -> !torch.vtensor<[64,3072],f16>
    %int1_2018 = torch.constant.int 1
    %int64_2019 = torch.constant.int 64
    %int3072_2020 = torch.constant.int 3072
    %1902 = torch.prim.ListConstruct %int1_2018, %int64_2019, %int3072_2020 : (!torch.int, !torch.int, !torch.int) -> !torch.list<int>
    %1903 = torch.aten.view %1901, %1902 : !torch.vtensor<[64,3072],f16>, !torch.list<int> -> !torch.vtensor<[1,64,3072],f16>
    %float1.702000e00_2021 = torch.constant.float 1.702000e+00
    %1904 = torch.aten.mul.Scalar %1903, %float1.702000e00_2021 : !torch.vtensor<[1,64,3072],f16>, !torch.float -> !torch.vtensor<[1,64,3072],f16>
    %1905 = torch.aten.sigmoid %1904 : !torch.vtensor<[1,64,3072],f16> -> !torch.vtensor<[1,64,3072],f16>
    %1906 = torch.aten.detach %1905 : !torch.vtensor<[1,64,3072],f16> -> !torch.vtensor<[1,64,3072],f16>
    %1907 = torch.aten.mul.Tensor %1903, %1905 : !torch.vtensor<[1,64,3072],f16>, !torch.vtensor<[1,64,3072],f16> -> !torch.vtensor<[1,64,3072],f16>
    %int64_2022 = torch.constant.int 64
    %int3072_2023 = torch.constant.int 3072
    %1908 = torch.prim.ListConstruct %int64_2022, %int3072_2023 : (!torch.int, !torch.int) -> !torch.list<int>
    %1909 = torch.aten.view %1907, %1908 : !torch.vtensor<[1,64,3072],f16>, !torch.list<int> -> !torch.vtensor<[64,3072],f16>
    %_params.text_encoder_model.text_model.encoder.layers.11.mlp.fc2.weight = util.global.load @_params.text_encoder_model.text_model.encoder.layers.11.mlp.fc2.weight : tensor<768x3072xf16>
    %1910 = torch_c.from_builtin_tensor %_params.text_encoder_model.text_model.encoder.layers.11.mlp.fc2.weight : tensor<768x3072xf16> -> !torch.vtensor<[768,3072],f16>
    %int0_2024 = torch.constant.int 0
    %int1_2025 = torch.constant.int 1
    %1911 = torch.aten.transpose.int %1910, %int0_2024, %int1_2025 : !torch.vtensor<[768,3072],f16>, !torch.int, !torch.int -> !torch.vtensor<[3072,768],f16>
    %_params.text_encoder_model.text_model.encoder.layers.11.mlp.fc2.bias = util.global.load @_params.text_encoder_model.text_model.encoder.layers.11.mlp.fc2.bias : tensor<768xf16>
    %1912 = torch_c.from_builtin_tensor %_params.text_encoder_model.text_model.encoder.layers.11.mlp.fc2.bias : tensor<768xf16> -> !torch.vtensor<[768],f16>
    %int6_2026 = torch.constant.int 6
    %1913 = torch.prims.convert_element_type %1912, %int6_2026 : !torch.vtensor<[768],f16>, !torch.int -> !torch.vtensor<[768],f32>
    %int6_2027 = torch.constant.int 6
    %1914 = torch.prims.convert_element_type %1909, %int6_2027 : !torch.vtensor<[64,3072],f16>, !torch.int -> !torch.vtensor<[64,3072],f32>
    %int6_2028 = torch.constant.int 6
    %1915 = torch.prims.convert_element_type %1911, %int6_2028 : !torch.vtensor<[3072,768],f16>, !torch.int -> !torch.vtensor<[3072,768],f32>
    %1916 = torch.aten.mm %1914, %1915 : !torch.vtensor<[64,3072],f32>, !torch.vtensor<[3072,768],f32> -> !torch.vtensor<[64,768],f32>
    %int1_2029 = torch.constant.int 1
    %1917 = torch.aten.mul.Scalar %1916, %int1_2029 : !torch.vtensor<[64,768],f32>, !torch.int -> !torch.vtensor<[64,768],f32>
    %int1_2030 = torch.constant.int 1
    %1918 = torch.aten.mul.Scalar %1913, %int1_2030 : !torch.vtensor<[768],f32>, !torch.int -> !torch.vtensor<[768],f32>
    %int1_2031 = torch.constant.int 1
    %1919 = torch.aten.add.Tensor %1917, %1918, %int1_2031 : !torch.vtensor<[64,768],f32>, !torch.vtensor<[768],f32>, !torch.int -> !torch.vtensor<[64,768],f32>
    %int5_2032 = torch.constant.int 5
    %1920 = torch.prims.convert_element_type %1919, %int5_2032 : !torch.vtensor<[64,768],f32>, !torch.int -> !torch.vtensor<[64,768],f16>
    %int1_2033 = torch.constant.int 1
    %int64_2034 = torch.constant.int 64
    %int768_2035 = torch.constant.int 768
    %1921 = torch.prim.ListConstruct %int1_2033, %int64_2034, %int768_2035 : (!torch.int, !torch.int, !torch.int) -> !torch.list<int>
    %1922 = torch.aten.view %1920, %1921 : !torch.vtensor<[64,768],f16>, !torch.list<int> -> !torch.vtensor<[1,64,768],f16>
    %int1_2036 = torch.constant.int 1
    %1923 = torch.aten.add.Tensor %1875, %1922, %int1_2036 : !torch.vtensor<[1,64,768],f16>, !torch.vtensor<[1,64,768],f16>, !torch.int -> !torch.vtensor<[1,64,768],f16>
    %int6_2037 = torch.constant.int 6
    %1924 = torch.prims.convert_element_type %1923, %int6_2037 : !torch.vtensor<[1,64,768],f16>, !torch.int -> !torch.vtensor<[1,64,768],f32>
    %int2_2038 = torch.constant.int 2
    %1925 = torch.prim.ListConstruct %int2_2038 : (!torch.int) -> !torch.list<int>
    %int0_2039 = torch.constant.int 0
    %true_2040 = torch.constant.bool true
    %result0_2041, %result1_2042 = torch.aten.var_mean.correction %1924, %1925, %int0_2039, %true_2040 : !torch.vtensor<[1,64,768],f32>, !torch.list<int>, !torch.int, !torch.bool -> !torch.vtensor<[1,64,1],f32>, !torch.vtensor<[1,64,1],f32>
    %float1.000000e-05_2043 = torch.constant.float 1.000000e-05
    %int1_2044 = torch.constant.int 1
    %1926 = torch.aten.add.Scalar %result0_2041, %float1.000000e-05_2043, %int1_2044 : !torch.vtensor<[1,64,1],f32>, !torch.float, !torch.int -> !torch.vtensor<[1,64,1],f32>
    %1927 = torch.aten.rsqrt %1926 : !torch.vtensor<[1,64,1],f32> -> !torch.vtensor<[1,64,1],f32>
    %int1_2045 = torch.constant.int 1
    %1928 = torch.aten.sub.Tensor %1923, %result1_2042, %int1_2045 : !torch.vtensor<[1,64,768],f16>, !torch.vtensor<[1,64,1],f32>, !torch.int -> !torch.vtensor<[1,64,768],f32>
    %1929 = torch.aten.mul.Tensor %1928, %1927 : !torch.vtensor<[1,64,768],f32>, !torch.vtensor<[1,64,1],f32> -> !torch.vtensor<[1,64,768],f32>
    %_params.text_encoder_model.text_model.final_layer_norm.weight = util.global.load @_params.text_encoder_model.text_model.final_layer_norm.weight : tensor<768xf16>
    %1930 = torch_c.from_builtin_tensor %_params.text_encoder_model.text_model.final_layer_norm.weight : tensor<768xf16> -> !torch.vtensor<[768],f16>
    %1931 = torch.aten.mul.Tensor %1929, %1930 : !torch.vtensor<[1,64,768],f32>, !torch.vtensor<[768],f16> -> !torch.vtensor<[1,64,768],f32>
    %_params.text_encoder_model.text_model.final_layer_norm.bias = util.global.load @_params.text_encoder_model.text_model.final_layer_norm.bias : tensor<768xf16>
    %1932 = torch_c.from_builtin_tensor %_params.text_encoder_model.text_model.final_layer_norm.bias : tensor<768xf16> -> !torch.vtensor<[768],f16>
    %int1_2046 = torch.constant.int 1
    %1933 = torch.aten.add.Tensor %1931, %1932, %int1_2046 : !torch.vtensor<[1,64,768],f32>, !torch.vtensor<[768],f16>, !torch.int -> !torch.vtensor<[1,64,768],f32>
    %int5_2047 = torch.constant.int 5
    %1934 = torch.prims.convert_element_type %1933, %int5_2047 : !torch.vtensor<[1,64,768],f32>, !torch.int -> !torch.vtensor<[1,64,768],f16>
    %int5_2048 = torch.constant.int 5
    %1935 = torch.prims.convert_element_type %result1_2042, %int5_2048 : !torch.vtensor<[1,64,1],f32>, !torch.int -> !torch.vtensor<[1,64,1],f16>
    %int5_2049 = torch.constant.int 5
    %1936 = torch.prims.convert_element_type %1927, %int5_2049 : !torch.vtensor<[1,64,1],f32>, !torch.int -> !torch.vtensor<[1,64,1],f16>
    %int1_2050 = torch.constant.int 1
    %none_2051 = torch.constant.none
    %none_2052 = torch.constant.none
    %cpu_2053 = torch.constant.device "cpu"
    %false_2054 = torch.constant.bool false
    %1937 = torch.aten.arange %int1_2050, %none_2051, %none_2052, %cpu_2053, %false_2054 : !torch.int, !torch.none, !torch.none, !torch.Device, !torch.bool -> !torch.vtensor<[1],si64>
    %int3_2055 = torch.constant.int 3
    %1938 = torch.prims.convert_element_type %1, %int3_2055 : !torch.vtensor<[1,64],si64>, !torch.int -> !torch.vtensor<[1,64],si32>
    %int-1_2056 = torch.constant.int -1
    %false_2057 = torch.constant.bool false
    %1939 = torch.aten.argmax %1938, %int-1_2056, %false_2057 : !torch.vtensor<[1,64],si32>, !torch.int, !torch.bool -> !torch.vtensor<[1],si64>
    %1940 = torch.prim.ListConstruct %1937, %1939 : (!torch.vtensor<[1],si64>, !torch.vtensor<[1],si64>) -> !torch.list<optional<vtensor>>
    %1941 = torch.aten.index.Tensor %1934, %1940 : !torch.vtensor<[1,64,768],f16>, !torch.list<optional<vtensor>> -> !torch.vtensor<[1,768],f16>
    return %1765, %1934 : !torch.vtensor<[1,64,768],f16>, !torch.vtensor<[1,64,768],f16>
  }
}

{-#
  dialect_resources: {
    builtin: {
      torch_tensor_1_77_torch.int64: "…"
    }
  }
#-}
