module @compiled_clip {
  util.global private @_params.text_encoder_model.text_model.embeddings.token_embedding.weight {noinline} = #stream.parameter.named<"model"::"text_encoder_model.text_model.embeddings.token_embedding.weight"> : tensor<49408x1280xf16>
  util.global private @_params.text_encoder_model.text_model.embeddings.position_embedding.weight {noinline} = #stream.parameter.named<"model"::"text_encoder_model.text_model.embeddings.position_embedding.weight"> : tensor<77x1280xf16>
  util.global private @_params.text_encoder_model.text_model.encoder.layers.0.self_attn.k_proj.weight {noinline} = #stream.parameter.named<"model"::"text_encoder_model.text_model.encoder.layers.0.self_attn.k_proj.weight"> : tensor<1280x1280xf16>
  util.global private @_params.text_encoder_model.text_model.encoder.layers.0.self_attn.k_proj.bias {noinline} = #stream.parameter.named<"model"::"text_encoder_model.text_model.encoder.layers.0.self_attn.k_proj.bias"> : tensor<1280xf16>
  util.global private @_params.text_encoder_model.text_model.encoder.layers.0.self_attn.v_proj.weight {noinline} = #stream.parameter.named<"model"::"text_encoder_model.text_model.encoder.layers.0.self_attn.v_proj.weight"> : tensor<1280x1280xf16>
  util.global private @_params.text_encoder_model.text_model.encoder.layers.0.self_attn.v_proj.bias {noinline} = #stream.parameter.named<"model"::"text_encoder_model.text_model.encoder.layers.0.self_attn.v_proj.bias"> : tensor<1280xf16>
  util.global private @_params.text_encoder_model.text_model.encoder.layers.0.self_attn.q_proj.weight {noinline} = #stream.parameter.named<"model"::"text_encoder_model.text_model.encoder.layers.0.self_attn.q_proj.weight"> : tensor<1280x1280xf16>
  util.global private @_params.text_encoder_model.text_model.encoder.layers.0.self_attn.q_proj.bias {noinline} = #stream.parameter.named<"model"::"text_encoder_model.text_model.encoder.layers.0.self_attn.q_proj.bias"> : tensor<1280xf16>
  util.global private @_params.text_encoder_model.text_model.encoder.layers.0.self_attn.out_proj.weight {noinline} = #stream.parameter.named<"model"::"text_encoder_model.text_model.encoder.layers.0.self_attn.out_proj.weight"> : tensor<1280x1280xf16>
  util.global private @_params.text_encoder_model.text_model.encoder.layers.0.self_attn.out_proj.bias {noinline} = #stream.parameter.named<"model"::"text_encoder_model.text_model.encoder.layers.0.self_attn.out_proj.bias"> : tensor<1280xf16>
  util.global private @_params.text_encoder_model.text_model.encoder.layers.0.layer_norm1.weight {noinline} = #stream.parameter.named<"model"::"text_encoder_model.text_model.encoder.layers.0.layer_norm1.weight"> : tensor<1280xf16>
  util.global private @_params.text_encoder_model.text_model.encoder.layers.0.layer_norm1.bias {noinline} = #stream.parameter.named<"model"::"text_encoder_model.text_model.encoder.layers.0.layer_norm1.bias"> : tensor<1280xf16>
  util.global private @_params.text_encoder_model.text_model.encoder.layers.0.mlp.fc1.weight {noinline} = #stream.parameter.named<"model"::"text_encoder_model.text_model.encoder.layers.0.mlp.fc1.weight"> : tensor<5120x1280xf16>
  util.global private @_params.text_encoder_model.text_model.encoder.layers.0.mlp.fc1.bias {noinline} = #stream.parameter.named<"model"::"text_encoder_model.text_model.encoder.layers.0.mlp.fc1.bias"> : tensor<5120xf16>
  util.global private @_params.text_encoder_model.text_model.encoder.layers.0.mlp.fc2.weight {noinline} = #stream.parameter.named<"model"::"text_encoder_model.text_model.encoder.layers.0.mlp.fc2.weight"> : tensor<1280x5120xf16>
  util.global private @_params.text_encoder_model.text_model.encoder.layers.0.mlp.fc2.bias {noinline} = #stream.parameter.named<"model"::"text_encoder_model.text_model.encoder.layers.0.mlp.fc2.bias"> : tensor<1280xf16>
  util.global private @_params.text_encoder_model.text_model.encoder.layers.0.layer_norm2.weight {noinline} = #stream.parameter.named<"model"::"text_encoder_model.text_model.encoder.layers.0.layer_norm2.weight"> : tensor<1280xf16>
  util.global private @_params.text_encoder_model.text_model.encoder.layers.0.layer_norm2.bias {noinline} = #stream.parameter.named<"model"::"text_encoder_model.text_model.encoder.layers.0.layer_norm2.bias"> : tensor<1280xf16>
  util.global private @_params.text_encoder_model.text_model.encoder.layers.1.self_attn.k_proj.weight {noinline} = #stream.parameter.named<"model"::"text_encoder_model.text_model.encoder.layers.1.self_attn.k_proj.weight"> : tensor<1280x1280xf16>
  util.global private @_params.text_encoder_model.text_model.encoder.layers.1.self_attn.k_proj.bias {noinline} = #stream.parameter.named<"model"::"text_encoder_model.text_model.encoder.layers.1.self_attn.k_proj.bias"> : tensor<1280xf16>
  util.global private @_params.text_encoder_model.text_model.encoder.layers.1.self_attn.v_proj.weight {noinline} = #stream.parameter.named<"model"::"text_encoder_model.text_model.encoder.layers.1.self_attn.v_proj.weight"> : tensor<1280x1280xf16>
  util.global private @_params.text_encoder_model.text_model.encoder.layers.1.self_attn.v_proj.bias {noinline} = #stream.parameter.named<"model"::"text_encoder_model.text_model.encoder.layers.1.self_attn.v_proj.bias"> : tensor<1280xf16>
  util.global private @_params.text_encoder_model.text_model.encoder.layers.1.self_attn.q_proj.weight {noinline} = #stream.parameter.named<"model"::"text_encoder_model.text_model.encoder.layers.1.self_attn.q_proj.weight"> : tensor<1280x1280xf16>
  util.global private @_params.text_encoder_model.text_model.encoder.layers.1.self_attn.q_proj.bias {noinline} = #stream.parameter.named<"model"::"text_encoder_model.text_model.encoder.layers.1.self_attn.q_proj.bias"> : tensor<1280xf16>
  util.global private @_params.text_encoder_model.text_model.encoder.layers.1.self_attn.out_proj.weight {noinline} = #stream.parameter.named<"model"::"text_encoder_model.text_model.encoder.layers.1.self_attn.out_proj.weight"> : tensor<1280x1280xf16>
  util.global private @_params.text_encoder_model.text_model.encoder.layers.1.self_attn.out_proj.bias {noinline} = #stream.parameter.named<"model"::"text_encoder_model.text_model.encoder.layers.1.self_attn.out_proj.bias"> : tensor<1280xf16>
  util.global private @_params.text_encoder_model.text_model.encoder.layers.1.layer_norm1.weight {noinline} = #stream.parameter.named<"model"::"text_encoder_model.text_model.encoder.layers.1.layer_norm1.weight"> : tensor<1280xf16>
  util.global private @_params.text_encoder_model.text_model.encoder.layers.1.layer_norm1.bias {noinline} = #stream.parameter.named<"model"::"text_encoder_model.text_model.encoder.layers.1.layer_norm1.bias"> : tensor<1280xf16>
  util.global private @_params.text_encoder_model.text_model.encoder.layers.1.mlp.fc1.weight {noinline} = #stream.parameter.named<"model"::"text_encoder_model.text_model.encoder.layers.1.mlp.fc1.weight"> : tensor<5120x1280xf16>
  util.global private @_params.text_encoder_model.text_model.encoder.layers.1.mlp.fc1.bias {noinline} = #stream.parameter.named<"model"::"text_encoder_model.text_model.encoder.layers.1.mlp.fc1.bias"> : tensor<5120xf16>
  util.global private @_params.text_encoder_model.text_model.encoder.layers.1.mlp.fc2.weight {noinline} = #stream.parameter.named<"model"::"text_encoder_model.text_model.encoder.layers.1.mlp.fc2.weight"> : tensor<1280x5120xf16>
  util.global private @_params.text_encoder_model.text_model.encoder.layers.1.mlp.fc2.bias {noinline} = #stream.parameter.named<"model"::"text_encoder_model.text_model.encoder.layers.1.mlp.fc2.bias"> : tensor<1280xf16>
  util.global private @_params.text_encoder_model.text_model.encoder.layers.1.layer_norm2.weight {noinline} = #stream.parameter.named<"model"::"text_encoder_model.text_model.encoder.layers.1.layer_norm2.weight"> : tensor<1280xf16>
  util.global private @_params.text_encoder_model.text_model.encoder.layers.1.layer_norm2.bias {noinline} = #stream.parameter.named<"model"::"text_encoder_model.text_model.encoder.layers.1.layer_norm2.bias"> : tensor<1280xf16>
  util.global private @_params.text_encoder_model.text_model.encoder.layers.2.self_attn.k_proj.weight {noinline} = #stream.parameter.named<"model"::"text_encoder_model.text_model.encoder.layers.2.self_attn.k_proj.weight"> : tensor<1280x1280xf16>
  util.global private @_params.text_encoder_model.text_model.encoder.layers.2.self_attn.k_proj.bias {noinline} = #stream.parameter.named<"model"::"text_encoder_model.text_model.encoder.layers.2.self_attn.k_proj.bias"> : tensor<1280xf16>
  util.global private @_params.text_encoder_model.text_model.encoder.layers.2.self_attn.v_proj.weight {noinline} = #stream.parameter.named<"model"::"text_encoder_model.text_model.encoder.layers.2.self_attn.v_proj.weight"> : tensor<1280x1280xf16>
  util.global private @_params.text_encoder_model.text_model.encoder.layers.2.self_attn.v_proj.bias {noinline} = #stream.parameter.named<"model"::"text_encoder_model.text_model.encoder.layers.2.self_attn.v_proj.bias"> : tensor<1280xf16>
  util.global private @_params.text_encoder_model.text_model.encoder.layers.2.self_attn.q_proj.weight {noinline} = #stream.parameter.named<"model"::"text_encoder_model.text_model.encoder.layers.2.self_attn.q_proj.weight"> : tensor<1280x1280xf16>
  util.global private @_params.text_encoder_model.text_model.encoder.layers.2.self_attn.q_proj.bias {noinline} = #stream.parameter.named<"model"::"text_encoder_model.text_model.encoder.layers.2.self_attn.q_proj.bias"> : tensor<1280xf16>
  util.global private @_params.text_encoder_model.text_model.encoder.layers.2.self_attn.out_proj.weight {noinline} = #stream.parameter.named<"model"::"text_encoder_model.text_model.encoder.layers.2.self_attn.out_proj.weight"> : tensor<1280x1280xf16>
  util.global private @_params.text_encoder_model.text_model.encoder.layers.2.self_attn.out_proj.bias {noinline} = #stream.parameter.named<"model"::"text_encoder_model.text_model.encoder.layers.2.self_attn.out_proj.bias"> : tensor<1280xf16>
  util.global private @_params.text_encoder_model.text_model.encoder.layers.2.layer_norm1.weight {noinline} = #stream.parameter.named<"model"::"text_encoder_model.text_model.encoder.layers.2.layer_norm1.weight"> : tensor<1280xf16>
  util.global private @_params.text_encoder_model.text_model.encoder.layers.2.layer_norm1.bias {noinline} = #stream.parameter.named<"model"::"text_encoder_model.text_model.encoder.layers.2.layer_norm1.bias"> : tensor<1280xf16>
  util.global private @_params.text_encoder_model.text_model.encoder.layers.2.mlp.fc1.weight {noinline} = #stream.parameter.named<"model"::"text_encoder_model.text_model.encoder.layers.2.mlp.fc1.weight"> : tensor<5120x1280xf16>
  util.global private @_params.text_encoder_model.text_model.encoder.layers.2.mlp.fc1.bias {noinline} = #stream.parameter.named<"model"::"text_encoder_model.text_model.encoder.layers.2.mlp.fc1.bias"> : tensor<5120xf16>
  util.global private @_params.text_encoder_model.text_model.encoder.layers.2.mlp.fc2.weight {noinline} = #stream.parameter.named<"model"::"text_encoder_model.text_model.encoder.layers.2.mlp.fc2.weight"> : tensor<1280x5120xf16>
  util.global private @_params.text_encoder_model.text_model.encoder.layers.2.mlp.fc2.bias {noinline} = #stream.parameter.named<"model"::"text_encoder_model.text_model.encoder.layers.2.mlp.fc2.bias"> : tensor<1280xf16>
  util.global private @_params.text_encoder_model.text_model.encoder.layers.2.layer_norm2.weight {noinline} = #stream.parameter.named<"model"::"text_encoder_model.text_model.encoder.layers.2.layer_norm2.weight"> : tensor<1280xf16>
  util.global private @_params.text_encoder_model.text_model.encoder.layers.2.layer_norm2.bias {noinline} = #stream.parameter.named<"model"::"text_encoder_model.text_model.encoder.layers.2.layer_norm2.bias"> : tensor<1280xf16>
  util.global private @_params.text_encoder_model.text_model.encoder.layers.3.self_attn.k_proj.weight {noinline} = #stream.parameter.named<"model"::"text_encoder_model.text_model.encoder.layers.3.self_attn.k_proj.weight"> : tensor<1280x1280xf16>
  util.global private @_params.text_encoder_model.text_model.encoder.layers.3.self_attn.k_proj.bias {noinline} = #stream.parameter.named<"model"::"text_encoder_model.text_model.encoder.layers.3.self_attn.k_proj.bias"> : tensor<1280xf16>
  util.global private @_params.text_encoder_model.text_model.encoder.layers.3.self_attn.v_proj.weight {noinline} = #stream.parameter.named<"model"::"text_encoder_model.text_model.encoder.layers.3.self_attn.v_proj.weight"> : tensor<1280x1280xf16>
  util.global private @_params.text_encoder_model.text_model.encoder.layers.3.self_attn.v_proj.bias {noinline} = #stream.parameter.named<"model"::"text_encoder_model.text_model.encoder.layers.3.self_attn.v_proj.bias"> : tensor<1280xf16>
  util.global private @_params.text_encoder_model.text_model.encoder.layers.3.self_attn.q_proj.weight {noinline} = #stream.parameter.named<"model"::"text_encoder_model.text_model.encoder.layers.3.self_attn.q_proj.weight"> : tensor<1280x1280xf16>
  util.global private @_params.text_encoder_model.text_model.encoder.layers.3.self_attn.q_proj.bias {noinline} = #stream.parameter.named<"model"::"text_encoder_model.text_model.encoder.layers.3.self_attn.q_proj.bias"> : tensor<1280xf16>
  util.global private @_params.text_encoder_model.text_model.encoder.layers.3.self_attn.out_proj.weight {noinline} = #stream.parameter.named<"model"::"text_encoder_model.text_model.encoder.layers.3.self_attn.out_proj.weight"> : tensor<1280x1280xf16>
  util.global private @_params.text_encoder_model.text_model.encoder.layers.3.self_attn.out_proj.bias {noinline} = #stream.parameter.named<"model"::"text_encoder_model.text_model.encoder.layers.3.self_attn.out_proj.bias"> : tensor<1280xf16>
  util.global private @_params.text_encoder_model.text_model.encoder.layers.3.layer_norm1.weight {noinline} = #stream.parameter.named<"model"::"text_encoder_model.text_model.encoder.layers.3.layer_norm1.weight"> : tensor<1280xf16>
  util.global private @_params.text_encoder_model.text_model.encoder.layers.3.layer_norm1.bias {noinline} = #stream.parameter.named<"model"::"text_encoder_model.text_model.encoder.layers.3.layer_norm1.bias"> : tensor<1280xf16>
  util.global private @_params.text_encoder_model.text_model.encoder.layers.3.mlp.fc1.weight {noinline} = #stream.parameter.named<"model"::"text_encoder_model.text_model.encoder.layers.3.mlp.fc1.weight"> : tensor<5120x1280xf16>
  util.global private @_params.text_encoder_model.text_model.encoder.layers.3.mlp.fc1.bias {noinline} = #stream.parameter.named<"model"::"text_encoder_model.text_model.encoder.layers.3.mlp.fc1.bias"> : tensor<5120xf16>
  util.global private @_params.text_encoder_model.text_model.encoder.layers.3.mlp.fc2.weight {noinline} = #stream.parameter.named<"model"::"text_encoder_model.text_model.encoder.layers.3.mlp.fc2.weight"> : tensor<1280x5120xf16>
  util.global private @_params.text_encoder_model.text_model.encoder.layers.3.mlp.fc2.bias {noinline} = #stream.parameter.named<"model"::"text_encoder_model.text_model.encoder.layers.3.mlp.fc2.bias"> : tensor<1280xf16>
  util.global private @_params.text_encoder_model.text_model.encoder.layers.3.layer_norm2.weight {noinline} = #stream.parameter.named<"model"::"text_encoder_model.text_model.encoder.layers.3.layer_norm2.weight"> : tensor<1280xf16>
  util.global private @_params.text_encoder_model.text_model.encoder.layers.3.layer_norm2.bias {noinline} = #stream.parameter.named<"model"::"text_encoder_model.text_model.encoder.layers.3.layer_norm2.bias"> : tensor<1280xf16>
  util.global private @_params.text_encoder_model.text_model.encoder.layers.4.self_attn.k_proj.weight {noinline} = #stream.parameter.named<"model"::"text_encoder_model.text_model.encoder.layers.4.self_attn.k_proj.weight"> : tensor<1280x1280xf16>
  util.global private @_params.text_encoder_model.text_model.encoder.layers.4.self_attn.k_proj.bias {noinline} = #stream.parameter.named<"model"::"text_encoder_model.text_model.encoder.layers.4.self_attn.k_proj.bias"> : tensor<1280xf16>
  util.global private @_params.text_encoder_model.text_model.encoder.layers.4.self_attn.v_proj.weight {noinline} = #stream.parameter.named<"model"::"text_encoder_model.text_model.encoder.layers.4.self_attn.v_proj.weight"> : tensor<1280x1280xf16>
  util.global private @_params.text_encoder_model.text_model.encoder.layers.4.self_attn.v_proj.bias {noinline} = #stream.parameter.named<"model"::"text_encoder_model.text_model.encoder.layers.4.self_attn.v_proj.bias"> : tensor<1280xf16>
  util.global private @_params.text_encoder_model.text_model.encoder.layers.4.self_attn.q_proj.weight {noinline} = #stream.parameter.named<"model"::"text_encoder_model.text_model.encoder.layers.4.self_attn.q_proj.weight"> : tensor<1280x1280xf16>
  util.global private @_params.text_encoder_model.text_model.encoder.layers.4.self_attn.q_proj.bias {noinline} = #stream.parameter.named<"model"::"text_encoder_model.text_model.encoder.layers.4.self_attn.q_proj.bias"> : tensor<1280xf16>
  util.global private @_params.text_encoder_model.text_model.encoder.layers.4.self_attn.out_proj.weight {noinline} = #stream.parameter.named<"model"::"text_encoder_model.text_model.encoder.layers.4.self_attn.out_proj.weight"> : tensor<1280x1280xf16>
  util.global private @_params.text_encoder_model.text_model.encoder.layers.4.self_attn.out_proj.bias {noinline} = #stream.parameter.named<"model"::"text_encoder_model.text_model.encoder.layers.4.self_attn.out_proj.bias"> : tensor<1280xf16>
  util.global private @_params.text_encoder_model.text_model.encoder.layers.4.layer_norm1.weight {noinline} = #stream.parameter.named<"model"::"text_encoder_model.text_model.encoder.layers.4.layer_norm1.weight"> : tensor<1280xf16>
  util.global private @_params.text_encoder_model.text_model.encoder.layers.4.layer_norm1.bias {noinline} = #stream.parameter.named<"model"::"text_encoder_model.text_model.encoder.layers.4.layer_norm1.bias"> : tensor<1280xf16>
  util.global private @_params.text_encoder_model.text_model.encoder.layers.4.mlp.fc1.weight {noinline} = #stream.parameter.named<"model"::"text_encoder_model.text_model.encoder.layers.4.mlp.fc1.weight"> : tensor<5120x1280xf16>
  util.global private @_params.text_encoder_model.text_model.encoder.layers.4.mlp.fc1.bias {noinline} = #stream.parameter.named<"model"::"text_encoder_model.text_model.encoder.layers.4.mlp.fc1.bias"> : tensor<5120xf16>
  util.global private @_params.text_encoder_model.text_model.encoder.layers.4.mlp.fc2.weight {noinline} = #stream.parameter.named<"model"::"text_encoder_model.text_model.encoder.layers.4.mlp.fc2.weight"> : tensor<1280x5120xf16>
  util.global private @_params.text_encoder_model.text_model.encoder.layers.4.mlp.fc2.bias {noinline} = #stream.parameter.named<"model"::"text_encoder_model.text_model.encoder.layers.4.mlp.fc2.bias"> : tensor<1280xf16>
  util.global private @_params.text_encoder_model.text_model.encoder.layers.4.layer_norm2.weight {noinline} = #stream.parameter.named<"model"::"text_encoder_model.text_model.encoder.layers.4.layer_norm2.weight"> : tensor<1280xf16>
  util.global private @_params.text_encoder_model.text_model.encoder.layers.4.layer_norm2.bias {noinline} = #stream.parameter.named<"model"::"text_encoder_model.text_model.encoder.layers.4.layer_norm2.bias"> : tensor<1280xf16>
  util.global private @_params.text_encoder_model.text_model.encoder.layers.5.self_attn.k_proj.weight {noinline} = #stream.parameter.named<"model"::"text_encoder_model.text_model.encoder.layers.5.self_attn.k_proj.weight"> : tensor<1280x1280xf16>
  util.global private @_params.text_encoder_model.text_model.encoder.layers.5.self_attn.k_proj.bias {noinline} = #stream.parameter.named<"model"::"text_encoder_model.text_model.encoder.layers.5.self_attn.k_proj.bias"> : tensor<1280xf16>
  util.global private @_params.text_encoder_model.text_model.encoder.layers.5.self_attn.v_proj.weight {noinline} = #stream.parameter.named<"model"::"text_encoder_model.text_model.encoder.layers.5.self_attn.v_proj.weight"> : tensor<1280x1280xf16>
  util.global private @_params.text_encoder_model.text_model.encoder.layers.5.self_attn.v_proj.bias {noinline} = #stream.parameter.named<"model"::"text_encoder_model.text_model.encoder.layers.5.self_attn.v_proj.bias"> : tensor<1280xf16>
  util.global private @_params.text_encoder_model.text_model.encoder.layers.5.self_attn.q_proj.weight {noinline} = #stream.parameter.named<"model"::"text_encoder_model.text_model.encoder.layers.5.self_attn.q_proj.weight"> : tensor<1280x1280xf16>
  util.global private @_params.text_encoder_model.text_model.encoder.layers.5.self_attn.q_proj.bias {noinline} = #stream.parameter.named<"model"::"text_encoder_model.text_model.encoder.layers.5.self_attn.q_proj.bias"> : tensor<1280xf16>
  util.global private @_params.text_encoder_model.text_model.encoder.layers.5.self_attn.out_proj.weight {noinline} = #stream.parameter.named<"model"::"text_encoder_model.text_model.encoder.layers.5.self_attn.out_proj.weight"> : tensor<1280x1280xf16>
  util.global private @_params.text_encoder_model.text_model.encoder.layers.5.self_attn.out_proj.bias {noinline} = #stream.parameter.named<"model"::"text_encoder_model.text_model.encoder.layers.5.self_attn.out_proj.bias"> : tensor<1280xf16>
  util.global private @_params.text_encoder_model.text_model.encoder.layers.5.layer_norm1.weight {noinline} = #stream.parameter.named<"model"::"text_encoder_model.text_model.encoder.layers.5.layer_norm1.weight"> : tensor<1280xf16>
  util.global private @_params.text_encoder_model.text_model.encoder.layers.5.layer_norm1.bias {noinline} = #stream.parameter.named<"model"::"text_encoder_model.text_model.encoder.layers.5.layer_norm1.bias"> : tensor<1280xf16>
  util.global private @_params.text_encoder_model.text_model.encoder.layers.5.mlp.fc1.weight {noinline} = #stream.parameter.named<"model"::"text_encoder_model.text_model.encoder.layers.5.mlp.fc1.weight"> : tensor<5120x1280xf16>
  util.global private @_params.text_encoder_model.text_model.encoder.layers.5.mlp.fc1.bias {noinline} = #stream.parameter.named<"model"::"text_encoder_model.text_model.encoder.layers.5.mlp.fc1.bias"> : tensor<5120xf16>
  util.global private @_params.text_encoder_model.text_model.encoder.layers.5.mlp.fc2.weight {noinline} = #stream.parameter.named<"model"::"text_encoder_model.text_model.encoder.layers.5.mlp.fc2.weight"> : tensor<1280x5120xf16>
  util.global private @_params.text_encoder_model.text_model.encoder.layers.5.mlp.fc2.bias {noinline} = #stream.parameter.named<"model"::"text_encoder_model.text_model.encoder.layers.5.mlp.fc2.bias"> : tensor<1280xf16>
  util.global private @_params.text_encoder_model.text_model.encoder.layers.5.layer_norm2.weight {noinline} = #stream.parameter.named<"model"::"text_encoder_model.text_model.encoder.layers.5.layer_norm2.weight"> : tensor<1280xf16>
  util.global private @_params.text_encoder_model.text_model.encoder.layers.5.layer_norm2.bias {noinline} = #stream.parameter.named<"model"::"text_encoder_model.text_model.encoder.layers.5.layer_norm2.bias"> : tensor<1280xf16>
  util.global private @_params.text_encoder_model.text_model.encoder.layers.6.self_attn.k_proj.weight {noinline} = #stream.parameter.named<"model"::"text_encoder_model.text_model.encoder.layers.6.self_attn.k_proj.weight"> : tensor<1280x1280xf16>
  util.global private @_params.text_encoder_model.text_model.encoder.layers.6.self_attn.k_proj.bias {noinline} = #stream.parameter.named<"model"::"text_encoder_model.text_model.encoder.layers.6.self_attn.k_proj.bias"> : tensor<1280xf16>
  util.global private @_params.text_encoder_model.text_model.encoder.layers.6.self_attn.v_proj.weight {noinline} = #stream.parameter.named<"model"::"text_encoder_model.text_model.encoder.layers.6.self_attn.v_proj.weight"> : tensor<1280x1280xf16>
  util.global private @_params.text_encoder_model.text_model.encoder.layers.6.self_attn.v_proj.bias {noinline} = #stream.parameter.named<"model"::"text_encoder_model.text_model.encoder.layers.6.self_attn.v_proj.bias"> : tensor<1280xf16>
  util.global private @_params.text_encoder_model.text_model.encoder.layers.6.self_attn.q_proj.weight {noinline} = #stream.parameter.named<"model"::"text_encoder_model.text_model.encoder.layers.6.self_attn.q_proj.weight"> : tensor<1280x1280xf16>
  util.global private @_params.text_encoder_model.text_model.encoder.layers.6.self_attn.q_proj.bias {noinline} = #stream.parameter.named<"model"::"text_encoder_model.text_model.encoder.layers.6.self_attn.q_proj.bias"> : tensor<1280xf16>
  util.global private @_params.text_encoder_model.text_model.encoder.layers.6.self_attn.out_proj.weight {noinline} = #stream.parameter.named<"model"::"text_encoder_model.text_model.encoder.layers.6.self_attn.out_proj.weight"> : tensor<1280x1280xf16>
  util.global private @_params.text_encoder_model.text_model.encoder.layers.6.self_attn.out_proj.bias {noinline} = #stream.parameter.named<"model"::"text_encoder_model.text_model.encoder.layers.6.self_attn.out_proj.bias"> : tensor<1280xf16>
  util.global private @_params.text_encoder_model.text_model.encoder.layers.6.layer_norm1.weight {noinline} = #stream.parameter.named<"model"::"text_encoder_model.text_model.encoder.layers.6.layer_norm1.weight"> : tensor<1280xf16>
  util.global private @_params.text_encoder_model.text_model.encoder.layers.6.layer_norm1.bias {noinline} = #stream.parameter.named<"model"::"text_encoder_model.text_model.encoder.layers.6.layer_norm1.bias"> : tensor<1280xf16>
  util.global private @_params.text_encoder_model.text_model.encoder.layers.6.mlp.fc1.weight {noinline} = #stream.parameter.named<"model"::"text_encoder_model.text_model.encoder.layers.6.mlp.fc1.weight"> : tensor<5120x1280xf16>
  util.global private @_params.text_encoder_model.text_model.encoder.layers.6.mlp.fc1.bias {noinline} = #stream.parameter.named<"model"::"text_encoder_model.text_model.encoder.layers.6.mlp.fc1.bias"> : tensor<5120xf16>
  util.global private @_params.text_encoder_model.text_model.encoder.layers.6.mlp.fc2.weight {noinline} = #stream.parameter.named<"model"::"text_encoder_model.text_model.encoder.layers.6.mlp.fc2.weight"> : tensor<1280x5120xf16>
  util.global private @_params.text_encoder_model.text_model.encoder.layers.6.mlp.fc2.bias {noinline} = #stream.parameter.named<"model"::"text_encoder_model.text_model.encoder.layers.6.mlp.fc2.bias"> : tensor<1280xf16>
  util.global private @_params.text_encoder_model.text_model.encoder.layers.6.layer_norm2.weight {noinline} = #stream.parameter.named<"model"::"text_encoder_model.text_model.encoder.layers.6.layer_norm2.weight"> : tensor<1280xf16>
  util.global private @_params.text_encoder_model.text_model.encoder.layers.6.layer_norm2.bias {noinline} = #stream.parameter.named<"model"::"text_encoder_model.text_model.encoder.layers.6.layer_norm2.bias"> : tensor<1280xf16>
  util.global private @_params.text_encoder_model.text_model.encoder.layers.7.self_attn.k_proj.weight {noinline} = #stream.parameter.named<"model"::"text_encoder_model.text_model.encoder.layers.7.self_attn.k_proj.weight"> : tensor<1280x1280xf16>
  util.global private @_params.text_encoder_model.text_model.encoder.layers.7.self_attn.k_proj.bias {noinline} = #stream.parameter.named<"model"::"text_encoder_model.text_model.encoder.layers.7.self_attn.k_proj.bias"> : tensor<1280xf16>
  util.global private @_params.text_encoder_model.text_model.encoder.layers.7.self_attn.v_proj.weight {noinline} = #stream.parameter.named<"model"::"text_encoder_model.text_model.encoder.layers.7.self_attn.v_proj.weight"> : tensor<1280x1280xf16>
  util.global private @_params.text_encoder_model.text_model.encoder.layers.7.self_attn.v_proj.bias {noinline} = #stream.parameter.named<"model"::"text_encoder_model.text_model.encoder.layers.7.self_attn.v_proj.bias"> : tensor<1280xf16>
  util.global private @_params.text_encoder_model.text_model.encoder.layers.7.self_attn.q_proj.weight {noinline} = #stream.parameter.named<"model"::"text_encoder_model.text_model.encoder.layers.7.self_attn.q_proj.weight"> : tensor<1280x1280xf16>
  util.global private @_params.text_encoder_model.text_model.encoder.layers.7.self_attn.q_proj.bias {noinline} = #stream.parameter.named<"model"::"text_encoder_model.text_model.encoder.layers.7.self_attn.q_proj.bias"> : tensor<1280xf16>
  util.global private @_params.text_encoder_model.text_model.encoder.layers.7.self_attn.out_proj.weight {noinline} = #stream.parameter.named<"model"::"text_encoder_model.text_model.encoder.layers.7.self_attn.out_proj.weight"> : tensor<1280x1280xf16>
  util.global private @_params.text_encoder_model.text_model.encoder.layers.7.self_attn.out_proj.bias {noinline} = #stream.parameter.named<"model"::"text_encoder_model.text_model.encoder.layers.7.self_attn.out_proj.bias"> : tensor<1280xf16>
  util.global private @_params.text_encoder_model.text_model.encoder.layers.7.layer_norm1.weight {noinline} = #stream.parameter.named<"model"::"text_encoder_model.text_model.encoder.layers.7.layer_norm1.weight"> : tensor<1280xf16>
  util.global private @_params.text_encoder_model.text_model.encoder.layers.7.layer_norm1.bias {noinline} = #stream.parameter.named<"model"::"text_encoder_model.text_model.encoder.layers.7.layer_norm1.bias"> : tensor<1280xf16>
  util.global private @_params.text_encoder_model.text_model.encoder.layers.7.mlp.fc1.weight {noinline} = #stream.parameter.named<"model"::"text_encoder_model.text_model.encoder.layers.7.mlp.fc1.weight"> : tensor<5120x1280xf16>
  util.global private @_params.text_encoder_model.text_model.encoder.layers.7.mlp.fc1.bias {noinline} = #stream.parameter.named<"model"::"text_encoder_model.text_model.encoder.layers.7.mlp.fc1.bias"> : tensor<5120xf16>
  util.global private @_params.text_encoder_model.text_model.encoder.layers.7.mlp.fc2.weight {noinline} = #stream.parameter.named<"model"::"text_encoder_model.text_model.encoder.layers.7.mlp.fc2.weight"> : tensor<1280x5120xf16>
  util.global private @_params.text_encoder_model.text_model.encoder.layers.7.mlp.fc2.bias {noinline} = #stream.parameter.named<"model"::"text_encoder_model.text_model.encoder.layers.7.mlp.fc2.bias"> : tensor<1280xf16>
  util.global private @_params.text_encoder_model.text_model.encoder.layers.7.layer_norm2.weight {noinline} = #stream.parameter.named<"model"::"text_encoder_model.text_model.encoder.layers.7.layer_norm2.weight"> : tensor<1280xf16>
  util.global private @_params.text_encoder_model.text_model.encoder.layers.7.layer_norm2.bias {noinline} = #stream.parameter.named<"model"::"text_encoder_model.text_model.encoder.layers.7.layer_norm2.bias"> : tensor<1280xf16>
  util.global private @_params.text_encoder_model.text_model.encoder.layers.8.self_attn.k_proj.weight {noinline} = #stream.parameter.named<"model"::"text_encoder_model.text_model.encoder.layers.8.self_attn.k_proj.weight"> : tensor<1280x1280xf16>
  util.global private @_params.text_encoder_model.text_model.encoder.layers.8.self_attn.k_proj.bias {noinline} = #stream.parameter.named<"model"::"text_encoder_model.text_model.encoder.layers.8.self_attn.k_proj.bias"> : tensor<1280xf16>
  util.global private @_params.text_encoder_model.text_model.encoder.layers.8.self_attn.v_proj.weight {noinline} = #stream.parameter.named<"model"::"text_encoder_model.text_model.encoder.layers.8.self_attn.v_proj.weight"> : tensor<1280x1280xf16>
  util.global private @_params.text_encoder_model.text_model.encoder.layers.8.self_attn.v_proj.bias {noinline} = #stream.parameter.named<"model"::"text_encoder_model.text_model.encoder.layers.8.self_attn.v_proj.bias"> : tensor<1280xf16>
  util.global private @_params.text_encoder_model.text_model.encoder.layers.8.self_attn.q_proj.weight {noinline} = #stream.parameter.named<"model"::"text_encoder_model.text_model.encoder.layers.8.self_attn.q_proj.weight"> : tensor<1280x1280xf16>
  util.global private @_params.text_encoder_model.text_model.encoder.layers.8.self_attn.q_proj.bias {noinline} = #stream.parameter.named<"model"::"text_encoder_model.text_model.encoder.layers.8.self_attn.q_proj.bias"> : tensor<1280xf16>
  util.global private @_params.text_encoder_model.text_model.encoder.layers.8.self_attn.out_proj.weight {noinline} = #stream.parameter.named<"model"::"text_encoder_model.text_model.encoder.layers.8.self_attn.out_proj.weight"> : tensor<1280x1280xf16>
  util.global private @_params.text_encoder_model.text_model.encoder.layers.8.self_attn.out_proj.bias {noinline} = #stream.parameter.named<"model"::"text_encoder_model.text_model.encoder.layers.8.self_attn.out_proj.bias"> : tensor<1280xf16>
  util.global private @_params.text_encoder_model.text_model.encoder.layers.8.layer_norm1.weight {noinline} = #stream.parameter.named<"model"::"text_encoder_model.text_model.encoder.layers.8.layer_norm1.weight"> : tensor<1280xf16>
  util.global private @_params.text_encoder_model.text_model.encoder.layers.8.layer_norm1.bias {noinline} = #stream.parameter.named<"model"::"text_encoder_model.text_model.encoder.layers.8.layer_norm1.bias"> : tensor<1280xf16>
  util.global private @_params.text_encoder_model.text_model.encoder.layers.8.mlp.fc1.weight {noinline} = #stream.parameter.named<"model"::"text_encoder_model.text_model.encoder.layers.8.mlp.fc1.weight"> : tensor<5120x1280xf16>
  util.global private @_params.text_encoder_model.text_model.encoder.layers.8.mlp.fc1.bias {noinline} = #stream.parameter.named<"model"::"text_encoder_model.text_model.encoder.layers.8.mlp.fc1.bias"> : tensor<5120xf16>
  util.global private @_params.text_encoder_model.text_model.encoder.layers.8.mlp.fc2.weight {noinline} = #stream.parameter.named<"model"::"text_encoder_model.text_model.encoder.layers.8.mlp.fc2.weight"> : tensor<1280x5120xf16>
  util.global private @_params.text_encoder_model.text_model.encoder.layers.8.mlp.fc2.bias {noinline} = #stream.parameter.named<"model"::"text_encoder_model.text_model.encoder.layers.8.mlp.fc2.bias"> : tensor<1280xf16>
  util.global private @_params.text_encoder_model.text_model.encoder.layers.8.layer_norm2.weight {noinline} = #stream.parameter.named<"model"::"text_encoder_model.text_model.encoder.layers.8.layer_norm2.weight"> : tensor<1280xf16>
  util.global private @_params.text_encoder_model.text_model.encoder.layers.8.layer_norm2.bias {noinline} = #stream.parameter.named<"model"::"text_encoder_model.text_model.encoder.layers.8.layer_norm2.bias"> : tensor<1280xf16>
  util.global private @_params.text_encoder_model.text_model.encoder.layers.9.self_attn.k_proj.weight {noinline} = #stream.parameter.named<"model"::"text_encoder_model.text_model.encoder.layers.9.self_attn.k_proj.weight"> : tensor<1280x1280xf16>
  util.global private @_params.text_encoder_model.text_model.encoder.layers.9.self_attn.k_proj.bias {noinline} = #stream.parameter.named<"model"::"text_encoder_model.text_model.encoder.layers.9.self_attn.k_proj.bias"> : tensor<1280xf16>
  util.global private @_params.text_encoder_model.text_model.encoder.layers.9.self_attn.v_proj.weight {noinline} = #stream.parameter.named<"model"::"text_encoder_model.text_model.encoder.layers.9.self_attn.v_proj.weight"> : tensor<1280x1280xf16>
  util.global private @_params.text_encoder_model.text_model.encoder.layers.9.self_attn.v_proj.bias {noinline} = #stream.parameter.named<"model"::"text_encoder_model.text_model.encoder.layers.9.self_attn.v_proj.bias"> : tensor<1280xf16>
  util.global private @_params.text_encoder_model.text_model.encoder.layers.9.self_attn.q_proj.weight {noinline} = #stream.parameter.named<"model"::"text_encoder_model.text_model.encoder.layers.9.self_attn.q_proj.weight"> : tensor<1280x1280xf16>
  util.global private @_params.text_encoder_model.text_model.encoder.layers.9.self_attn.q_proj.bias {noinline} = #stream.parameter.named<"model"::"text_encoder_model.text_model.encoder.layers.9.self_attn.q_proj.bias"> : tensor<1280xf16>
  util.global private @_params.text_encoder_model.text_model.encoder.layers.9.self_attn.out_proj.weight {noinline} = #stream.parameter.named<"model"::"text_encoder_model.text_model.encoder.layers.9.self_attn.out_proj.weight"> : tensor<1280x1280xf16>
  util.global private @_params.text_encoder_model.text_model.encoder.layers.9.self_attn.out_proj.bias {noinline} = #stream.parameter.named<"model"::"text_encoder_model.text_model.encoder.layers.9.self_attn.out_proj.bias"> : tensor<1280xf16>
  util.global private @_params.text_encoder_model.text_model.encoder.layers.9.layer_norm1.weight {noinline} = #stream.parameter.named<"model"::"text_encoder_model.text_model.encoder.layers.9.layer_norm1.weight"> : tensor<1280xf16>
  util.global private @_params.text_encoder_model.text_model.encoder.layers.9.layer_norm1.bias {noinline} = #stream.parameter.named<"model"::"text_encoder_model.text_model.encoder.layers.9.layer_norm1.bias"> : tensor<1280xf16>
  util.global private @_params.text_encoder_model.text_model.encoder.layers.9.mlp.fc1.weight {noinline} = #stream.parameter.named<"model"::"text_encoder_model.text_model.encoder.layers.9.mlp.fc1.weight"> : tensor<5120x1280xf16>
  util.global private @_params.text_encoder_model.text_model.encoder.layers.9.mlp.fc1.bias {noinline} = #stream.parameter.named<"model"::"text_encoder_model.text_model.encoder.layers.9.mlp.fc1.bias"> : tensor<5120xf16>
  util.global private @_params.text_encoder_model.text_model.encoder.layers.9.mlp.fc2.weight {noinline} = #stream.parameter.named<"model"::"text_encoder_model.text_model.encoder.layers.9.mlp.fc2.weight"> : tensor<1280x5120xf16>
  util.global private @_params.text_encoder_model.text_model.encoder.layers.9.mlp.fc2.bias {noinline} = #stream.parameter.named<"model"::"text_encoder_model.text_model.encoder.layers.9.mlp.fc2.bias"> : tensor<1280xf16>
  util.global private @_params.text_encoder_model.text_model.encoder.layers.9.layer_norm2.weight {noinline} = #stream.parameter.named<"model"::"text_encoder_model.text_model.encoder.layers.9.layer_norm2.weight"> : tensor<1280xf16>
  util.global private @_params.text_encoder_model.text_model.encoder.layers.9.layer_norm2.bias {noinline} = #stream.parameter.named<"model"::"text_encoder_model.text_model.encoder.layers.9.layer_norm2.bias"> : tensor<1280xf16>
  util.global private @_params.text_encoder_model.text_model.encoder.layers.10.self_attn.k_proj.weight {noinline} = #stream.parameter.named<"model"::"text_encoder_model.text_model.encoder.layers.10.self_attn.k_proj.weight"> : tensor<1280x1280xf16>
  util.global private @_params.text_encoder_model.text_model.encoder.layers.10.self_attn.k_proj.bias {noinline} = #stream.parameter.named<"model"::"text_encoder_model.text_model.encoder.layers.10.self_attn.k_proj.bias"> : tensor<1280xf16>
  util.global private @_params.text_encoder_model.text_model.encoder.layers.10.self_attn.v_proj.weight {noinline} = #stream.parameter.named<"model"::"text_encoder_model.text_model.encoder.layers.10.self_attn.v_proj.weight"> : tensor<1280x1280xf16>
  util.global private @_params.text_encoder_model.text_model.encoder.layers.10.self_attn.v_proj.bias {noinline} = #stream.parameter.named<"model"::"text_encoder_model.text_model.encoder.layers.10.self_attn.v_proj.bias"> : tensor<1280xf16>
  util.global private @_params.text_encoder_model.text_model.encoder.layers.10.self_attn.q_proj.weight {noinline} = #stream.parameter.named<"model"::"text_encoder_model.text_model.encoder.layers.10.self_attn.q_proj.weight"> : tensor<1280x1280xf16>
  util.global private @_params.text_encoder_model.text_model.encoder.layers.10.self_attn.q_proj.bias {noinline} = #stream.parameter.named<"model"::"text_encoder_model.text_model.encoder.layers.10.self_attn.q_proj.bias"> : tensor<1280xf16>
  util.global private @_params.text_encoder_model.text_model.encoder.layers.10.self_attn.out_proj.weight {noinline} = #stream.parameter.named<"model"::"text_encoder_model.text_model.encoder.layers.10.self_attn.out_proj.weight"> : tensor<1280x1280xf16>
  util.global private @_params.text_encoder_model.text_model.encoder.layers.10.self_attn.out_proj.bias {noinline} = #stream.parameter.named<"model"::"text_encoder_model.text_model.encoder.layers.10.self_attn.out_proj.bias"> : tensor<1280xf16>
  util.global private @_params.text_encoder_model.text_model.encoder.layers.10.layer_norm1.weight {noinline} = #stream.parameter.named<"model"::"text_encoder_model.text_model.encoder.layers.10.layer_norm1.weight"> : tensor<1280xf16>
  util.global private @_params.text_encoder_model.text_model.encoder.layers.10.layer_norm1.bias {noinline} = #stream.parameter.named<"model"::"text_encoder_model.text_model.encoder.layers.10.layer_norm1.bias"> : tensor<1280xf16>
  util.global private @_params.text_encoder_model.text_model.encoder.layers.10.mlp.fc1.weight {noinline} = #stream.parameter.named<"model"::"text_encoder_model.text_model.encoder.layers.10.mlp.fc1.weight"> : tensor<5120x1280xf16>
  util.global private @_params.text_encoder_model.text_model.encoder.layers.10.mlp.fc1.bias {noinline} = #stream.parameter.named<"model"::"text_encoder_model.text_model.encoder.layers.10.mlp.fc1.bias"> : tensor<5120xf16>
  util.global private @_params.text_encoder_model.text_model.encoder.layers.10.mlp.fc2.weight {noinline} = #stream.parameter.named<"model"::"text_encoder_model.text_model.encoder.layers.10.mlp.fc2.weight"> : tensor<1280x5120xf16>
  util.global private @_params.text_encoder_model.text_model.encoder.layers.10.mlp.fc2.bias {noinline} = #stream.parameter.named<"model"::"text_encoder_model.text_model.encoder.layers.10.mlp.fc2.bias"> : tensor<1280xf16>
  util.global private @_params.text_encoder_model.text_model.encoder.layers.10.layer_norm2.weight {noinline} = #stream.parameter.named<"model"::"text_encoder_model.text_model.encoder.layers.10.layer_norm2.weight"> : tensor<1280xf16>
  util.global private @_params.text_encoder_model.text_model.encoder.layers.10.layer_norm2.bias {noinline} = #stream.parameter.named<"model"::"text_encoder_model.text_model.encoder.layers.10.layer_norm2.bias"> : tensor<1280xf16>
  util.global private @_params.text_encoder_model.text_model.encoder.layers.11.self_attn.k_proj.weight {noinline} = #stream.parameter.named<"model"::"text_encoder_model.text_model.encoder.layers.11.self_attn.k_proj.weight"> : tensor<1280x1280xf16>
  util.global private @_params.text_encoder_model.text_model.encoder.layers.11.self_attn.k_proj.bias {noinline} = #stream.parameter.named<"model"::"text_encoder_model.text_model.encoder.layers.11.self_attn.k_proj.bias"> : tensor<1280xf16>
  util.global private @_params.text_encoder_model.text_model.encoder.layers.11.self_attn.v_proj.weight {noinline} = #stream.parameter.named<"model"::"text_encoder_model.text_model.encoder.layers.11.self_attn.v_proj.weight"> : tensor<1280x1280xf16>
  util.global private @_params.text_encoder_model.text_model.encoder.layers.11.self_attn.v_proj.bias {noinline} = #stream.parameter.named<"model"::"text_encoder_model.text_model.encoder.layers.11.self_attn.v_proj.bias"> : tensor<1280xf16>
  util.global private @_params.text_encoder_model.text_model.encoder.layers.11.self_attn.q_proj.weight {noinline} = #stream.parameter.named<"model"::"text_encoder_model.text_model.encoder.layers.11.self_attn.q_proj.weight"> : tensor<1280x1280xf16>
  util.global private @_params.text_encoder_model.text_model.encoder.layers.11.self_attn.q_proj.bias {noinline} = #stream.parameter.named<"model"::"text_encoder_model.text_model.encoder.layers.11.self_attn.q_proj.bias"> : tensor<1280xf16>
  util.global private @_params.text_encoder_model.text_model.encoder.layers.11.self_attn.out_proj.weight {noinline} = #stream.parameter.named<"model"::"text_encoder_model.text_model.encoder.layers.11.self_attn.out_proj.weight"> : tensor<1280x1280xf16>
  util.global private @_params.text_encoder_model.text_model.encoder.layers.11.self_attn.out_proj.bias {noinline} = #stream.parameter.named<"model"::"text_encoder_model.text_model.encoder.layers.11.self_attn.out_proj.bias"> : tensor<1280xf16>
  util.global private @_params.text_encoder_model.text_model.encoder.layers.11.layer_norm1.weight {noinline} = #stream.parameter.named<"model"::"text_encoder_model.text_model.encoder.layers.11.layer_norm1.weight"> : tensor<1280xf16>
  util.global private @_params.text_encoder_model.text_model.encoder.layers.11.layer_norm1.bias {noinline} = #stream.parameter.named<"model"::"text_encoder_model.text_model.encoder.layers.11.layer_norm1.bias"> : tensor<1280xf16>
  util.global private @_params.text_encoder_model.text_model.encoder.layers.11.mlp.fc1.weight {noinline} = #stream.parameter.named<"model"::"text_encoder_model.text_model.encoder.layers.11.mlp.fc1.weight"> : tensor<5120x1280xf16>
  util.global private @_params.text_encoder_model.text_model.encoder.layers.11.mlp.fc1.bias {noinline} = #stream.parameter.named<"model"::"text_encoder_model.text_model.encoder.layers.11.mlp.fc1.bias"> : tensor<5120xf16>
  util.global private @_params.text_encoder_model.text_model.encoder.layers.11.mlp.fc2.weight {noinline} = #stream.parameter.named<"model"::"text_encoder_model.text_model.encoder.layers.11.mlp.fc2.weight"> : tensor<1280x5120xf16>
  util.global private @_params.text_encoder_model.text_model.encoder.layers.11.mlp.fc2.bias {noinline} = #stream.parameter.named<"model"::"text_encoder_model.text_model.encoder.layers.11.mlp.fc2.bias"> : tensor<1280xf16>
  util.global private @_params.text_encoder_model.text_model.encoder.layers.11.layer_norm2.weight {noinline} = #stream.parameter.named<"model"::"text_encoder_model.text_model.encoder.layers.11.layer_norm2.weight"> : tensor<1280xf16>
  util.global private @_params.text_encoder_model.text_model.encoder.layers.11.layer_norm2.bias {noinline} = #stream.parameter.named<"model"::"text_encoder_model.text_model.encoder.layers.11.layer_norm2.bias"> : tensor<1280xf16>
  util.global private @_params.text_encoder_model.text_model.encoder.layers.12.self_attn.k_proj.weight {noinline} = #stream.parameter.named<"model"::"text_encoder_model.text_model.encoder.layers.12.self_attn.k_proj.weight"> : tensor<1280x1280xf16>
  util.global private @_params.text_encoder_model.text_model.encoder.layers.12.self_attn.k_proj.bias {noinline} = #stream.parameter.named<"model"::"text_encoder_model.text_model.encoder.layers.12.self_attn.k_proj.bias"> : tensor<1280xf16>
  util.global private @_params.text_encoder_model.text_model.encoder.layers.12.self_attn.v_proj.weight {noinline} = #stream.parameter.named<"model"::"text_encoder_model.text_model.encoder.layers.12.self_attn.v_proj.weight"> : tensor<1280x1280xf16>
  util.global private @_params.text_encoder_model.text_model.encoder.layers.12.self_attn.v_proj.bias {noinline} = #stream.parameter.named<"model"::"text_encoder_model.text_model.encoder.layers.12.self_attn.v_proj.bias"> : tensor<1280xf16>
  util.global private @_params.text_encoder_model.text_model.encoder.layers.12.self_attn.q_proj.weight {noinline} = #stream.parameter.named<"model"::"text_encoder_model.text_model.encoder.layers.12.self_attn.q_proj.weight"> : tensor<1280x1280xf16>
  util.global private @_params.text_encoder_model.text_model.encoder.layers.12.self_attn.q_proj.bias {noinline} = #stream.parameter.named<"model"::"text_encoder_model.text_model.encoder.layers.12.self_attn.q_proj.bias"> : tensor<1280xf16>
  util.global private @_params.text_encoder_model.text_model.encoder.layers.12.self_attn.out_proj.weight {noinline} = #stream.parameter.named<"model"::"text_encoder_model.text_model.encoder.layers.12.self_attn.out_proj.weight"> : tensor<1280x1280xf16>
  util.global private @_params.text_encoder_model.text_model.encoder.layers.12.self_attn.out_proj.bias {noinline} = #stream.parameter.named<"model"::"text_encoder_model.text_model.encoder.layers.12.self_attn.out_proj.bias"> : tensor<1280xf16>
  util.global private @_params.text_encoder_model.text_model.encoder.layers.12.layer_norm1.weight {noinline} = #stream.parameter.named<"model"::"text_encoder_model.text_model.encoder.layers.12.layer_norm1.weight"> : tensor<1280xf16>
  util.global private @_params.text_encoder_model.text_model.encoder.layers.12.layer_norm1.bias {noinline} = #stream.parameter.named<"model"::"text_encoder_model.text_model.encoder.layers.12.layer_norm1.bias"> : tensor<1280xf16>
  util.global private @_params.text_encoder_model.text_model.encoder.layers.12.mlp.fc1.weight {noinline} = #stream.parameter.named<"model"::"text_encoder_model.text_model.encoder.layers.12.mlp.fc1.weight"> : tensor<5120x1280xf16>
  util.global private @_params.text_encoder_model.text_model.encoder.layers.12.mlp.fc1.bias {noinline} = #stream.parameter.named<"model"::"text_encoder_model.text_model.encoder.layers.12.mlp.fc1.bias"> : tensor<5120xf16>
  util.global private @_params.text_encoder_model.text_model.encoder.layers.12.mlp.fc2.weight {noinline} = #stream.parameter.named<"model"::"text_encoder_model.text_model.encoder.layers.12.mlp.fc2.weight"> : tensor<1280x5120xf16>
  util.global private @_params.text_encoder_model.text_model.encoder.layers.12.mlp.fc2.bias {noinline} = #stream.parameter.named<"model"::"text_encoder_model.text_model.encoder.layers.12.mlp.fc2.bias"> : tensor<1280xf16>
  util.global private @_params.text_encoder_model.text_model.encoder.layers.12.layer_norm2.weight {noinline} = #stream.parameter.named<"model"::"text_encoder_model.text_model.encoder.layers.12.layer_norm2.weight"> : tensor<1280xf16>
  util.global private @_params.text_encoder_model.text_model.encoder.layers.12.layer_norm2.bias {noinline} = #stream.parameter.named<"model"::"text_encoder_model.text_model.encoder.layers.12.layer_norm2.bias"> : tensor<1280xf16>
  util.global private @_params.text_encoder_model.text_model.encoder.layers.13.self_attn.k_proj.weight {noinline} = #stream.parameter.named<"model"::"text_encoder_model.text_model.encoder.layers.13.self_attn.k_proj.weight"> : tensor<1280x1280xf16>
  util.global private @_params.text_encoder_model.text_model.encoder.layers.13.self_attn.k_proj.bias {noinline} = #stream.parameter.named<"model"::"text_encoder_model.text_model.encoder.layers.13.self_attn.k_proj.bias"> : tensor<1280xf16>
  util.global private @_params.text_encoder_model.text_model.encoder.layers.13.self_attn.v_proj.weight {noinline} = #stream.parameter.named<"model"::"text_encoder_model.text_model.encoder.layers.13.self_attn.v_proj.weight"> : tensor<1280x1280xf16>
  util.global private @_params.text_encoder_model.text_model.encoder.layers.13.self_attn.v_proj.bias {noinline} = #stream.parameter.named<"model"::"text_encoder_model.text_model.encoder.layers.13.self_attn.v_proj.bias"> : tensor<1280xf16>
  util.global private @_params.text_encoder_model.text_model.encoder.layers.13.self_attn.q_proj.weight {noinline} = #stream.parameter.named<"model"::"text_encoder_model.text_model.encoder.layers.13.self_attn.q_proj.weight"> : tensor<1280x1280xf16>
  util.global private @_params.text_encoder_model.text_model.encoder.layers.13.self_attn.q_proj.bias {noinline} = #stream.parameter.named<"model"::"text_encoder_model.text_model.encoder.layers.13.self_attn.q_proj.bias"> : tensor<1280xf16>
  util.global private @_params.text_encoder_model.text_model.encoder.layers.13.self_attn.out_proj.weight {noinline} = #stream.parameter.named<"model"::"text_encoder_model.text_model.encoder.layers.13.self_attn.out_proj.weight"> : tensor<1280x1280xf16>
  util.global private @_params.text_encoder_model.text_model.encoder.layers.13.self_attn.out_proj.bias {noinline} = #stream.parameter.named<"model"::"text_encoder_model.text_model.encoder.layers.13.self_attn.out_proj.bias"> : tensor<1280xf16>
  util.global private @_params.text_encoder_model.text_model.encoder.layers.13.layer_norm1.weight {noinline} = #stream.parameter.named<"model"::"text_encoder_model.text_model.encoder.layers.13.layer_norm1.weight"> : tensor<1280xf16>
  util.global private @_params.text_encoder_model.text_model.encoder.layers.13.layer_norm1.bias {noinline} = #stream.parameter.named<"model"::"text_encoder_model.text_model.encoder.layers.13.layer_norm1.bias"> : tensor<1280xf16>
  util.global private @_params.text_encoder_model.text_model.encoder.layers.13.mlp.fc1.weight {noinline} = #stream.parameter.named<"model"::"text_encoder_model.text_model.encoder.layers.13.mlp.fc1.weight"> : tensor<5120x1280xf16>
  util.global private @_params.text_encoder_model.text_model.encoder.layers.13.mlp.fc1.bias {noinline} = #stream.parameter.named<"model"::"text_encoder_model.text_model.encoder.layers.13.mlp.fc1.bias"> : tensor<5120xf16>
  util.global private @_params.text_encoder_model.text_model.encoder.layers.13.mlp.fc2.weight {noinline} = #stream.parameter.named<"model"::"text_encoder_model.text_model.encoder.layers.13.mlp.fc2.weight"> : tensor<1280x5120xf16>
  util.global private @_params.text_encoder_model.text_model.encoder.layers.13.mlp.fc2.bias {noinline} = #stream.parameter.named<"model"::"text_encoder_model.text_model.encoder.layers.13.mlp.fc2.bias"> : tensor<1280xf16>
  util.global private @_params.text_encoder_model.text_model.encoder.layers.13.layer_norm2.weight {noinline} = #stream.parameter.named<"model"::"text_encoder_model.text_model.encoder.layers.13.layer_norm2.weight"> : tensor<1280xf16>
  util.global private @_params.text_encoder_model.text_model.encoder.layers.13.layer_norm2.bias {noinline} = #stream.parameter.named<"model"::"text_encoder_model.text_model.encoder.layers.13.layer_norm2.bias"> : tensor<1280xf16>
  util.global private @_params.text_encoder_model.text_model.encoder.layers.14.self_attn.k_proj.weight {noinline} = #stream.parameter.named<"model"::"text_encoder_model.text_model.encoder.layers.14.self_attn.k_proj.weight"> : tensor<1280x1280xf16>
  util.global private @_params.text_encoder_model.text_model.encoder.layers.14.self_attn.k_proj.bias {noinline} = #stream.parameter.named<"model"::"text_encoder_model.text_model.encoder.layers.14.self_attn.k_proj.bias"> : tensor<1280xf16>
  util.global private @_params.text_encoder_model.text_model.encoder.layers.14.self_attn.v_proj.weight {noinline} = #stream.parameter.named<"model"::"text_encoder_model.text_model.encoder.layers.14.self_attn.v_proj.weight"> : tensor<1280x1280xf16>
  util.global private @_params.text_encoder_model.text_model.encoder.layers.14.self_attn.v_proj.bias {noinline} = #stream.parameter.named<"model"::"text_encoder_model.text_model.encoder.layers.14.self_attn.v_proj.bias"> : tensor<1280xf16>
  util.global private @_params.text_encoder_model.text_model.encoder.layers.14.self_attn.q_proj.weight {noinline} = #stream.parameter.named<"model"::"text_encoder_model.text_model.encoder.layers.14.self_attn.q_proj.weight"> : tensor<1280x1280xf16>
  util.global private @_params.text_encoder_model.text_model.encoder.layers.14.self_attn.q_proj.bias {noinline} = #stream.parameter.named<"model"::"text_encoder_model.text_model.encoder.layers.14.self_attn.q_proj.bias"> : tensor<1280xf16>
  util.global private @_params.text_encoder_model.text_model.encoder.layers.14.self_attn.out_proj.weight {noinline} = #stream.parameter.named<"model"::"text_encoder_model.text_model.encoder.layers.14.self_attn.out_proj.weight"> : tensor<1280x1280xf16>
  util.global private @_params.text_encoder_model.text_model.encoder.layers.14.self_attn.out_proj.bias {noinline} = #stream.parameter.named<"model"::"text_encoder_model.text_model.encoder.layers.14.self_attn.out_proj.bias"> : tensor<1280xf16>
  util.global private @_params.text_encoder_model.text_model.encoder.layers.14.layer_norm1.weight {noinline} = #stream.parameter.named<"model"::"text_encoder_model.text_model.encoder.layers.14.layer_norm1.weight"> : tensor<1280xf16>
  util.global private @_params.text_encoder_model.text_model.encoder.layers.14.layer_norm1.bias {noinline} = #stream.parameter.named<"model"::"text_encoder_model.text_model.encoder.layers.14.layer_norm1.bias"> : tensor<1280xf16>
  util.global private @_params.text_encoder_model.text_model.encoder.layers.14.mlp.fc1.weight {noinline} = #stream.parameter.named<"model"::"text_encoder_model.text_model.encoder.layers.14.mlp.fc1.weight"> : tensor<5120x1280xf16>
  util.global private @_params.text_encoder_model.text_model.encoder.layers.14.mlp.fc1.bias {noinline} = #stream.parameter.named<"model"::"text_encoder_model.text_model.encoder.layers.14.mlp.fc1.bias"> : tensor<5120xf16>
  util.global private @_params.text_encoder_model.text_model.encoder.layers.14.mlp.fc2.weight {noinline} = #stream.parameter.named<"model"::"text_encoder_model.text_model.encoder.layers.14.mlp.fc2.weight"> : tensor<1280x5120xf16>
  util.global private @_params.text_encoder_model.text_model.encoder.layers.14.mlp.fc2.bias {noinline} = #stream.parameter.named<"model"::"text_encoder_model.text_model.encoder.layers.14.mlp.fc2.bias"> : tensor<1280xf16>
  util.global private @_params.text_encoder_model.text_model.encoder.layers.14.layer_norm2.weight {noinline} = #stream.parameter.named<"model"::"text_encoder_model.text_model.encoder.layers.14.layer_norm2.weight"> : tensor<1280xf16>
  util.global private @_params.text_encoder_model.text_model.encoder.layers.14.layer_norm2.bias {noinline} = #stream.parameter.named<"model"::"text_encoder_model.text_model.encoder.layers.14.layer_norm2.bias"> : tensor<1280xf16>
  util.global private @_params.text_encoder_model.text_model.encoder.layers.15.self_attn.k_proj.weight {noinline} = #stream.parameter.named<"model"::"text_encoder_model.text_model.encoder.layers.15.self_attn.k_proj.weight"> : tensor<1280x1280xf16>
  util.global private @_params.text_encoder_model.text_model.encoder.layers.15.self_attn.k_proj.bias {noinline} = #stream.parameter.named<"model"::"text_encoder_model.text_model.encoder.layers.15.self_attn.k_proj.bias"> : tensor<1280xf16>
  util.global private @_params.text_encoder_model.text_model.encoder.layers.15.self_attn.v_proj.weight {noinline} = #stream.parameter.named<"model"::"text_encoder_model.text_model.encoder.layers.15.self_attn.v_proj.weight"> : tensor<1280x1280xf16>
  util.global private @_params.text_encoder_model.text_model.encoder.layers.15.self_attn.v_proj.bias {noinline} = #stream.parameter.named<"model"::"text_encoder_model.text_model.encoder.layers.15.self_attn.v_proj.bias"> : tensor<1280xf16>
  util.global private @_params.text_encoder_model.text_model.encoder.layers.15.self_attn.q_proj.weight {noinline} = #stream.parameter.named<"model"::"text_encoder_model.text_model.encoder.layers.15.self_attn.q_proj.weight"> : tensor<1280x1280xf16>
  util.global private @_params.text_encoder_model.text_model.encoder.layers.15.self_attn.q_proj.bias {noinline} = #stream.parameter.named<"model"::"text_encoder_model.text_model.encoder.layers.15.self_attn.q_proj.bias"> : tensor<1280xf16>
  util.global private @_params.text_encoder_model.text_model.encoder.layers.15.self_attn.out_proj.weight {noinline} = #stream.parameter.named<"model"::"text_encoder_model.text_model.encoder.layers.15.self_attn.out_proj.weight"> : tensor<1280x1280xf16>
  util.global private @_params.text_encoder_model.text_model.encoder.layers.15.self_attn.out_proj.bias {noinline} = #stream.parameter.named<"model"::"text_encoder_model.text_model.encoder.layers.15.self_attn.out_proj.bias"> : tensor<1280xf16>
  util.global private @_params.text_encoder_model.text_model.encoder.layers.15.layer_norm1.weight {noinline} = #stream.parameter.named<"model"::"text_encoder_model.text_model.encoder.layers.15.layer_norm1.weight"> : tensor<1280xf16>
  util.global private @_params.text_encoder_model.text_model.encoder.layers.15.layer_norm1.bias {noinline} = #stream.parameter.named<"model"::"text_encoder_model.text_model.encoder.layers.15.layer_norm1.bias"> : tensor<1280xf16>
  util.global private @_params.text_encoder_model.text_model.encoder.layers.15.mlp.fc1.weight {noinline} = #stream.parameter.named<"model"::"text_encoder_model.text_model.encoder.layers.15.mlp.fc1.weight"> : tensor<5120x1280xf16>
  util.global private @_params.text_encoder_model.text_model.encoder.layers.15.mlp.fc1.bias {noinline} = #stream.parameter.named<"model"::"text_encoder_model.text_model.encoder.layers.15.mlp.fc1.bias"> : tensor<5120xf16>
  util.global private @_params.text_encoder_model.text_model.encoder.layers.15.mlp.fc2.weight {noinline} = #stream.parameter.named<"model"::"text_encoder_model.text_model.encoder.layers.15.mlp.fc2.weight"> : tensor<1280x5120xf16>
  util.global private @_params.text_encoder_model.text_model.encoder.layers.15.mlp.fc2.bias {noinline} = #stream.parameter.named<"model"::"text_encoder_model.text_model.encoder.layers.15.mlp.fc2.bias"> : tensor<1280xf16>
  util.global private @_params.text_encoder_model.text_model.encoder.layers.15.layer_norm2.weight {noinline} = #stream.parameter.named<"model"::"text_encoder_model.text_model.encoder.layers.15.layer_norm2.weight"> : tensor<1280xf16>
  util.global private @_params.text_encoder_model.text_model.encoder.layers.15.layer_norm2.bias {noinline} = #stream.parameter.named<"model"::"text_encoder_model.text_model.encoder.layers.15.layer_norm2.bias"> : tensor<1280xf16>
  util.global private @_params.text_encoder_model.text_model.encoder.layers.16.self_attn.k_proj.weight {noinline} = #stream.parameter.named<"model"::"text_encoder_model.text_model.encoder.layers.16.self_attn.k_proj.weight"> : tensor<1280x1280xf16>
  util.global private @_params.text_encoder_model.text_model.encoder.layers.16.self_attn.k_proj.bias {noinline} = #stream.parameter.named<"model"::"text_encoder_model.text_model.encoder.layers.16.self_attn.k_proj.bias"> : tensor<1280xf16>
  util.global private @_params.text_encoder_model.text_model.encoder.layers.16.self_attn.v_proj.weight {noinline} = #stream.parameter.named<"model"::"text_encoder_model.text_model.encoder.layers.16.self_attn.v_proj.weight"> : tensor<1280x1280xf16>
  util.global private @_params.text_encoder_model.text_model.encoder.layers.16.self_attn.v_proj.bias {noinline} = #stream.parameter.named<"model"::"text_encoder_model.text_model.encoder.layers.16.self_attn.v_proj.bias"> : tensor<1280xf16>
  util.global private @_params.text_encoder_model.text_model.encoder.layers.16.self_attn.q_proj.weight {noinline} = #stream.parameter.named<"model"::"text_encoder_model.text_model.encoder.layers.16.self_attn.q_proj.weight"> : tensor<1280x1280xf16>
  util.global private @_params.text_encoder_model.text_model.encoder.layers.16.self_attn.q_proj.bias {noinline} = #stream.parameter.named<"model"::"text_encoder_model.text_model.encoder.layers.16.self_attn.q_proj.bias"> : tensor<1280xf16>
  util.global private @_params.text_encoder_model.text_model.encoder.layers.16.self_attn.out_proj.weight {noinline} = #stream.parameter.named<"model"::"text_encoder_model.text_model.encoder.layers.16.self_attn.out_proj.weight"> : tensor<1280x1280xf16>
  util.global private @_params.text_encoder_model.text_model.encoder.layers.16.self_attn.out_proj.bias {noinline} = #stream.parameter.named<"model"::"text_encoder_model.text_model.encoder.layers.16.self_attn.out_proj.bias"> : tensor<1280xf16>
  util.global private @_params.text_encoder_model.text_model.encoder.layers.16.layer_norm1.weight {noinline} = #stream.parameter.named<"model"::"text_encoder_model.text_model.encoder.layers.16.layer_norm1.weight"> : tensor<1280xf16>
  util.global private @_params.text_encoder_model.text_model.encoder.layers.16.layer_norm1.bias {noinline} = #stream.parameter.named<"model"::"text_encoder_model.text_model.encoder.layers.16.layer_norm1.bias"> : tensor<1280xf16>
  util.global private @_params.text_encoder_model.text_model.encoder.layers.16.mlp.fc1.weight {noinline} = #stream.parameter.named<"model"::"text_encoder_model.text_model.encoder.layers.16.mlp.fc1.weight"> : tensor<5120x1280xf16>
  util.global private @_params.text_encoder_model.text_model.encoder.layers.16.mlp.fc1.bias {noinline} = #stream.parameter.named<"model"::"text_encoder_model.text_model.encoder.layers.16.mlp.fc1.bias"> : tensor<5120xf16>
  util.global private @_params.text_encoder_model.text_model.encoder.layers.16.mlp.fc2.weight {noinline} = #stream.parameter.named<"model"::"text_encoder_model.text_model.encoder.layers.16.mlp.fc2.weight"> : tensor<1280x5120xf16>
  util.global private @_params.text_encoder_model.text_model.encoder.layers.16.mlp.fc2.bias {noinline} = #stream.parameter.named<"model"::"text_encoder_model.text_model.encoder.layers.16.mlp.fc2.bias"> : tensor<1280xf16>
  util.global private @_params.text_encoder_model.text_model.encoder.layers.16.layer_norm2.weight {noinline} = #stream.parameter.named<"model"::"text_encoder_model.text_model.encoder.layers.16.layer_norm2.weight"> : tensor<1280xf16>
  util.global private @_params.text_encoder_model.text_model.encoder.layers.16.layer_norm2.bias {noinline} = #stream.parameter.named<"model"::"text_encoder_model.text_model.encoder.layers.16.layer_norm2.bias"> : tensor<1280xf16>
  util.global private @_params.text_encoder_model.text_model.encoder.layers.17.self_attn.k_proj.weight {noinline} = #stream.parameter.named<"model"::"text_encoder_model.text_model.encoder.layers.17.self_attn.k_proj.weight"> : tensor<1280x1280xf16>
  util.global private @_params.text_encoder_model.text_model.encoder.layers.17.self_attn.k_proj.bias {noinline} = #stream.parameter.named<"model"::"text_encoder_model.text_model.encoder.layers.17.self_attn.k_proj.bias"> : tensor<1280xf16>
  util.global private @_params.text_encoder_model.text_model.encoder.layers.17.self_attn.v_proj.weight {noinline} = #stream.parameter.named<"model"::"text_encoder_model.text_model.encoder.layers.17.self_attn.v_proj.weight"> : tensor<1280x1280xf16>
  util.global private @_params.text_encoder_model.text_model.encoder.layers.17.self_attn.v_proj.bias {noinline} = #stream.parameter.named<"model"::"text_encoder_model.text_model.encoder.layers.17.self_attn.v_proj.bias"> : tensor<1280xf16>
  util.global private @_params.text_encoder_model.text_model.encoder.layers.17.self_attn.q_proj.weight {noinline} = #stream.parameter.named<"model"::"text_encoder_model.text_model.encoder.layers.17.self_attn.q_proj.weight"> : tensor<1280x1280xf16>
  util.global private @_params.text_encoder_model.text_model.encoder.layers.17.self_attn.q_proj.bias {noinline} = #stream.parameter.named<"model"::"text_encoder_model.text_model.encoder.layers.17.self_attn.q_proj.bias"> : tensor<1280xf16>
  util.global private @_params.text_encoder_model.text_model.encoder.layers.17.self_attn.out_proj.weight {noinline} = #stream.parameter.named<"model"::"text_encoder_model.text_model.encoder.layers.17.self_attn.out_proj.weight"> : tensor<1280x1280xf16>
  util.global private @_params.text_encoder_model.text_model.encoder.layers.17.self_attn.out_proj.bias {noinline} = #stream.parameter.named<"model"::"text_encoder_model.text_model.encoder.layers.17.self_attn.out_proj.bias"> : tensor<1280xf16>
  util.global private @_params.text_encoder_model.text_model.encoder.layers.17.layer_norm1.weight {noinline} = #stream.parameter.named<"model"::"text_encoder_model.text_model.encoder.layers.17.layer_norm1.weight"> : tensor<1280xf16>
  util.global private @_params.text_encoder_model.text_model.encoder.layers.17.layer_norm1.bias {noinline} = #stream.parameter.named<"model"::"text_encoder_model.text_model.encoder.layers.17.layer_norm1.bias"> : tensor<1280xf16>
  util.global private @_params.text_encoder_model.text_model.encoder.layers.17.mlp.fc1.weight {noinline} = #stream.parameter.named<"model"::"text_encoder_model.text_model.encoder.layers.17.mlp.fc1.weight"> : tensor<5120x1280xf16>
  util.global private @_params.text_encoder_model.text_model.encoder.layers.17.mlp.fc1.bias {noinline} = #stream.parameter.named<"model"::"text_encoder_model.text_model.encoder.layers.17.mlp.fc1.bias"> : tensor<5120xf16>
  util.global private @_params.text_encoder_model.text_model.encoder.layers.17.mlp.fc2.weight {noinline} = #stream.parameter.named<"model"::"text_encoder_model.text_model.encoder.layers.17.mlp.fc2.weight"> : tensor<1280x5120xf16>
  util.global private @_params.text_encoder_model.text_model.encoder.layers.17.mlp.fc2.bias {noinline} = #stream.parameter.named<"model"::"text_encoder_model.text_model.encoder.layers.17.mlp.fc2.bias"> : tensor<1280xf16>
  util.global private @_params.text_encoder_model.text_model.encoder.layers.17.layer_norm2.weight {noinline} = #stream.parameter.named<"model"::"text_encoder_model.text_model.encoder.layers.17.layer_norm2.weight"> : tensor<1280xf16>
  util.global private @_params.text_encoder_model.text_model.encoder.layers.17.layer_norm2.bias {noinline} = #stream.parameter.named<"model"::"text_encoder_model.text_model.encoder.layers.17.layer_norm2.bias"> : tensor<1280xf16>
  util.global private @_params.text_encoder_model.text_model.encoder.layers.18.self_attn.k_proj.weight {noinline} = #stream.parameter.named<"model"::"text_encoder_model.text_model.encoder.layers.18.self_attn.k_proj.weight"> : tensor<1280x1280xf16>
  util.global private @_params.text_encoder_model.text_model.encoder.layers.18.self_attn.k_proj.bias {noinline} = #stream.parameter.named<"model"::"text_encoder_model.text_model.encoder.layers.18.self_attn.k_proj.bias"> : tensor<1280xf16>
  util.global private @_params.text_encoder_model.text_model.encoder.layers.18.self_attn.v_proj.weight {noinline} = #stream.parameter.named<"model"::"text_encoder_model.text_model.encoder.layers.18.self_attn.v_proj.weight"> : tensor<1280x1280xf16>
  util.global private @_params.text_encoder_model.text_model.encoder.layers.18.self_attn.v_proj.bias {noinline} = #stream.parameter.named<"model"::"text_encoder_model.text_model.encoder.layers.18.self_attn.v_proj.bias"> : tensor<1280xf16>
  util.global private @_params.text_encoder_model.text_model.encoder.layers.18.self_attn.q_proj.weight {noinline} = #stream.parameter.named<"model"::"text_encoder_model.text_model.encoder.layers.18.self_attn.q_proj.weight"> : tensor<1280x1280xf16>
  util.global private @_params.text_encoder_model.text_model.encoder.layers.18.self_attn.q_proj.bias {noinline} = #stream.parameter.named<"model"::"text_encoder_model.text_model.encoder.layers.18.self_attn.q_proj.bias"> : tensor<1280xf16>
  util.global private @_params.text_encoder_model.text_model.encoder.layers.18.self_attn.out_proj.weight {noinline} = #stream.parameter.named<"model"::"text_encoder_model.text_model.encoder.layers.18.self_attn.out_proj.weight"> : tensor<1280x1280xf16>
  util.global private @_params.text_encoder_model.text_model.encoder.layers.18.self_attn.out_proj.bias {noinline} = #stream.parameter.named<"model"::"text_encoder_model.text_model.encoder.layers.18.self_attn.out_proj.bias"> : tensor<1280xf16>
  util.global private @_params.text_encoder_model.text_model.encoder.layers.18.layer_norm1.weight {noinline} = #stream.parameter.named<"model"::"text_encoder_model.text_model.encoder.layers.18.layer_norm1.weight"> : tensor<1280xf16>
  util.global private @_params.text_encoder_model.text_model.encoder.layers.18.layer_norm1.bias {noinline} = #stream.parameter.named<"model"::"text_encoder_model.text_model.encoder.layers.18.layer_norm1.bias"> : tensor<1280xf16>
  util.global private @_params.text_encoder_model.text_model.encoder.layers.18.mlp.fc1.weight {noinline} = #stream.parameter.named<"model"::"text_encoder_model.text_model.encoder.layers.18.mlp.fc1.weight"> : tensor<5120x1280xf16>
  util.global private @_params.text_encoder_model.text_model.encoder.layers.18.mlp.fc1.bias {noinline} = #stream.parameter.named<"model"::"text_encoder_model.text_model.encoder.layers.18.mlp.fc1.bias"> : tensor<5120xf16>
  util.global private @_params.text_encoder_model.text_model.encoder.layers.18.mlp.fc2.weight {noinline} = #stream.parameter.named<"model"::"text_encoder_model.text_model.encoder.layers.18.mlp.fc2.weight"> : tensor<1280x5120xf16>
  util.global private @_params.text_encoder_model.text_model.encoder.layers.18.mlp.fc2.bias {noinline} = #stream.parameter.named<"model"::"text_encoder_model.text_model.encoder.layers.18.mlp.fc2.bias"> : tensor<1280xf16>
  util.global private @_params.text_encoder_model.text_model.encoder.layers.18.layer_norm2.weight {noinline} = #stream.parameter.named<"model"::"text_encoder_model.text_model.encoder.layers.18.layer_norm2.weight"> : tensor<1280xf16>
  util.global private @_params.text_encoder_model.text_model.encoder.layers.18.layer_norm2.bias {noinline} = #stream.parameter.named<"model"::"text_encoder_model.text_model.encoder.layers.18.layer_norm2.bias"> : tensor<1280xf16>
  util.global private @_params.text_encoder_model.text_model.encoder.layers.19.self_attn.k_proj.weight {noinline} = #stream.parameter.named<"model"::"text_encoder_model.text_model.encoder.layers.19.self_attn.k_proj.weight"> : tensor<1280x1280xf16>
  util.global private @_params.text_encoder_model.text_model.encoder.layers.19.self_attn.k_proj.bias {noinline} = #stream.parameter.named<"model"::"text_encoder_model.text_model.encoder.layers.19.self_attn.k_proj.bias"> : tensor<1280xf16>
  util.global private @_params.text_encoder_model.text_model.encoder.layers.19.self_attn.v_proj.weight {noinline} = #stream.parameter.named<"model"::"text_encoder_model.text_model.encoder.layers.19.self_attn.v_proj.weight"> : tensor<1280x1280xf16>
  util.global private @_params.text_encoder_model.text_model.encoder.layers.19.self_attn.v_proj.bias {noinline} = #stream.parameter.named<"model"::"text_encoder_model.text_model.encoder.layers.19.self_attn.v_proj.bias"> : tensor<1280xf16>
  util.global private @_params.text_encoder_model.text_model.encoder.layers.19.self_attn.q_proj.weight {noinline} = #stream.parameter.named<"model"::"text_encoder_model.text_model.encoder.layers.19.self_attn.q_proj.weight"> : tensor<1280x1280xf16>
  util.global private @_params.text_encoder_model.text_model.encoder.layers.19.self_attn.q_proj.bias {noinline} = #stream.parameter.named<"model"::"text_encoder_model.text_model.encoder.layers.19.self_attn.q_proj.bias"> : tensor<1280xf16>
  util.global private @_params.text_encoder_model.text_model.encoder.layers.19.self_attn.out_proj.weight {noinline} = #stream.parameter.named<"model"::"text_encoder_model.text_model.encoder.layers.19.self_attn.out_proj.weight"> : tensor<1280x1280xf16>
  util.global private @_params.text_encoder_model.text_model.encoder.layers.19.self_attn.out_proj.bias {noinline} = #stream.parameter.named<"model"::"text_encoder_model.text_model.encoder.layers.19.self_attn.out_proj.bias"> : tensor<1280xf16>
  util.global private @_params.text_encoder_model.text_model.encoder.layers.19.layer_norm1.weight {noinline} = #stream.parameter.named<"model"::"text_encoder_model.text_model.encoder.layers.19.layer_norm1.weight"> : tensor<1280xf16>
  util.global private @_params.text_encoder_model.text_model.encoder.layers.19.layer_norm1.bias {noinline} = #stream.parameter.named<"model"::"text_encoder_model.text_model.encoder.layers.19.layer_norm1.bias"> : tensor<1280xf16>
  util.global private @_params.text_encoder_model.text_model.encoder.layers.19.mlp.fc1.weight {noinline} = #stream.parameter.named<"model"::"text_encoder_model.text_model.encoder.layers.19.mlp.fc1.weight"> : tensor<5120x1280xf16>
  util.global private @_params.text_encoder_model.text_model.encoder.layers.19.mlp.fc1.bias {noinline} = #stream.parameter.named<"model"::"text_encoder_model.text_model.encoder.layers.19.mlp.fc1.bias"> : tensor<5120xf16>
  util.global private @_params.text_encoder_model.text_model.encoder.layers.19.mlp.fc2.weight {noinline} = #stream.parameter.named<"model"::"text_encoder_model.text_model.encoder.layers.19.mlp.fc2.weight"> : tensor<1280x5120xf16>
  util.global private @_params.text_encoder_model.text_model.encoder.layers.19.mlp.fc2.bias {noinline} = #stream.parameter.named<"model"::"text_encoder_model.text_model.encoder.layers.19.mlp.fc2.bias"> : tensor<1280xf16>
  util.global private @_params.text_encoder_model.text_model.encoder.layers.19.layer_norm2.weight {noinline} = #stream.parameter.named<"model"::"text_encoder_model.text_model.encoder.layers.19.layer_norm2.weight"> : tensor<1280xf16>
  util.global private @_params.text_encoder_model.text_model.encoder.layers.19.layer_norm2.bias {noinline} = #stream.parameter.named<"model"::"text_encoder_model.text_model.encoder.layers.19.layer_norm2.bias"> : tensor<1280xf16>
  util.global private @_params.text_encoder_model.text_model.encoder.layers.20.self_attn.k_proj.weight {noinline} = #stream.parameter.named<"model"::"text_encoder_model.text_model.encoder.layers.20.self_attn.k_proj.weight"> : tensor<1280x1280xf16>
  util.global private @_params.text_encoder_model.text_model.encoder.layers.20.self_attn.k_proj.bias {noinline} = #stream.parameter.named<"model"::"text_encoder_model.text_model.encoder.layers.20.self_attn.k_proj.bias"> : tensor<1280xf16>
  util.global private @_params.text_encoder_model.text_model.encoder.layers.20.self_attn.v_proj.weight {noinline} = #stream.parameter.named<"model"::"text_encoder_model.text_model.encoder.layers.20.self_attn.v_proj.weight"> : tensor<1280x1280xf16>
  util.global private @_params.text_encoder_model.text_model.encoder.layers.20.self_attn.v_proj.bias {noinline} = #stream.parameter.named<"model"::"text_encoder_model.text_model.encoder.layers.20.self_attn.v_proj.bias"> : tensor<1280xf16>
  util.global private @_params.text_encoder_model.text_model.encoder.layers.20.self_attn.q_proj.weight {noinline} = #stream.parameter.named<"model"::"text_encoder_model.text_model.encoder.layers.20.self_attn.q_proj.weight"> : tensor<1280x1280xf16>
  util.global private @_params.text_encoder_model.text_model.encoder.layers.20.self_attn.q_proj.bias {noinline} = #stream.parameter.named<"model"::"text_encoder_model.text_model.encoder.layers.20.self_attn.q_proj.bias"> : tensor<1280xf16>
  util.global private @_params.text_encoder_model.text_model.encoder.layers.20.self_attn.out_proj.weight {noinline} = #stream.parameter.named<"model"::"text_encoder_model.text_model.encoder.layers.20.self_attn.out_proj.weight"> : tensor<1280x1280xf16>
  util.global private @_params.text_encoder_model.text_model.encoder.layers.20.self_attn.out_proj.bias {noinline} = #stream.parameter.named<"model"::"text_encoder_model.text_model.encoder.layers.20.self_attn.out_proj.bias"> : tensor<1280xf16>
  util.global private @_params.text_encoder_model.text_model.encoder.layers.20.layer_norm1.weight {noinline} = #stream.parameter.named<"model"::"text_encoder_model.text_model.encoder.layers.20.layer_norm1.weight"> : tensor<1280xf16>
  util.global private @_params.text_encoder_model.text_model.encoder.layers.20.layer_norm1.bias {noinline} = #stream.parameter.named<"model"::"text_encoder_model.text_model.encoder.layers.20.layer_norm1.bias"> : tensor<1280xf16>
  util.global private @_params.text_encoder_model.text_model.encoder.layers.20.mlp.fc1.weight {noinline} = #stream.parameter.named<"model"::"text_encoder_model.text_model.encoder.layers.20.mlp.fc1.weight"> : tensor<5120x1280xf16>
  util.global private @_params.text_encoder_model.text_model.encoder.layers.20.mlp.fc1.bias {noinline} = #stream.parameter.named<"model"::"text_encoder_model.text_model.encoder.layers.20.mlp.fc1.bias"> : tensor<5120xf16>
  util.global private @_params.text_encoder_model.text_model.encoder.layers.20.mlp.fc2.weight {noinline} = #stream.parameter.named<"model"::"text_encoder_model.text_model.encoder.layers.20.mlp.fc2.weight"> : tensor<1280x5120xf16>
  util.global private @_params.text_encoder_model.text_model.encoder.layers.20.mlp.fc2.bias {noinline} = #stream.parameter.named<"model"::"text_encoder_model.text_model.encoder.layers.20.mlp.fc2.bias"> : tensor<1280xf16>
  util.global private @_params.text_encoder_model.text_model.encoder.layers.20.layer_norm2.weight {noinline} = #stream.parameter.named<"model"::"text_encoder_model.text_model.encoder.layers.20.layer_norm2.weight"> : tensor<1280xf16>
  util.global private @_params.text_encoder_model.text_model.encoder.layers.20.layer_norm2.bias {noinline} = #stream.parameter.named<"model"::"text_encoder_model.text_model.encoder.layers.20.layer_norm2.bias"> : tensor<1280xf16>
  util.global private @_params.text_encoder_model.text_model.encoder.layers.21.self_attn.k_proj.weight {noinline} = #stream.parameter.named<"model"::"text_encoder_model.text_model.encoder.layers.21.self_attn.k_proj.weight"> : tensor<1280x1280xf16>
  util.global private @_params.text_encoder_model.text_model.encoder.layers.21.self_attn.k_proj.bias {noinline} = #stream.parameter.named<"model"::"text_encoder_model.text_model.encoder.layers.21.self_attn.k_proj.bias"> : tensor<1280xf16>
  util.global private @_params.text_encoder_model.text_model.encoder.layers.21.self_attn.v_proj.weight {noinline} = #stream.parameter.named<"model"::"text_encoder_model.text_model.encoder.layers.21.self_attn.v_proj.weight"> : tensor<1280x1280xf16>
  util.global private @_params.text_encoder_model.text_model.encoder.layers.21.self_attn.v_proj.bias {noinline} = #stream.parameter.named<"model"::"text_encoder_model.text_model.encoder.layers.21.self_attn.v_proj.bias"> : tensor<1280xf16>
  util.global private @_params.text_encoder_model.text_model.encoder.layers.21.self_attn.q_proj.weight {noinline} = #stream.parameter.named<"model"::"text_encoder_model.text_model.encoder.layers.21.self_attn.q_proj.weight"> : tensor<1280x1280xf16>
  util.global private @_params.text_encoder_model.text_model.encoder.layers.21.self_attn.q_proj.bias {noinline} = #stream.parameter.named<"model"::"text_encoder_model.text_model.encoder.layers.21.self_attn.q_proj.bias"> : tensor<1280xf16>
  util.global private @_params.text_encoder_model.text_model.encoder.layers.21.self_attn.out_proj.weight {noinline} = #stream.parameter.named<"model"::"text_encoder_model.text_model.encoder.layers.21.self_attn.out_proj.weight"> : tensor<1280x1280xf16>
  util.global private @_params.text_encoder_model.text_model.encoder.layers.21.self_attn.out_proj.bias {noinline} = #stream.parameter.named<"model"::"text_encoder_model.text_model.encoder.layers.21.self_attn.out_proj.bias"> : tensor<1280xf16>
  util.global private @_params.text_encoder_model.text_model.encoder.layers.21.layer_norm1.weight {noinline} = #stream.parameter.named<"model"::"text_encoder_model.text_model.encoder.layers.21.layer_norm1.weight"> : tensor<1280xf16>
  util.global private @_params.text_encoder_model.text_model.encoder.layers.21.layer_norm1.bias {noinline} = #stream.parameter.named<"model"::"text_encoder_model.text_model.encoder.layers.21.layer_norm1.bias"> : tensor<1280xf16>
  util.global private @_params.text_encoder_model.text_model.encoder.layers.21.mlp.fc1.weight {noinline} = #stream.parameter.named<"model"::"text_encoder_model.text_model.encoder.layers.21.mlp.fc1.weight"> : tensor<5120x1280xf16>
  util.global private @_params.text_encoder_model.text_model.encoder.layers.21.mlp.fc1.bias {noinline} = #stream.parameter.named<"model"::"text_encoder_model.text_model.encoder.layers.21.mlp.fc1.bias"> : tensor<5120xf16>
  util.global private @_params.text_encoder_model.text_model.encoder.layers.21.mlp.fc2.weight {noinline} = #stream.parameter.named<"model"::"text_encoder_model.text_model.encoder.layers.21.mlp.fc2.weight"> : tensor<1280x5120xf16>
  util.global private @_params.text_encoder_model.text_model.encoder.layers.21.mlp.fc2.bias {noinline} = #stream.parameter.named<"model"::"text_encoder_model.text_model.encoder.layers.21.mlp.fc2.bias"> : tensor<1280xf16>
  util.global private @_params.text_encoder_model.text_model.encoder.layers.21.layer_norm2.weight {noinline} = #stream.parameter.named<"model"::"text_encoder_model.text_model.encoder.layers.21.layer_norm2.weight"> : tensor<1280xf16>
  util.global private @_params.text_encoder_model.text_model.encoder.layers.21.layer_norm2.bias {noinline} = #stream.parameter.named<"model"::"text_encoder_model.text_model.encoder.layers.21.layer_norm2.bias"> : tensor<1280xf16>
  util.global private @_params.text_encoder_model.text_model.encoder.layers.22.self_attn.k_proj.weight {noinline} = #stream.parameter.named<"model"::"text_encoder_model.text_model.encoder.layers.22.self_attn.k_proj.weight"> : tensor<1280x1280xf16>
  util.global private @_params.text_encoder_model.text_model.encoder.layers.22.self_attn.k_proj.bias {noinline} = #stream.parameter.named<"model"::"text_encoder_model.text_model.encoder.layers.22.self_attn.k_proj.bias"> : tensor<1280xf16>
  util.global private @_params.text_encoder_model.text_model.encoder.layers.22.self_attn.v_proj.weight {noinline} = #stream.parameter.named<"model"::"text_encoder_model.text_model.encoder.layers.22.self_attn.v_proj.weight"> : tensor<1280x1280xf16>
  util.global private @_params.text_encoder_model.text_model.encoder.layers.22.self_attn.v_proj.bias {noinline} = #stream.parameter.named<"model"::"text_encoder_model.text_model.encoder.layers.22.self_attn.v_proj.bias"> : tensor<1280xf16>
  util.global private @_params.text_encoder_model.text_model.encoder.layers.22.self_attn.q_proj.weight {noinline} = #stream.parameter.named<"model"::"text_encoder_model.text_model.encoder.layers.22.self_attn.q_proj.weight"> : tensor<1280x1280xf16>
  util.global private @_params.text_encoder_model.text_model.encoder.layers.22.self_attn.q_proj.bias {noinline} = #stream.parameter.named<"model"::"text_encoder_model.text_model.encoder.layers.22.self_attn.q_proj.bias"> : tensor<1280xf16>
  util.global private @_params.text_encoder_model.text_model.encoder.layers.22.self_attn.out_proj.weight {noinline} = #stream.parameter.named<"model"::"text_encoder_model.text_model.encoder.layers.22.self_attn.out_proj.weight"> : tensor<1280x1280xf16>
  util.global private @_params.text_encoder_model.text_model.encoder.layers.22.self_attn.out_proj.bias {noinline} = #stream.parameter.named<"model"::"text_encoder_model.text_model.encoder.layers.22.self_attn.out_proj.bias"> : tensor<1280xf16>
  util.global private @_params.text_encoder_model.text_model.encoder.layers.22.layer_norm1.weight {noinline} = #stream.parameter.named<"model"::"text_encoder_model.text_model.encoder.layers.22.layer_norm1.weight"> : tensor<1280xf16>
  util.global private @_params.text_encoder_model.text_model.encoder.layers.22.layer_norm1.bias {noinline} = #stream.parameter.named<"model"::"text_encoder_model.text_model.encoder.layers.22.layer_norm1.bias"> : tensor<1280xf16>
  util.global private @_params.text_encoder_model.text_model.encoder.layers.22.mlp.fc1.weight {noinline} = #stream.parameter.named<"model"::"text_encoder_model.text_model.encoder.layers.22.mlp.fc1.weight"> : tensor<5120x1280xf16>
  util.global private @_params.text_encoder_model.text_model.encoder.layers.22.mlp.fc1.bias {noinline} = #stream.parameter.named<"model"::"text_encoder_model.text_model.encoder.layers.22.mlp.fc1.bias"> : tensor<5120xf16>
  util.global private @_params.text_encoder_model.text_model.encoder.layers.22.mlp.fc2.weight {noinline} = #stream.parameter.named<"model"::"text_encoder_model.text_model.encoder.layers.22.mlp.fc2.weight"> : tensor<1280x5120xf16>
  util.global private @_params.text_encoder_model.text_model.encoder.layers.22.mlp.fc2.bias {noinline} = #stream.parameter.named<"model"::"text_encoder_model.text_model.encoder.layers.22.mlp.fc2.bias"> : tensor<1280xf16>
  util.global private @_params.text_encoder_model.text_model.encoder.layers.22.layer_norm2.weight {noinline} = #stream.parameter.named<"model"::"text_encoder_model.text_model.encoder.layers.22.layer_norm2.weight"> : tensor<1280xf16>
  util.global private @_params.text_encoder_model.text_model.encoder.layers.22.layer_norm2.bias {noinline} = #stream.parameter.named<"model"::"text_encoder_model.text_model.encoder.layers.22.layer_norm2.bias"> : tensor<1280xf16>
  util.global private @_params.text_encoder_model.text_model.encoder.layers.23.self_attn.k_proj.weight {noinline} = #stream.parameter.named<"model"::"text_encoder_model.text_model.encoder.layers.23.self_attn.k_proj.weight"> : tensor<1280x1280xf16>
  util.global private @_params.text_encoder_model.text_model.encoder.layers.23.self_attn.k_proj.bias {noinline} = #stream.parameter.named<"model"::"text_encoder_model.text_model.encoder.layers.23.self_attn.k_proj.bias"> : tensor<1280xf16>
  util.global private @_params.text_encoder_model.text_model.encoder.layers.23.self_attn.v_proj.weight {noinline} = #stream.parameter.named<"model"::"text_encoder_model.text_model.encoder.layers.23.self_attn.v_proj.weight"> : tensor<1280x1280xf16>
  util.global private @_params.text_encoder_model.text_model.encoder.layers.23.self_attn.v_proj.bias {noinline} = #stream.parameter.named<"model"::"text_encoder_model.text_model.encoder.layers.23.self_attn.v_proj.bias"> : tensor<1280xf16>
  util.global private @_params.text_encoder_model.text_model.encoder.layers.23.self_attn.q_proj.weight {noinline} = #stream.parameter.named<"model"::"text_encoder_model.text_model.encoder.layers.23.self_attn.q_proj.weight"> : tensor<1280x1280xf16>
  util.global private @_params.text_encoder_model.text_model.encoder.layers.23.self_attn.q_proj.bias {noinline} = #stream.parameter.named<"model"::"text_encoder_model.text_model.encoder.layers.23.self_attn.q_proj.bias"> : tensor<1280xf16>
  util.global private @_params.text_encoder_model.text_model.encoder.layers.23.self_attn.out_proj.weight {noinline} = #stream.parameter.named<"model"::"text_encoder_model.text_model.encoder.layers.23.self_attn.out_proj.weight"> : tensor<1280x1280xf16>
  util.global private @_params.text_encoder_model.text_model.encoder.layers.23.self_attn.out_proj.bias {noinline} = #stream.parameter.named<"model"::"text_encoder_model.text_model.encoder.layers.23.self_attn.out_proj.bias"> : tensor<1280xf16>
  util.global private @_params.text_encoder_model.text_model.encoder.layers.23.layer_norm1.weight {noinline} = #stream.parameter.named<"model"::"text_encoder_model.text_model.encoder.layers.23.layer_norm1.weight"> : tensor<1280xf16>
  util.global private @_params.text_encoder_model.text_model.encoder.layers.23.layer_norm1.bias {noinline} = #stream.parameter.named<"model"::"text_encoder_model.text_model.encoder.layers.23.layer_norm1.bias"> : tensor<1280xf16>
  util.global private @_params.text_encoder_model.text_model.encoder.layers.23.mlp.fc1.weight {noinline} = #stream.parameter.named<"model"::"text_encoder_model.text_model.encoder.layers.23.mlp.fc1.weight"> : tensor<5120x1280xf16>
  util.global private @_params.text_encoder_model.text_model.encoder.layers.23.mlp.fc1.bias {noinline} = #stream.parameter.named<"model"::"text_encoder_model.text_model.encoder.layers.23.mlp.fc1.bias"> : tensor<5120xf16>
  util.global private @_params.text_encoder_model.text_model.encoder.layers.23.mlp.fc2.weight {noinline} = #stream.parameter.named<"model"::"text_encoder_model.text_model.encoder.layers.23.mlp.fc2.weight"> : tensor<1280x5120xf16>
  util.global private @_params.text_encoder_model.text_model.encoder.layers.23.mlp.fc2.bias {noinline} = #stream.parameter.named<"model"::"text_encoder_model.text_model.encoder.layers.23.mlp.fc2.bias"> : tensor<1280xf16>
  util.global private @_params.text_encoder_model.text_model.encoder.layers.23.layer_norm2.weight {noinline} = #stream.parameter.named<"model"::"text_encoder_model.text_model.encoder.layers.23.layer_norm2.weight"> : tensor<1280xf16>
  util.global private @_params.text_encoder_model.text_model.encoder.layers.23.layer_norm2.bias {noinline} = #stream.parameter.named<"model"::"text_encoder_model.text_model.encoder.layers.23.layer_norm2.bias"> : tensor<1280xf16>
  util.global private @_params.text_encoder_model.text_model.encoder.layers.24.self_attn.k_proj.weight {noinline} = #stream.parameter.named<"model"::"text_encoder_model.text_model.encoder.layers.24.self_attn.k_proj.weight"> : tensor<1280x1280xf16>
  util.global private @_params.text_encoder_model.text_model.encoder.layers.24.self_attn.k_proj.bias {noinline} = #stream.parameter.named<"model"::"text_encoder_model.text_model.encoder.layers.24.self_attn.k_proj.bias"> : tensor<1280xf16>
  util.global private @_params.text_encoder_model.text_model.encoder.layers.24.self_attn.v_proj.weight {noinline} = #stream.parameter.named<"model"::"text_encoder_model.text_model.encoder.layers.24.self_attn.v_proj.weight"> : tensor<1280x1280xf16>
  util.global private @_params.text_encoder_model.text_model.encoder.layers.24.self_attn.v_proj.bias {noinline} = #stream.parameter.named<"model"::"text_encoder_model.text_model.encoder.layers.24.self_attn.v_proj.bias"> : tensor<1280xf16>
  util.global private @_params.text_encoder_model.text_model.encoder.layers.24.self_attn.q_proj.weight {noinline} = #stream.parameter.named<"model"::"text_encoder_model.text_model.encoder.layers.24.self_attn.q_proj.weight"> : tensor<1280x1280xf16>
  util.global private @_params.text_encoder_model.text_model.encoder.layers.24.self_attn.q_proj.bias {noinline} = #stream.parameter.named<"model"::"text_encoder_model.text_model.encoder.layers.24.self_attn.q_proj.bias"> : tensor<1280xf16>
  util.global private @_params.text_encoder_model.text_model.encoder.layers.24.self_attn.out_proj.weight {noinline} = #stream.parameter.named<"model"::"text_encoder_model.text_model.encoder.layers.24.self_attn.out_proj.weight"> : tensor<1280x1280xf16>
  util.global private @_params.text_encoder_model.text_model.encoder.layers.24.self_attn.out_proj.bias {noinline} = #stream.parameter.named<"model"::"text_encoder_model.text_model.encoder.layers.24.self_attn.out_proj.bias"> : tensor<1280xf16>
  util.global private @_params.text_encoder_model.text_model.encoder.layers.24.layer_norm1.weight {noinline} = #stream.parameter.named<"model"::"text_encoder_model.text_model.encoder.layers.24.layer_norm1.weight"> : tensor<1280xf16>
  util.global private @_params.text_encoder_model.text_model.encoder.layers.24.layer_norm1.bias {noinline} = #stream.parameter.named<"model"::"text_encoder_model.text_model.encoder.layers.24.layer_norm1.bias"> : tensor<1280xf16>
  util.global private @_params.text_encoder_model.text_model.encoder.layers.24.mlp.fc1.weight {noinline} = #stream.parameter.named<"model"::"text_encoder_model.text_model.encoder.layers.24.mlp.fc1.weight"> : tensor<5120x1280xf16>
  util.global private @_params.text_encoder_model.text_model.encoder.layers.24.mlp.fc1.bias {noinline} = #stream.parameter.named<"model"::"text_encoder_model.text_model.encoder.layers.24.mlp.fc1.bias"> : tensor<5120xf16>
  util.global private @_params.text_encoder_model.text_model.encoder.layers.24.mlp.fc2.weight {noinline} = #stream.parameter.named<"model"::"text_encoder_model.text_model.encoder.layers.24.mlp.fc2.weight"> : tensor<1280x5120xf16>
  util.global private @_params.text_encoder_model.text_model.encoder.layers.24.mlp.fc2.bias {noinline} = #stream.parameter.named<"model"::"text_encoder_model.text_model.encoder.layers.24.mlp.fc2.bias"> : tensor<1280xf16>
  util.global private @_params.text_encoder_model.text_model.encoder.layers.24.layer_norm2.weight {noinline} = #stream.parameter.named<"model"::"text_encoder_model.text_model.encoder.layers.24.layer_norm2.weight"> : tensor<1280xf16>
  util.global private @_params.text_encoder_model.text_model.encoder.layers.24.layer_norm2.bias {noinline} = #stream.parameter.named<"model"::"text_encoder_model.text_model.encoder.layers.24.layer_norm2.bias"> : tensor<1280xf16>
  util.global private @_params.text_encoder_model.text_model.encoder.layers.25.self_attn.k_proj.weight {noinline} = #stream.parameter.named<"model"::"text_encoder_model.text_model.encoder.layers.25.self_attn.k_proj.weight"> : tensor<1280x1280xf16>
  util.global private @_params.text_encoder_model.text_model.encoder.layers.25.self_attn.k_proj.bias {noinline} = #stream.parameter.named<"model"::"text_encoder_model.text_model.encoder.layers.25.self_attn.k_proj.bias"> : tensor<1280xf16>
  util.global private @_params.text_encoder_model.text_model.encoder.layers.25.self_attn.v_proj.weight {noinline} = #stream.parameter.named<"model"::"text_encoder_model.text_model.encoder.layers.25.self_attn.v_proj.weight"> : tensor<1280x1280xf16>
  util.global private @_params.text_encoder_model.text_model.encoder.layers.25.self_attn.v_proj.bias {noinline} = #stream.parameter.named<"model"::"text_encoder_model.text_model.encoder.layers.25.self_attn.v_proj.bias"> : tensor<1280xf16>
  util.global private @_params.text_encoder_model.text_model.encoder.layers.25.self_attn.q_proj.weight {noinline} = #stream.parameter.named<"model"::"text_encoder_model.text_model.encoder.layers.25.self_attn.q_proj.weight"> : tensor<1280x1280xf16>
  util.global private @_params.text_encoder_model.text_model.encoder.layers.25.self_attn.q_proj.bias {noinline} = #stream.parameter.named<"model"::"text_encoder_model.text_model.encoder.layers.25.self_attn.q_proj.bias"> : tensor<1280xf16>
  util.global private @_params.text_encoder_model.text_model.encoder.layers.25.self_attn.out_proj.weight {noinline} = #stream.parameter.named<"model"::"text_encoder_model.text_model.encoder.layers.25.self_attn.out_proj.weight"> : tensor<1280x1280xf16>
  util.global private @_params.text_encoder_model.text_model.encoder.layers.25.self_attn.out_proj.bias {noinline} = #stream.parameter.named<"model"::"text_encoder_model.text_model.encoder.layers.25.self_attn.out_proj.bias"> : tensor<1280xf16>
  util.global private @_params.text_encoder_model.text_model.encoder.layers.25.layer_norm1.weight {noinline} = #stream.parameter.named<"model"::"text_encoder_model.text_model.encoder.layers.25.layer_norm1.weight"> : tensor<1280xf16>
  util.global private @_params.text_encoder_model.text_model.encoder.layers.25.layer_norm1.bias {noinline} = #stream.parameter.named<"model"::"text_encoder_model.text_model.encoder.layers.25.layer_norm1.bias"> : tensor<1280xf16>
  util.global private @_params.text_encoder_model.text_model.encoder.layers.25.mlp.fc1.weight {noinline} = #stream.parameter.named<"model"::"text_encoder_model.text_model.encoder.layers.25.mlp.fc1.weight"> : tensor<5120x1280xf16>
  util.global private @_params.text_encoder_model.text_model.encoder.layers.25.mlp.fc1.bias {noinline} = #stream.parameter.named<"model"::"text_encoder_model.text_model.encoder.layers.25.mlp.fc1.bias"> : tensor<5120xf16>
  util.global private @_params.text_encoder_model.text_model.encoder.layers.25.mlp.fc2.weight {noinline} = #stream.parameter.named<"model"::"text_encoder_model.text_model.encoder.layers.25.mlp.fc2.weight"> : tensor<1280x5120xf16>
  util.global private @_params.text_encoder_model.text_model.encoder.layers.25.mlp.fc2.bias {noinline} = #stream.parameter.named<"model"::"text_encoder_model.text_model.encoder.layers.25.mlp.fc2.bias"> : tensor<1280xf16>
  util.global private @_params.text_encoder_model.text_model.encoder.layers.25.layer_norm2.weight {noinline} = #stream.parameter.named<"model"::"text_encoder_model.text_model.encoder.layers.25.layer_norm2.weight"> : tensor<1280xf16>
  util.global private @_params.text_encoder_model.text_model.encoder.layers.25.layer_norm2.bias {noinline} = #stream.parameter.named<"model"::"text_encoder_model.text_model.encoder.layers.25.layer_norm2.bias"> : tensor<1280xf16>
  util.global private @_params.text_encoder_model.text_model.encoder.layers.26.self_attn.k_proj.weight {noinline} = #stream.parameter.named<"model"::"text_encoder_model.text_model.encoder.layers.26.self_attn.k_proj.weight"> : tensor<1280x1280xf16>
  util.global private @_params.text_encoder_model.text_model.encoder.layers.26.self_attn.k_proj.bias {noinline} = #stream.parameter.named<"model"::"text_encoder_model.text_model.encoder.layers.26.self_attn.k_proj.bias"> : tensor<1280xf16>
  util.global private @_params.text_encoder_model.text_model.encoder.layers.26.self_attn.v_proj.weight {noinline} = #stream.parameter.named<"model"::"text_encoder_model.text_model.encoder.layers.26.self_attn.v_proj.weight"> : tensor<1280x1280xf16>
  util.global private @_params.text_encoder_model.text_model.encoder.layers.26.self_attn.v_proj.bias {noinline} = #stream.parameter.named<"model"::"text_encoder_model.text_model.encoder.layers.26.self_attn.v_proj.bias"> : tensor<1280xf16>
  util.global private @_params.text_encoder_model.text_model.encoder.layers.26.self_attn.q_proj.weight {noinline} = #stream.parameter.named<"model"::"text_encoder_model.text_model.encoder.layers.26.self_attn.q_proj.weight"> : tensor<1280x1280xf16>
  util.global private @_params.text_encoder_model.text_model.encoder.layers.26.self_attn.q_proj.bias {noinline} = #stream.parameter.named<"model"::"text_encoder_model.text_model.encoder.layers.26.self_attn.q_proj.bias"> : tensor<1280xf16>
  util.global private @_params.text_encoder_model.text_model.encoder.layers.26.self_attn.out_proj.weight {noinline} = #stream.parameter.named<"model"::"text_encoder_model.text_model.encoder.layers.26.self_attn.out_proj.weight"> : tensor<1280x1280xf16>
  util.global private @_params.text_encoder_model.text_model.encoder.layers.26.self_attn.out_proj.bias {noinline} = #stream.parameter.named<"model"::"text_encoder_model.text_model.encoder.layers.26.self_attn.out_proj.bias"> : tensor<1280xf16>
  util.global private @_params.text_encoder_model.text_model.encoder.layers.26.layer_norm1.weight {noinline} = #stream.parameter.named<"model"::"text_encoder_model.text_model.encoder.layers.26.layer_norm1.weight"> : tensor<1280xf16>
  util.global private @_params.text_encoder_model.text_model.encoder.layers.26.layer_norm1.bias {noinline} = #stream.parameter.named<"model"::"text_encoder_model.text_model.encoder.layers.26.layer_norm1.bias"> : tensor<1280xf16>
  util.global private @_params.text_encoder_model.text_model.encoder.layers.26.mlp.fc1.weight {noinline} = #stream.parameter.named<"model"::"text_encoder_model.text_model.encoder.layers.26.mlp.fc1.weight"> : tensor<5120x1280xf16>
  util.global private @_params.text_encoder_model.text_model.encoder.layers.26.mlp.fc1.bias {noinline} = #stream.parameter.named<"model"::"text_encoder_model.text_model.encoder.layers.26.mlp.fc1.bias"> : tensor<5120xf16>
  util.global private @_params.text_encoder_model.text_model.encoder.layers.26.mlp.fc2.weight {noinline} = #stream.parameter.named<"model"::"text_encoder_model.text_model.encoder.layers.26.mlp.fc2.weight"> : tensor<1280x5120xf16>
  util.global private @_params.text_encoder_model.text_model.encoder.layers.26.mlp.fc2.bias {noinline} = #stream.parameter.named<"model"::"text_encoder_model.text_model.encoder.layers.26.mlp.fc2.bias"> : tensor<1280xf16>
  util.global private @_params.text_encoder_model.text_model.encoder.layers.26.layer_norm2.weight {noinline} = #stream.parameter.named<"model"::"text_encoder_model.text_model.encoder.layers.26.layer_norm2.weight"> : tensor<1280xf16>
  util.global private @_params.text_encoder_model.text_model.encoder.layers.26.layer_norm2.bias {noinline} = #stream.parameter.named<"model"::"text_encoder_model.text_model.encoder.layers.26.layer_norm2.bias"> : tensor<1280xf16>
  util.global private @_params.text_encoder_model.text_model.encoder.layers.27.self_attn.k_proj.weight {noinline} = #stream.parameter.named<"model"::"text_encoder_model.text_model.encoder.layers.27.self_attn.k_proj.weight"> : tensor<1280x1280xf16>
  util.global private @_params.text_encoder_model.text_model.encoder.layers.27.self_attn.k_proj.bias {noinline} = #stream.parameter.named<"model"::"text_encoder_model.text_model.encoder.layers.27.self_attn.k_proj.bias"> : tensor<1280xf16>
  util.global private @_params.text_encoder_model.text_model.encoder.layers.27.self_attn.v_proj.weight {noinline} = #stream.parameter.named<"model"::"text_encoder_model.text_model.encoder.layers.27.self_attn.v_proj.weight"> : tensor<1280x1280xf16>
  util.global private @_params.text_encoder_model.text_model.encoder.layers.27.self_attn.v_proj.bias {noinline} = #stream.parameter.named<"model"::"text_encoder_model.text_model.encoder.layers.27.self_attn.v_proj.bias"> : tensor<1280xf16>
  util.global private @_params.text_encoder_model.text_model.encoder.layers.27.self_attn.q_proj.weight {noinline} = #stream.parameter.named<"model"::"text_encoder_model.text_model.encoder.layers.27.self_attn.q_proj.weight"> : tensor<1280x1280xf16>
  util.global private @_params.text_encoder_model.text_model.encoder.layers.27.self_attn.q_proj.bias {noinline} = #stream.parameter.named<"model"::"text_encoder_model.text_model.encoder.layers.27.self_attn.q_proj.bias"> : tensor<1280xf16>
  util.global private @_params.text_encoder_model.text_model.encoder.layers.27.self_attn.out_proj.weight {noinline} = #stream.parameter.named<"model"::"text_encoder_model.text_model.encoder.layers.27.self_attn.out_proj.weight"> : tensor<1280x1280xf16>
  util.global private @_params.text_encoder_model.text_model.encoder.layers.27.self_attn.out_proj.bias {noinline} = #stream.parameter.named<"model"::"text_encoder_model.text_model.encoder.layers.27.self_attn.out_proj.bias"> : tensor<1280xf16>
  util.global private @_params.text_encoder_model.text_model.encoder.layers.27.layer_norm1.weight {noinline} = #stream.parameter.named<"model"::"text_encoder_model.text_model.encoder.layers.27.layer_norm1.weight"> : tensor<1280xf16>
  util.global private @_params.text_encoder_model.text_model.encoder.layers.27.layer_norm1.bias {noinline} = #stream.parameter.named<"model"::"text_encoder_model.text_model.encoder.layers.27.layer_norm1.bias"> : tensor<1280xf16>
  util.global private @_params.text_encoder_model.text_model.encoder.layers.27.mlp.fc1.weight {noinline} = #stream.parameter.named<"model"::"text_encoder_model.text_model.encoder.layers.27.mlp.fc1.weight"> : tensor<5120x1280xf16>
  util.global private @_params.text_encoder_model.text_model.encoder.layers.27.mlp.fc1.bias {noinline} = #stream.parameter.named<"model"::"text_encoder_model.text_model.encoder.layers.27.mlp.fc1.bias"> : tensor<5120xf16>
  util.global private @_params.text_encoder_model.text_model.encoder.layers.27.mlp.fc2.weight {noinline} = #stream.parameter.named<"model"::"text_encoder_model.text_model.encoder.layers.27.mlp.fc2.weight"> : tensor<1280x5120xf16>
  util.global private @_params.text_encoder_model.text_model.encoder.layers.27.mlp.fc2.bias {noinline} = #stream.parameter.named<"model"::"text_encoder_model.text_model.encoder.layers.27.mlp.fc2.bias"> : tensor<1280xf16>
  util.global private @_params.text_encoder_model.text_model.encoder.layers.27.layer_norm2.weight {noinline} = #stream.parameter.named<"model"::"text_encoder_model.text_model.encoder.layers.27.layer_norm2.weight"> : tensor<1280xf16>
  util.global private @_params.text_encoder_model.text_model.encoder.layers.27.layer_norm2.bias {noinline} = #stream.parameter.named<"model"::"text_encoder_model.text_model.encoder.layers.27.layer_norm2.bias"> : tensor<1280xf16>
  util.global private @_params.text_encoder_model.text_model.encoder.layers.28.self_attn.k_proj.weight {noinline} = #stream.parameter.named<"model"::"text_encoder_model.text_model.encoder.layers.28.self_attn.k_proj.weight"> : tensor<1280x1280xf16>
  util.global private @_params.text_encoder_model.text_model.encoder.layers.28.self_attn.k_proj.bias {noinline} = #stream.parameter.named<"model"::"text_encoder_model.text_model.encoder.layers.28.self_attn.k_proj.bias"> : tensor<1280xf16>
  util.global private @_params.text_encoder_model.text_model.encoder.layers.28.self_attn.v_proj.weight {noinline} = #stream.parameter.named<"model"::"text_encoder_model.text_model.encoder.layers.28.self_attn.v_proj.weight"> : tensor<1280x1280xf16>
  util.global private @_params.text_encoder_model.text_model.encoder.layers.28.self_attn.v_proj.bias {noinline} = #stream.parameter.named<"model"::"text_encoder_model.text_model.encoder.layers.28.self_attn.v_proj.bias"> : tensor<1280xf16>
  util.global private @_params.text_encoder_model.text_model.encoder.layers.28.self_attn.q_proj.weight {noinline} = #stream.parameter.named<"model"::"text_encoder_model.text_model.encoder.layers.28.self_attn.q_proj.weight"> : tensor<1280x1280xf16>
  util.global private @_params.text_encoder_model.text_model.encoder.layers.28.self_attn.q_proj.bias {noinline} = #stream.parameter.named<"model"::"text_encoder_model.text_model.encoder.layers.28.self_attn.q_proj.bias"> : tensor<1280xf16>
  util.global private @_params.text_encoder_model.text_model.encoder.layers.28.self_attn.out_proj.weight {noinline} = #stream.parameter.named<"model"::"text_encoder_model.text_model.encoder.layers.28.self_attn.out_proj.weight"> : tensor<1280x1280xf16>
  util.global private @_params.text_encoder_model.text_model.encoder.layers.28.self_attn.out_proj.bias {noinline} = #stream.parameter.named<"model"::"text_encoder_model.text_model.encoder.layers.28.self_attn.out_proj.bias"> : tensor<1280xf16>
  util.global private @_params.text_encoder_model.text_model.encoder.layers.28.layer_norm1.weight {noinline} = #stream.parameter.named<"model"::"text_encoder_model.text_model.encoder.layers.28.layer_norm1.weight"> : tensor<1280xf16>
  util.global private @_params.text_encoder_model.text_model.encoder.layers.28.layer_norm1.bias {noinline} = #stream.parameter.named<"model"::"text_encoder_model.text_model.encoder.layers.28.layer_norm1.bias"> : tensor<1280xf16>
  util.global private @_params.text_encoder_model.text_model.encoder.layers.28.mlp.fc1.weight {noinline} = #stream.parameter.named<"model"::"text_encoder_model.text_model.encoder.layers.28.mlp.fc1.weight"> : tensor<5120x1280xf16>
  util.global private @_params.text_encoder_model.text_model.encoder.layers.28.mlp.fc1.bias {noinline} = #stream.parameter.named<"model"::"text_encoder_model.text_model.encoder.layers.28.mlp.fc1.bias"> : tensor<5120xf16>
  util.global private @_params.text_encoder_model.text_model.encoder.layers.28.mlp.fc2.weight {noinline} = #stream.parameter.named<"model"::"text_encoder_model.text_model.encoder.layers.28.mlp.fc2.weight"> : tensor<1280x5120xf16>
  util.global private @_params.text_encoder_model.text_model.encoder.layers.28.mlp.fc2.bias {noinline} = #stream.parameter.named<"model"::"text_encoder_model.text_model.encoder.layers.28.mlp.fc2.bias"> : tensor<1280xf16>
  util.global private @_params.text_encoder_model.text_model.encoder.layers.28.layer_norm2.weight {noinline} = #stream.parameter.named<"model"::"text_encoder_model.text_model.encoder.layers.28.layer_norm2.weight"> : tensor<1280xf16>
  util.global private @_params.text_encoder_model.text_model.encoder.layers.28.layer_norm2.bias {noinline} = #stream.parameter.named<"model"::"text_encoder_model.text_model.encoder.layers.28.layer_norm2.bias"> : tensor<1280xf16>
  util.global private @_params.text_encoder_model.text_model.encoder.layers.29.self_attn.k_proj.weight {noinline} = #stream.parameter.named<"model"::"text_encoder_model.text_model.encoder.layers.29.self_attn.k_proj.weight"> : tensor<1280x1280xf16>
  util.global private @_params.text_encoder_model.text_model.encoder.layers.29.self_attn.k_proj.bias {noinline} = #stream.parameter.named<"model"::"text_encoder_model.text_model.encoder.layers.29.self_attn.k_proj.bias"> : tensor<1280xf16>
  util.global private @_params.text_encoder_model.text_model.encoder.layers.29.self_attn.v_proj.weight {noinline} = #stream.parameter.named<"model"::"text_encoder_model.text_model.encoder.layers.29.self_attn.v_proj.weight"> : tensor<1280x1280xf16>
  util.global private @_params.text_encoder_model.text_model.encoder.layers.29.self_attn.v_proj.bias {noinline} = #stream.parameter.named<"model"::"text_encoder_model.text_model.encoder.layers.29.self_attn.v_proj.bias"> : tensor<1280xf16>
  util.global private @_params.text_encoder_model.text_model.encoder.layers.29.self_attn.q_proj.weight {noinline} = #stream.parameter.named<"model"::"text_encoder_model.text_model.encoder.layers.29.self_attn.q_proj.weight"> : tensor<1280x1280xf16>
  util.global private @_params.text_encoder_model.text_model.encoder.layers.29.self_attn.q_proj.bias {noinline} = #stream.parameter.named<"model"::"text_encoder_model.text_model.encoder.layers.29.self_attn.q_proj.bias"> : tensor<1280xf16>
  util.global private @_params.text_encoder_model.text_model.encoder.layers.29.self_attn.out_proj.weight {noinline} = #stream.parameter.named<"model"::"text_encoder_model.text_model.encoder.layers.29.self_attn.out_proj.weight"> : tensor<1280x1280xf16>
  util.global private @_params.text_encoder_model.text_model.encoder.layers.29.self_attn.out_proj.bias {noinline} = #stream.parameter.named<"model"::"text_encoder_model.text_model.encoder.layers.29.self_attn.out_proj.bias"> : tensor<1280xf16>
  util.global private @_params.text_encoder_model.text_model.encoder.layers.29.layer_norm1.weight {noinline} = #stream.parameter.named<"model"::"text_encoder_model.text_model.encoder.layers.29.layer_norm1.weight"> : tensor<1280xf16>
  util.global private @_params.text_encoder_model.text_model.encoder.layers.29.layer_norm1.bias {noinline} = #stream.parameter.named<"model"::"text_encoder_model.text_model.encoder.layers.29.layer_norm1.bias"> : tensor<1280xf16>
  util.global private @_params.text_encoder_model.text_model.encoder.layers.29.mlp.fc1.weight {noinline} = #stream.parameter.named<"model"::"text_encoder_model.text_model.encoder.layers.29.mlp.fc1.weight"> : tensor<5120x1280xf16>
  util.global private @_params.text_encoder_model.text_model.encoder.layers.29.mlp.fc1.bias {noinline} = #stream.parameter.named<"model"::"text_encoder_model.text_model.encoder.layers.29.mlp.fc1.bias"> : tensor<5120xf16>
  util.global private @_params.text_encoder_model.text_model.encoder.layers.29.mlp.fc2.weight {noinline} = #stream.parameter.named<"model"::"text_encoder_model.text_model.encoder.layers.29.mlp.fc2.weight"> : tensor<1280x5120xf16>
  util.global private @_params.text_encoder_model.text_model.encoder.layers.29.mlp.fc2.bias {noinline} = #stream.parameter.named<"model"::"text_encoder_model.text_model.encoder.layers.29.mlp.fc2.bias"> : tensor<1280xf16>
  util.global private @_params.text_encoder_model.text_model.encoder.layers.29.layer_norm2.weight {noinline} = #stream.parameter.named<"model"::"text_encoder_model.text_model.encoder.layers.29.layer_norm2.weight"> : tensor<1280xf16>
  util.global private @_params.text_encoder_model.text_model.encoder.layers.29.layer_norm2.bias {noinline} = #stream.parameter.named<"model"::"text_encoder_model.text_model.encoder.layers.29.layer_norm2.bias"> : tensor<1280xf16>
  util.global private @_params.text_encoder_model.text_model.encoder.layers.30.self_attn.k_proj.weight {noinline} = #stream.parameter.named<"model"::"text_encoder_model.text_model.encoder.layers.30.self_attn.k_proj.weight"> : tensor<1280x1280xf16>
  util.global private @_params.text_encoder_model.text_model.encoder.layers.30.self_attn.k_proj.bias {noinline} = #stream.parameter.named<"model"::"text_encoder_model.text_model.encoder.layers.30.self_attn.k_proj.bias"> : tensor<1280xf16>
  util.global private @_params.text_encoder_model.text_model.encoder.layers.30.self_attn.v_proj.weight {noinline} = #stream.parameter.named<"model"::"text_encoder_model.text_model.encoder.layers.30.self_attn.v_proj.weight"> : tensor<1280x1280xf16>
  util.global private @_params.text_encoder_model.text_model.encoder.layers.30.self_attn.v_proj.bias {noinline} = #stream.parameter.named<"model"::"text_encoder_model.text_model.encoder.layers.30.self_attn.v_proj.bias"> : tensor<1280xf16>
  util.global private @_params.text_encoder_model.text_model.encoder.layers.30.self_attn.q_proj.weight {noinline} = #stream.parameter.named<"model"::"text_encoder_model.text_model.encoder.layers.30.self_attn.q_proj.weight"> : tensor<1280x1280xf16>
  util.global private @_params.text_encoder_model.text_model.encoder.layers.30.self_attn.q_proj.bias {noinline} = #stream.parameter.named<"model"::"text_encoder_model.text_model.encoder.layers.30.self_attn.q_proj.bias"> : tensor<1280xf16>
  util.global private @_params.text_encoder_model.text_model.encoder.layers.30.self_attn.out_proj.weight {noinline} = #stream.parameter.named<"model"::"text_encoder_model.text_model.encoder.layers.30.self_attn.out_proj.weight"> : tensor<1280x1280xf16>
  util.global private @_params.text_encoder_model.text_model.encoder.layers.30.self_attn.out_proj.bias {noinline} = #stream.parameter.named<"model"::"text_encoder_model.text_model.encoder.layers.30.self_attn.out_proj.bias"> : tensor<1280xf16>
  util.global private @_params.text_encoder_model.text_model.encoder.layers.30.layer_norm1.weight {noinline} = #stream.parameter.named<"model"::"text_encoder_model.text_model.encoder.layers.30.layer_norm1.weight"> : tensor<1280xf16>
  util.global private @_params.text_encoder_model.text_model.encoder.layers.30.layer_norm1.bias {noinline} = #stream.parameter.named<"model"::"text_encoder_model.text_model.encoder.layers.30.layer_norm1.bias"> : tensor<1280xf16>
  util.global private @_params.text_encoder_model.text_model.encoder.layers.30.mlp.fc1.weight {noinline} = #stream.parameter.named<"model"::"text_encoder_model.text_model.encoder.layers.30.mlp.fc1.weight"> : tensor<5120x1280xf16>
  util.global private @_params.text_encoder_model.text_model.encoder.layers.30.mlp.fc1.bias {noinline} = #stream.parameter.named<"model"::"text_encoder_model.text_model.encoder.layers.30.mlp.fc1.bias"> : tensor<5120xf16>
  util.global private @_params.text_encoder_model.text_model.encoder.layers.30.mlp.fc2.weight {noinline} = #stream.parameter.named<"model"::"text_encoder_model.text_model.encoder.layers.30.mlp.fc2.weight"> : tensor<1280x5120xf16>
  util.global private @_params.text_encoder_model.text_model.encoder.layers.30.mlp.fc2.bias {noinline} = #stream.parameter.named<"model"::"text_encoder_model.text_model.encoder.layers.30.mlp.fc2.bias"> : tensor<1280xf16>
  util.global private @_params.text_encoder_model.text_model.encoder.layers.30.layer_norm2.weight {noinline} = #stream.parameter.named<"model"::"text_encoder_model.text_model.encoder.layers.30.layer_norm2.weight"> : tensor<1280xf16>
  util.global private @_params.text_encoder_model.text_model.encoder.layers.30.layer_norm2.bias {noinline} = #stream.parameter.named<"model"::"text_encoder_model.text_model.encoder.layers.30.layer_norm2.bias"> : tensor<1280xf16>
  util.global private @_params.text_encoder_model.text_model.encoder.layers.31.self_attn.k_proj.weight {noinline} = #stream.parameter.named<"model"::"text_encoder_model.text_model.encoder.layers.31.self_attn.k_proj.weight"> : tensor<1280x1280xf16>
  util.global private @_params.text_encoder_model.text_model.encoder.layers.31.self_attn.k_proj.bias {noinline} = #stream.parameter.named<"model"::"text_encoder_model.text_model.encoder.layers.31.self_attn.k_proj.bias"> : tensor<1280xf16>
  util.global private @_params.text_encoder_model.text_model.encoder.layers.31.self_attn.v_proj.weight {noinline} = #stream.parameter.named<"model"::"text_encoder_model.text_model.encoder.layers.31.self_attn.v_proj.weight"> : tensor<1280x1280xf16>
  util.global private @_params.text_encoder_model.text_model.encoder.layers.31.self_attn.v_proj.bias {noinline} = #stream.parameter.named<"model"::"text_encoder_model.text_model.encoder.layers.31.self_attn.v_proj.bias"> : tensor<1280xf16>
  util.global private @_params.text_encoder_model.text_model.encoder.layers.31.self_attn.q_proj.weight {noinline} = #stream.parameter.named<"model"::"text_encoder_model.text_model.encoder.layers.31.self_attn.q_proj.weight"> : tensor<1280x1280xf16>
  util.global private @_params.text_encoder_model.text_model.encoder.layers.31.self_attn.q_proj.bias {noinline} = #stream.parameter.named<"model"::"text_encoder_model.text_model.encoder.layers.31.self_attn.q_proj.bias"> : tensor<1280xf16>
  util.global private @_params.text_encoder_model.text_model.encoder.layers.31.self_attn.out_proj.weight {noinline} = #stream.parameter.named<"model"::"text_encoder_model.text_model.encoder.layers.31.self_attn.out_proj.weight"> : tensor<1280x1280xf16>
  util.global private @_params.text_encoder_model.text_model.encoder.layers.31.self_attn.out_proj.bias {noinline} = #stream.parameter.named<"model"::"text_encoder_model.text_model.encoder.layers.31.self_attn.out_proj.bias"> : tensor<1280xf16>
  util.global private @_params.text_encoder_model.text_model.encoder.layers.31.layer_norm1.weight {noinline} = #stream.parameter.named<"model"::"text_encoder_model.text_model.encoder.layers.31.layer_norm1.weight"> : tensor<1280xf16>
  util.global private @_params.text_encoder_model.text_model.encoder.layers.31.layer_norm1.bias {noinline} = #stream.parameter.named<"model"::"text_encoder_model.text_model.encoder.layers.31.layer_norm1.bias"> : tensor<1280xf16>
  util.global private @_params.text_encoder_model.text_model.encoder.layers.31.mlp.fc1.weight {noinline} = #stream.parameter.named<"model"::"text_encoder_model.text_model.encoder.layers.31.mlp.fc1.weight"> : tensor<5120x1280xf16>
  util.global private @_params.text_encoder_model.text_model.encoder.layers.31.mlp.fc1.bias {noinline} = #stream.parameter.named<"model"::"text_encoder_model.text_model.encoder.layers.31.mlp.fc1.bias"> : tensor<5120xf16>
  util.global private @_params.text_encoder_model.text_model.encoder.layers.31.mlp.fc2.weight {noinline} = #stream.parameter.named<"model"::"text_encoder_model.text_model.encoder.layers.31.mlp.fc2.weight"> : tensor<1280x5120xf16>
  util.global private @_params.text_encoder_model.text_model.encoder.layers.31.mlp.fc2.bias {noinline} = #stream.parameter.named<"model"::"text_encoder_model.text_model.encoder.layers.31.mlp.fc2.bias"> : tensor<1280xf16>
  util.global private @_params.text_encoder_model.text_model.encoder.layers.31.layer_norm2.weight {noinline} = #stream.parameter.named<"model"::"text_encoder_model.text_model.encoder.layers.31.layer_norm2.weight"> : tensor<1280xf16>
  util.global private @_params.text_encoder_model.text_model.encoder.layers.31.layer_norm2.bias {noinline} = #stream.parameter.named<"model"::"text_encoder_model.text_model.encoder.layers.31.layer_norm2.bias"> : tensor<1280xf16>
  util.global private @_params.text_encoder_model.text_model.final_layer_norm.weight {noinline} = #stream.parameter.named<"model"::"text_encoder_model.text_model.final_layer_norm.weight"> : tensor<1280xf16>
  util.global private @_params.text_encoder_model.text_model.final_layer_norm.bias {noinline} = #stream.parameter.named<"model"::"text_encoder_model.text_model.final_layer_norm.bias"> : tensor<1280xf16>
  util.global private @_params.text_encoder_model.text_projection.weight {noinline} = #stream.parameter.named<"model"::"text_encoder_model.text_projection.weight"> : tensor<1280x1280xf16>
  func.func @main(%arg0: tensor<1x64xi64>) -> (tensor<1x64x1280xf16>, tensor<1x1280xf16>) attributes {torch.args_schema = "[1, {\22type\22: \22builtins.tuple\22, \22context\22: \22null\22, \22children_spec\22: [{\22type\22: \22builtins.list\22, \22context\22: \22null\22, \22children_spec\22: [{\22type\22: null, \22context\22: null, \22children_spec\22: []}]}, {\22type\22: \22builtins.dict\22, \22context\22: \22[]\22, \22children_spec\22: []}]}]", torch.return_schema = "[1, {\22type\22: \22builtins.tuple\22, \22context\22: \22null\22, \22children_spec\22: [{\22type\22: null, \22context\22: null, \22children_spec\22: []}, {\22type\22: null, \22context\22: null, \22children_spec\22: []}]}]"} {
    %0 = torch_c.from_builtin_tensor %arg0 : tensor<1x64xi64> -> !torch.vtensor<[1,64],si64>
    %1:2 = call @forward(%0) : (!torch.vtensor<[1,64],si64>) -> (!torch.vtensor<[1,64,1280],f16>, !torch.vtensor<[1,1280],f16>)
    %2 = torch_c.to_builtin_tensor %1#0 : !torch.vtensor<[1,64,1280],f16> -> tensor<1x64x1280xf16>
    %3 = torch_c.to_builtin_tensor %1#1 : !torch.vtensor<[1,1280],f16> -> tensor<1x1280xf16>
    return %2, %3 : tensor<1x64x1280xf16>, tensor<1x1280xf16>
  }
  func.func private @forward(%arg0: !torch.vtensor<[1,64],si64>) -> (!torch.vtensor<[1,64,1280],f16>, !torch.vtensor<[1,1280],f16>) {
    %int-1 = torch.constant.int -1
    %int64 = torch.constant.int 64
    %0 = torch.prim.ListConstruct %int-1, %int64 : (!torch.int, !torch.int) -> !torch.list<int>
    %1 = torch.aten.view %arg0, %0 : !torch.vtensor<[1,64],si64>, !torch.list<int> -> !torch.vtensor<[1,64],si64>
    %2 = torch.vtensor.literal(dense_resource<torch_tensor_1_77_torch.int64> : tensor<1x77xsi64>) : !torch.vtensor<[1,77],si64>
    %int0 = torch.constant.int 0
    %int0_0 = torch.constant.int 0
    %int9223372036854775807 = torch.constant.int 9223372036854775807
    %int1 = torch.constant.int 1
    %3 = torch.aten.slice.Tensor %2, %int0, %int0_0, %int9223372036854775807, %int1 : !torch.vtensor<[1,77],si64>, !torch.int, !torch.int, !torch.int, !torch.int -> !torch.vtensor<[1,77],si64>
    %int1_1 = torch.constant.int 1
    %int0_2 = torch.constant.int 0
    %int64_3 = torch.constant.int 64
    %int1_4 = torch.constant.int 1
    %4 = torch.aten.slice.Tensor %3, %int1_1, %int0_2, %int64_3, %int1_4 : !torch.vtensor<[1,77],si64>, !torch.int, !torch.int, !torch.int, !torch.int -> !torch.vtensor<[1,64],si64>
    %_params.text_encoder_model.text_model.embeddings.token_embedding.weight = util.global.load @_params.text_encoder_model.text_model.embeddings.token_embedding.weight : tensor<49408x1280xf16>
    %5 = torch_c.from_builtin_tensor %_params.text_encoder_model.text_model.embeddings.token_embedding.weight : tensor<49408x1280xf16> -> !torch.vtensor<[49408,1280],f16>
    %int-1_5 = torch.constant.int -1
    %false = torch.constant.bool false
    %false_6 = torch.constant.bool false
    %6 = torch.aten.embedding %5, %1, %int-1_5, %false, %false_6 : !torch.vtensor<[49408,1280],f16>, !torch.vtensor<[1,64],si64>, !torch.int, !torch.bool, !torch.bool -> !torch.vtensor<[1,64,1280],f16>
    %_params.text_encoder_model.text_model.embeddings.position_embedding.weight = util.global.load @_params.text_encoder_model.text_model.embeddings.position_embedding.weight : tensor<77x1280xf16>
    %7 = torch_c.from_builtin_tensor %_params.text_encoder_model.text_model.embeddings.position_embedding.weight : tensor<77x1280xf16> -> !torch.vtensor<[77,1280],f16>
    %int-1_7 = torch.constant.int -1
    %false_8 = torch.constant.bool false
    %false_9 = torch.constant.bool false
    %8 = torch.aten.embedding %7, %4, %int-1_7, %false_8, %false_9 : !torch.vtensor<[77,1280],f16>, !torch.vtensor<[1,64],si64>, !torch.int, !torch.bool, !torch.bool -> !torch.vtensor<[1,64,1280],f16>
    %int1_10 = torch.constant.int 1
    %9 = torch.aten.add.Tensor %6, %8, %int1_10 : !torch.vtensor<[1,64,1280],f16>, !torch.vtensor<[1,64,1280],f16>, !torch.int -> !torch.vtensor<[1,64,1280],f16>
    %int64_11 = torch.constant.int 64
    %int64_12 = torch.constant.int 64
    %10 = torch.prim.ListConstruct %int64_11, %int64_12 : (!torch.int, !torch.int) -> !torch.list<int>
    %int64_13 = torch.constant.int 64
    %int1_14 = torch.constant.int 1
    %11 = torch.prim.ListConstruct %int64_13, %int1_14 : (!torch.int, !torch.int) -> !torch.list<int>
    %int6 = torch.constant.int 6
    %int0_15 = torch.constant.int 0
    %cpu = torch.constant.device "cpu"
    %false_16 = torch.constant.bool false
    %12 = torch.aten.empty_strided %10, %11, %int6, %int0_15, %cpu, %false_16 : !torch.list<int>, !torch.list<int>, !torch.int, !torch.int, !torch.Device, !torch.bool -> !torch.vtensor<[64,64],f32>
    %float-6.550400e04 = torch.constant.float -6.550400e+04
    %13 = torch.aten.fill.Scalar %12, %float-6.550400e04 : !torch.vtensor<[64,64],f32>, !torch.float -> !torch.vtensor<[64,64],f32>
    %int64_17 = torch.constant.int 64
    %none = torch.constant.none
    %none_18 = torch.constant.none
    %cpu_19 = torch.constant.device "cpu"
    %false_20 = torch.constant.bool false
    %14 = torch.aten.arange %int64_17, %none, %none_18, %cpu_19, %false_20 : !torch.int, !torch.none, !torch.none, !torch.Device, !torch.bool -> !torch.vtensor<[64],si64>
    %int1_21 = torch.constant.int 1
    %int1_22 = torch.constant.int 1
    %15 = torch.aten.add.Scalar %14, %int1_21, %int1_22 : !torch.vtensor<[64],si64>, !torch.int, !torch.int -> !torch.vtensor<[64],si64>
    %int64_23 = torch.constant.int 64
    %int1_24 = torch.constant.int 1
    %16 = torch.prim.ListConstruct %int64_23, %int1_24 : (!torch.int, !torch.int) -> !torch.list<int>
    %17 = torch.aten.view %15, %16 : !torch.vtensor<[64],si64>, !torch.list<int> -> !torch.vtensor<[64,1],si64>
    %18 = torch.aten.lt.Tensor %14, %17 : !torch.vtensor<[64],si64>, !torch.vtensor<[64,1],si64> -> !torch.vtensor<[64,64],i1>
    %float0.000000e00 = torch.constant.float 0.000000e+00
    %int6_25 = torch.constant.int 6
    %int0_26 = torch.constant.int 0
    %cpu_27 = torch.constant.device "cpu"
    %none_28 = torch.constant.none
    %19 = torch.aten.scalar_tensor %float0.000000e00, %int6_25, %int0_26, %cpu_27, %none_28 : !torch.float, !torch.int, !torch.int, !torch.Device, !torch.none -> !torch.vtensor<[],f32>
    %20 = torch.aten.where.self %18, %19, %13 : !torch.vtensor<[64,64],i1>, !torch.vtensor<[],f32>, !torch.vtensor<[64,64],f32> -> !torch.vtensor<[64,64],f32>
    %int5 = torch.constant.int 5
    %21 = torch.prims.convert_element_type %20, %int5 : !torch.vtensor<[64,64],f32>, !torch.int -> !torch.vtensor<[64,64],f16>
    %int0_29 = torch.constant.int 0
    %22 = torch.aten.unsqueeze %21, %int0_29 : !torch.vtensor<[64,64],f16>, !torch.int -> !torch.vtensor<[1,64,64],f16>
    %int1_30 = torch.constant.int 1
    %23 = torch.aten.unsqueeze %22, %int1_30 : !torch.vtensor<[1,64,64],f16>, !torch.int -> !torch.vtensor<[1,1,64,64],f16>
    %int2 = torch.constant.int 2
    %int0_31 = torch.constant.int 0
    %int9223372036854775807_32 = torch.constant.int 9223372036854775807
    %int1_33 = torch.constant.int 1
    %24 = torch.aten.slice.Tensor %23, %int2, %int0_31, %int9223372036854775807_32, %int1_33 : !torch.vtensor<[1,1,64,64],f16>, !torch.int, !torch.int, !torch.int, !torch.int -> !torch.vtensor<[1,1,64,64],f16>
    %int3 = torch.constant.int 3
    %int0_34 = torch.constant.int 0
    %int9223372036854775807_35 = torch.constant.int 9223372036854775807
    %int1_36 = torch.constant.int 1
    %25 = torch.aten.slice.Tensor %24, %int3, %int0_34, %int9223372036854775807_35, %int1_36 : !torch.vtensor<[1,1,64,64],f16>, !torch.int, !torch.int, !torch.int, !torch.int -> !torch.vtensor<[1,1,64,64],f16>
    %int1_37 = torch.constant.int 1
    %int1_38 = torch.constant.int 1
    %int64_39 = torch.constant.int 64
    %int64_40 = torch.constant.int 64
    %26 = torch.prim.ListConstruct %int1_37, %int1_38, %int64_39, %int64_40 : (!torch.int, !torch.int, !torch.int, !torch.int) -> !torch.list<int>
    %false_41 = torch.constant.bool false
    %27 = torch.aten.expand %25, %26, %false_41 : !torch.vtensor<[1,1,64,64],f16>, !torch.list<int>, !torch.bool -> !torch.vtensor<[1,1,64,64],f16>
    %int6_42 = torch.constant.int 6
    %28 = torch.prims.convert_element_type %9, %int6_42 : !torch.vtensor<[1,64,1280],f16>, !torch.int -> !torch.vtensor<[1,64,1280],f32>
    %int2_43 = torch.constant.int 2
    %29 = torch.prim.ListConstruct %int2_43 : (!torch.int) -> !torch.list<int>
    %int0_44 = torch.constant.int 0
    %true = torch.constant.bool true
    %result0, %result1 = torch.aten.var_mean.correction %28, %29, %int0_44, %true : !torch.vtensor<[1,64,1280],f32>, !torch.list<int>, !torch.int, !torch.bool -> !torch.vtensor<[1,64,1],f32>, !torch.vtensor<[1,64,1],f32>
    %float1.000000e-05 = torch.constant.float 1.000000e-05
    %int1_45 = torch.constant.int 1
    %30 = torch.aten.add.Scalar %result0, %float1.000000e-05, %int1_45 : !torch.vtensor<[1,64,1],f32>, !torch.float, !torch.int -> !torch.vtensor<[1,64,1],f32>
    %31 = torch.aten.rsqrt %30 : !torch.vtensor<[1,64,1],f32> -> !torch.vtensor<[1,64,1],f32>
    %int1_46 = torch.constant.int 1
    %32 = torch.aten.sub.Tensor %9, %result1, %int1_46 : !torch.vtensor<[1,64,1280],f16>, !torch.vtensor<[1,64,1],f32>, !torch.int -> !torch.vtensor<[1,64,1280],f32>
    %33 = torch.aten.mul.Tensor %32, %31 : !torch.vtensor<[1,64,1280],f32>, !torch.vtensor<[1,64,1],f32> -> !torch.vtensor<[1,64,1280],f32>
    %_params.text_encoder_model.text_model.encoder.layers.0.layer_norm1.weight = util.global.load @_params.text_encoder_model.text_model.encoder.layers.0.layer_norm1.weight : tensor<1280xf16>
    %34 = torch_c.from_builtin_tensor %_params.text_encoder_model.text_model.encoder.layers.0.layer_norm1.weight : tensor<1280xf16> -> !torch.vtensor<[1280],f16>
    %35 = torch.aten.mul.Tensor %33, %34 : !torch.vtensor<[1,64,1280],f32>, !torch.vtensor<[1280],f16> -> !torch.vtensor<[1,64,1280],f32>
    %_params.text_encoder_model.text_model.encoder.layers.0.layer_norm1.bias = util.global.load @_params.text_encoder_model.text_model.encoder.layers.0.layer_norm1.bias : tensor<1280xf16>
    %36 = torch_c.from_builtin_tensor %_params.text_encoder_model.text_model.encoder.layers.0.layer_norm1.bias : tensor<1280xf16> -> !torch.vtensor<[1280],f16>
    %int1_47 = torch.constant.int 1
    %37 = torch.aten.add.Tensor %35, %36, %int1_47 : !torch.vtensor<[1,64,1280],f32>, !torch.vtensor<[1280],f16>, !torch.int -> !torch.vtensor<[1,64,1280],f32>
    %int5_48 = torch.constant.int 5
    %38 = torch.prims.convert_element_type %37, %int5_48 : !torch.vtensor<[1,64,1280],f32>, !torch.int -> !torch.vtensor<[1,64,1280],f16>
    %int5_49 = torch.constant.int 5
    %39 = torch.prims.convert_element_type %result1, %int5_49 : !torch.vtensor<[1,64,1],f32>, !torch.int -> !torch.vtensor<[1,64,1],f16>
    %int5_50 = torch.constant.int 5
    %40 = torch.prims.convert_element_type %31, %int5_50 : !torch.vtensor<[1,64,1],f32>, !torch.int -> !torch.vtensor<[1,64,1],f16>
    %int64_51 = torch.constant.int 64
    %int1280 = torch.constant.int 1280
    %41 = torch.prim.ListConstruct %int64_51, %int1280 : (!torch.int, !torch.int) -> !torch.list<int>
    %42 = torch.aten.view %38, %41 : !torch.vtensor<[1,64,1280],f16>, !torch.list<int> -> !torch.vtensor<[64,1280],f16>
    %_params.text_encoder_model.text_model.encoder.layers.0.self_attn.q_proj.weight = util.global.load @_params.text_encoder_model.text_model.encoder.layers.0.self_attn.q_proj.weight : tensor<1280x1280xf16>
    %43 = torch_c.from_builtin_tensor %_params.text_encoder_model.text_model.encoder.layers.0.self_attn.q_proj.weight : tensor<1280x1280xf16> -> !torch.vtensor<[1280,1280],f16>
    %int0_52 = torch.constant.int 0
    %int1_53 = torch.constant.int 1
    %44 = torch.aten.transpose.int %43, %int0_52, %int1_53 : !torch.vtensor<[1280,1280],f16>, !torch.int, !torch.int -> !torch.vtensor<[1280,1280],f16>
    %_params.text_encoder_model.text_model.encoder.layers.0.self_attn.q_proj.bias = util.global.load @_params.text_encoder_model.text_model.encoder.layers.0.self_attn.q_proj.bias : tensor<1280xf16>
    %45 = torch_c.from_builtin_tensor %_params.text_encoder_model.text_model.encoder.layers.0.self_attn.q_proj.bias : tensor<1280xf16> -> !torch.vtensor<[1280],f16>
    %int6_54 = torch.constant.int 6
    %46 = torch.prims.convert_element_type %45, %int6_54 : !torch.vtensor<[1280],f16>, !torch.int -> !torch.vtensor<[1280],f32>
    %int6_55 = torch.constant.int 6
    %47 = torch.prims.convert_element_type %42, %int6_55 : !torch.vtensor<[64,1280],f16>, !torch.int -> !torch.vtensor<[64,1280],f32>
    %int6_56 = torch.constant.int 6
    %48 = torch.prims.convert_element_type %44, %int6_56 : !torch.vtensor<[1280,1280],f16>, !torch.int -> !torch.vtensor<[1280,1280],f32>
    %49 = torch.aten.mm %47, %48 : !torch.vtensor<[64,1280],f32>, !torch.vtensor<[1280,1280],f32> -> !torch.vtensor<[64,1280],f32>
    %int1_57 = torch.constant.int 1
    %50 = torch.aten.mul.Scalar %49, %int1_57 : !torch.vtensor<[64,1280],f32>, !torch.int -> !torch.vtensor<[64,1280],f32>
    %int1_58 = torch.constant.int 1
    %51 = torch.aten.mul.Scalar %46, %int1_58 : !torch.vtensor<[1280],f32>, !torch.int -> !torch.vtensor<[1280],f32>
    %int1_59 = torch.constant.int 1
    %52 = torch.aten.add.Tensor %50, %51, %int1_59 : !torch.vtensor<[64,1280],f32>, !torch.vtensor<[1280],f32>, !torch.int -> !torch.vtensor<[64,1280],f32>
    %int5_60 = torch.constant.int 5
    %53 = torch.prims.convert_element_type %52, %int5_60 : !torch.vtensor<[64,1280],f32>, !torch.int -> !torch.vtensor<[64,1280],f16>
    %int1_61 = torch.constant.int 1
    %int64_62 = torch.constant.int 64
    %int1280_63 = torch.constant.int 1280
    %54 = torch.prim.ListConstruct %int1_61, %int64_62, %int1280_63 : (!torch.int, !torch.int, !torch.int) -> !torch.list<int>
    %55 = torch.aten.view %53, %54 : !torch.vtensor<[64,1280],f16>, !torch.list<int> -> !torch.vtensor<[1,64,1280],f16>
    %float1.250000e-01 = torch.constant.float 1.250000e-01
    %56 = torch.aten.mul.Scalar %55, %float1.250000e-01 : !torch.vtensor<[1,64,1280],f16>, !torch.float -> !torch.vtensor<[1,64,1280],f16>
    %int64_64 = torch.constant.int 64
    %int1280_65 = torch.constant.int 1280
    %57 = torch.prim.ListConstruct %int64_64, %int1280_65 : (!torch.int, !torch.int) -> !torch.list<int>
    %58 = torch.aten.view %38, %57 : !torch.vtensor<[1,64,1280],f16>, !torch.list<int> -> !torch.vtensor<[64,1280],f16>
    %_params.text_encoder_model.text_model.encoder.layers.0.self_attn.k_proj.weight = util.global.load @_params.text_encoder_model.text_model.encoder.layers.0.self_attn.k_proj.weight : tensor<1280x1280xf16>
    %59 = torch_c.from_builtin_tensor %_params.text_encoder_model.text_model.encoder.layers.0.self_attn.k_proj.weight : tensor<1280x1280xf16> -> !torch.vtensor<[1280,1280],f16>
    %int0_66 = torch.constant.int 0
    %int1_67 = torch.constant.int 1
    %60 = torch.aten.transpose.int %59, %int0_66, %int1_67 : !torch.vtensor<[1280,1280],f16>, !torch.int, !torch.int -> !torch.vtensor<[1280,1280],f16>
    %_params.text_encoder_model.text_model.encoder.layers.0.self_attn.k_proj.bias = util.global.load @_params.text_encoder_model.text_model.encoder.layers.0.self_attn.k_proj.bias : tensor<1280xf16>
    %61 = torch_c.from_builtin_tensor %_params.text_encoder_model.text_model.encoder.layers.0.self_attn.k_proj.bias : tensor<1280xf16> -> !torch.vtensor<[1280],f16>
    %int6_68 = torch.constant.int 6
    %62 = torch.prims.convert_element_type %61, %int6_68 : !torch.vtensor<[1280],f16>, !torch.int -> !torch.vtensor<[1280],f32>
    %int6_69 = torch.constant.int 6
    %63 = torch.prims.convert_element_type %58, %int6_69 : !torch.vtensor<[64,1280],f16>, !torch.int -> !torch.vtensor<[64,1280],f32>
    %int6_70 = torch.constant.int 6
    %64 = torch.prims.convert_element_type %60, %int6_70 : !torch.vtensor<[1280,1280],f16>, !torch.int -> !torch.vtensor<[1280,1280],f32>
    %65 = torch.aten.mm %63, %64 : !torch.vtensor<[64,1280],f32>, !torch.vtensor<[1280,1280],f32> -> !torch.vtensor<[64,1280],f32>
    %int1_71 = torch.constant.int 1
    %66 = torch.aten.mul.Scalar %65, %int1_71 : !torch.vtensor<[64,1280],f32>, !torch.int -> !torch.vtensor<[64,1280],f32>
    %int1_72 = torch.constant.int 1
    %67 = torch.aten.mul.Scalar %62, %int1_72 : !torch.vtensor<[1280],f32>, !torch.int -> !torch.vtensor<[1280],f32>
    %int1_73 = torch.constant.int 1
    %68 = torch.aten.add.Tensor %66, %67, %int1_73 : !torch.vtensor<[64,1280],f32>, !torch.vtensor<[1280],f32>, !torch.int -> !torch.vtensor<[64,1280],f32>
    %int5_74 = torch.constant.int 5
    %69 = torch.prims.convert_element_type %68, %int5_74 : !torch.vtensor<[64,1280],f32>, !torch.int -> !torch.vtensor<[64,1280],f16>
    %int1_75 = torch.constant.int 1
    %int64_76 = torch.constant.int 64
    %int1280_77 = torch.constant.int 1280
    %70 = torch.prim.ListConstruct %int1_75, %int64_76, %int1280_77 : (!torch.int, !torch.int, !torch.int) -> !torch.list<int>
    %71 = torch.aten.view %69, %70 : !torch.vtensor<[64,1280],f16>, !torch.list<int> -> !torch.vtensor<[1,64,1280],f16>
    %int1_78 = torch.constant.int 1
    %int-1_79 = torch.constant.int -1
    %int20 = torch.constant.int 20
    %int64_80 = torch.constant.int 64
    %72 = torch.prim.ListConstruct %int1_78, %int-1_79, %int20, %int64_80 : (!torch.int, !torch.int, !torch.int, !torch.int) -> !torch.list<int>
    %73 = torch.aten.view %71, %72 : !torch.vtensor<[1,64,1280],f16>, !torch.list<int> -> !torch.vtensor<[1,64,20,64],f16>
    %int1_81 = torch.constant.int 1
    %int2_82 = torch.constant.int 2
    %74 = torch.aten.transpose.int %73, %int1_81, %int2_82 : !torch.vtensor<[1,64,20,64],f16>, !torch.int, !torch.int -> !torch.vtensor<[1,20,64,64],f16>
    %int0_83 = torch.constant.int 0
    %75 = torch.aten.clone %74, %int0_83 : !torch.vtensor<[1,20,64,64],f16>, !torch.int -> !torch.vtensor<[1,20,64,64],f16>
    %int64_84 = torch.constant.int 64
    %int1280_85 = torch.constant.int 1280
    %76 = torch.prim.ListConstruct %int64_84, %int1280_85 : (!torch.int, !torch.int) -> !torch.list<int>
    %77 = torch.aten.view %38, %76 : !torch.vtensor<[1,64,1280],f16>, !torch.list<int> -> !torch.vtensor<[64,1280],f16>
    %_params.text_encoder_model.text_model.encoder.layers.0.self_attn.v_proj.weight = util.global.load @_params.text_encoder_model.text_model.encoder.layers.0.self_attn.v_proj.weight : tensor<1280x1280xf16>
    %78 = torch_c.from_builtin_tensor %_params.text_encoder_model.text_model.encoder.layers.0.self_attn.v_proj.weight : tensor<1280x1280xf16> -> !torch.vtensor<[1280,1280],f16>
    %int0_86 = torch.constant.int 0
    %int1_87 = torch.constant.int 1
    %79 = torch.aten.transpose.int %78, %int0_86, %int1_87 : !torch.vtensor<[1280,1280],f16>, !torch.int, !torch.int -> !torch.vtensor<[1280,1280],f16>
    %_params.text_encoder_model.text_model.encoder.layers.0.self_attn.v_proj.bias = util.global.load @_params.text_encoder_model.text_model.encoder.layers.0.self_attn.v_proj.bias : tensor<1280xf16>
    %80 = torch_c.from_builtin_tensor %_params.text_encoder_model.text_model.encoder.layers.0.self_attn.v_proj.bias : tensor<1280xf16> -> !torch.vtensor<[1280],f16>
    %int6_88 = torch.constant.int 6
    %81 = torch.prims.convert_element_type %80, %int6_88 : !torch.vtensor<[1280],f16>, !torch.int -> !torch.vtensor<[1280],f32>
    %int6_89 = torch.constant.int 6
    %82 = torch.prims.convert_element_type %77, %int6_89 : !torch.vtensor<[64,1280],f16>, !torch.int -> !torch.vtensor<[64,1280],f32>
    %int6_90 = torch.constant.int 6
    %83 = torch.prims.convert_element_type %79, %int6_90 : !torch.vtensor<[1280,1280],f16>, !torch.int -> !torch.vtensor<[1280,1280],f32>
    %84 = torch.aten.mm %82, %83 : !torch.vtensor<[64,1280],f32>, !torch.vtensor<[1280,1280],f32> -> !torch.vtensor<[64,1280],f32>
    %int1_91 = torch.constant.int 1
    %85 = torch.aten.mul.Scalar %84, %int1_91 : !torch.vtensor<[64,1280],f32>, !torch.int -> !torch.vtensor<[64,1280],f32>
    %int1_92 = torch.constant.int 1
    %86 = torch.aten.mul.Scalar %81, %int1_92 : !torch.vtensor<[1280],f32>, !torch.int -> !torch.vtensor<[1280],f32>
    %int1_93 = torch.constant.int 1
    %87 = torch.aten.add.Tensor %85, %86, %int1_93 : !torch.vtensor<[64,1280],f32>, !torch.vtensor<[1280],f32>, !torch.int -> !torch.vtensor<[64,1280],f32>
    %int5_94 = torch.constant.int 5
    %88 = torch.prims.convert_element_type %87, %int5_94 : !torch.vtensor<[64,1280],f32>, !torch.int -> !torch.vtensor<[64,1280],f16>
    %int1_95 = torch.constant.int 1
    %int64_96 = torch.constant.int 64
    %int1280_97 = torch.constant.int 1280
    %89 = torch.prim.ListConstruct %int1_95, %int64_96, %int1280_97 : (!torch.int, !torch.int, !torch.int) -> !torch.list<int>
    %90 = torch.aten.view %88, %89 : !torch.vtensor<[64,1280],f16>, !torch.list<int> -> !torch.vtensor<[1,64,1280],f16>
    %int1_98 = torch.constant.int 1
    %int-1_99 = torch.constant.int -1
    %int20_100 = torch.constant.int 20
    %int64_101 = torch.constant.int 64
    %91 = torch.prim.ListConstruct %int1_98, %int-1_99, %int20_100, %int64_101 : (!torch.int, !torch.int, !torch.int, !torch.int) -> !torch.list<int>
    %92 = torch.aten.view %90, %91 : !torch.vtensor<[1,64,1280],f16>, !torch.list<int> -> !torch.vtensor<[1,64,20,64],f16>
    %int1_102 = torch.constant.int 1
    %int2_103 = torch.constant.int 2
    %93 = torch.aten.transpose.int %92, %int1_102, %int2_103 : !torch.vtensor<[1,64,20,64],f16>, !torch.int, !torch.int -> !torch.vtensor<[1,20,64,64],f16>
    %int0_104 = torch.constant.int 0
    %94 = torch.aten.clone %93, %int0_104 : !torch.vtensor<[1,20,64,64],f16>, !torch.int -> !torch.vtensor<[1,20,64,64],f16>
    %int1_105 = torch.constant.int 1
    %int64_106 = torch.constant.int 64
    %int20_107 = torch.constant.int 20
    %int64_108 = torch.constant.int 64
    %95 = torch.prim.ListConstruct %int1_105, %int64_106, %int20_107, %int64_108 : (!torch.int, !torch.int, !torch.int, !torch.int) -> !torch.list<int>
    %96 = torch.aten.view %56, %95 : !torch.vtensor<[1,64,1280],f16>, !torch.list<int> -> !torch.vtensor<[1,64,20,64],f16>
    %int1_109 = torch.constant.int 1
    %int2_110 = torch.constant.int 2
    %97 = torch.aten.transpose.int %96, %int1_109, %int2_110 : !torch.vtensor<[1,64,20,64],f16>, !torch.int, !torch.int -> !torch.vtensor<[1,20,64,64],f16>
    %int0_111 = torch.constant.int 0
    %98 = torch.aten.clone %97, %int0_111 : !torch.vtensor<[1,20,64,64],f16>, !torch.int -> !torch.vtensor<[1,20,64,64],f16>
    %int20_112 = torch.constant.int 20
    %int-1_113 = torch.constant.int -1
    %int64_114 = torch.constant.int 64
    %99 = torch.prim.ListConstruct %int20_112, %int-1_113, %int64_114 : (!torch.int, !torch.int, !torch.int) -> !torch.list<int>
    %100 = torch.aten.view %98, %99 : !torch.vtensor<[1,20,64,64],f16>, !torch.list<int> -> !torch.vtensor<[20,64,64],f16>
    %int20_115 = torch.constant.int 20
    %int-1_116 = torch.constant.int -1
    %int64_117 = torch.constant.int 64
    %101 = torch.prim.ListConstruct %int20_115, %int-1_116, %int64_117 : (!torch.int, !torch.int, !torch.int) -> !torch.list<int>
    %102 = torch.aten.view %75, %101 : !torch.vtensor<[1,20,64,64],f16>, !torch.list<int> -> !torch.vtensor<[20,64,64],f16>
    %int20_118 = torch.constant.int 20
    %int-1_119 = torch.constant.int -1
    %int64_120 = torch.constant.int 64
    %103 = torch.prim.ListConstruct %int20_118, %int-1_119, %int64_120 : (!torch.int, !torch.int, !torch.int) -> !torch.list<int>
    %104 = torch.aten.view %94, %103 : !torch.vtensor<[1,20,64,64],f16>, !torch.list<int> -> !torch.vtensor<[20,64,64],f16>
    %int1_121 = torch.constant.int 1
    %int2_122 = torch.constant.int 2
    %105 = torch.aten.transpose.int %102, %int1_121, %int2_122 : !torch.vtensor<[20,64,64],f16>, !torch.int, !torch.int -> !torch.vtensor<[20,64,64],f16>
    %106 = torch.aten.bmm %100, %105 : !torch.vtensor<[20,64,64],f16>, !torch.vtensor<[20,64,64],f16> -> !torch.vtensor<[20,64,64],f16>
    %int1_123 = torch.constant.int 1
    %int20_124 = torch.constant.int 20
    %int64_125 = torch.constant.int 64
    %int64_126 = torch.constant.int 64
    %107 = torch.prim.ListConstruct %int1_123, %int20_124, %int64_125, %int64_126 : (!torch.int, !torch.int, !torch.int, !torch.int) -> !torch.list<int>
    %108 = torch.aten.view %106, %107 : !torch.vtensor<[20,64,64],f16>, !torch.list<int> -> !torch.vtensor<[1,20,64,64],f16>
    %int1_127 = torch.constant.int 1
    %109 = torch.aten.add.Tensor %108, %27, %int1_127 : !torch.vtensor<[1,20,64,64],f16>, !torch.vtensor<[1,1,64,64],f16>, !torch.int -> !torch.vtensor<[1,20,64,64],f16>
    %int20_128 = torch.constant.int 20
    %int64_129 = torch.constant.int 64
    %int64_130 = torch.constant.int 64
    %110 = torch.prim.ListConstruct %int20_128, %int64_129, %int64_130 : (!torch.int, !torch.int, !torch.int) -> !torch.list<int>
    %111 = torch.aten.view %109, %110 : !torch.vtensor<[1,20,64,64],f16>, !torch.list<int> -> !torch.vtensor<[20,64,64],f16>
    %int-1_131 = torch.constant.int -1
    %false_132 = torch.constant.bool false
    %112 = torch.aten._softmax %111, %int-1_131, %false_132 : !torch.vtensor<[20,64,64],f16>, !torch.int, !torch.bool -> !torch.vtensor<[20,64,64],f16>
    %113 = torch.aten.detach %112 : !torch.vtensor<[20,64,64],f16> -> !torch.vtensor<[20,64,64],f16>
    %none_133 = torch.constant.none
    %114 = torch.aten.clone %112, %none_133 : !torch.vtensor<[20,64,64],f16>, !torch.none -> !torch.vtensor<[20,64,64],f16>
    %115 = torch.aten.bmm %114, %104 : !torch.vtensor<[20,64,64],f16>, !torch.vtensor<[20,64,64],f16> -> !torch.vtensor<[20,64,64],f16>
    %int1_134 = torch.constant.int 1
    %int20_135 = torch.constant.int 20
    %int64_136 = torch.constant.int 64
    %int64_137 = torch.constant.int 64
    %116 = torch.prim.ListConstruct %int1_134, %int20_135, %int64_136, %int64_137 : (!torch.int, !torch.int, !torch.int, !torch.int) -> !torch.list<int>
    %117 = torch.aten.view %115, %116 : !torch.vtensor<[20,64,64],f16>, !torch.list<int> -> !torch.vtensor<[1,20,64,64],f16>
    %int1_138 = torch.constant.int 1
    %int2_139 = torch.constant.int 2
    %118 = torch.aten.transpose.int %117, %int1_138, %int2_139 : !torch.vtensor<[1,20,64,64],f16>, !torch.int, !torch.int -> !torch.vtensor<[1,64,20,64],f16>
    %int0_140 = torch.constant.int 0
    %119 = torch.aten.clone %118, %int0_140 : !torch.vtensor<[1,64,20,64],f16>, !torch.int -> !torch.vtensor<[1,64,20,64],f16>
    %int1_141 = torch.constant.int 1
    %int64_142 = torch.constant.int 64
    %int1280_143 = torch.constant.int 1280
    %120 = torch.prim.ListConstruct %int1_141, %int64_142, %int1280_143 : (!torch.int, !torch.int, !torch.int) -> !torch.list<int>
    %121 = torch.aten._unsafe_view %119, %120 : !torch.vtensor<[1,64,20,64],f16>, !torch.list<int> -> !torch.vtensor<[1,64,1280],f16>
    %int64_144 = torch.constant.int 64
    %int1280_145 = torch.constant.int 1280
    %122 = torch.prim.ListConstruct %int64_144, %int1280_145 : (!torch.int, !torch.int) -> !torch.list<int>
    %123 = torch.aten.view %121, %122 : !torch.vtensor<[1,64,1280],f16>, !torch.list<int> -> !torch.vtensor<[64,1280],f16>
    %_params.text_encoder_model.text_model.encoder.layers.0.self_attn.out_proj.weight = util.global.load @_params.text_encoder_model.text_model.encoder.layers.0.self_attn.out_proj.weight : tensor<1280x1280xf16>
…
    %4772 = torch.prim.ListConstruct %int64_5152, %int1280_5153 : (!torch.int, !torch.int) -> !torch.list<int>
    %4773 = torch.aten.view %4771, %4772 : !torch.vtensor<[1,64,1280],f16>, !torch.list<int> -> !torch.vtensor<[64,1280],f16>
    %_params.text_encoder_model.text_model.encoder.layers.30.self_attn.out_proj.weight = util.global.load @_params.text_encoder_model.text_model.encoder.layers.30.self_attn.out_proj.weight : tensor<1280x1280xf16>
    %4774 = torch_c.from_builtin_tensor %_params.text_encoder_model.text_model.encoder.layers.30.self_attn.out_proj.weight : tensor<1280x1280xf16> -> !torch.vtensor<[1280,1280],f16>
    %int0_5154 = torch.constant.int 0
    %int1_5155 = torch.constant.int 1
    %4775 = torch.aten.transpose.int %4774, %int0_5154, %int1_5155 : !torch.vtensor<[1280,1280],f16>, !torch.int, !torch.int -> !torch.vtensor<[1280,1280],f16>
    %_params.text_encoder_model.text_model.encoder.layers.30.self_attn.out_proj.bias = util.global.load @_params.text_encoder_model.text_model.encoder.layers.30.self_attn.out_proj.bias : tensor<1280xf16>
    %4776 = torch_c.from_builtin_tensor %_params.text_encoder_model.text_model.encoder.layers.30.self_attn.out_proj.bias : tensor<1280xf16> -> !torch.vtensor<[1280],f16>
    %int6_5156 = torch.constant.int 6
    %4777 = torch.prims.convert_element_type %4776, %int6_5156 : !torch.vtensor<[1280],f16>, !torch.int -> !torch.vtensor<[1280],f32>
    %int6_5157 = torch.constant.int 6
    %4778 = torch.prims.convert_element_type %4773, %int6_5157 : !torch.vtensor<[64,1280],f16>, !torch.int -> !torch.vtensor<[64,1280],f32>
    %int6_5158 = torch.constant.int 6
    %4779 = torch.prims.convert_element_type %4775, %int6_5158 : !torch.vtensor<[1280,1280],f16>, !torch.int -> !torch.vtensor<[1280,1280],f32>
    %4780 = torch.aten.mm %4778, %4779 : !torch.vtensor<[64,1280],f32>, !torch.vtensor<[1280,1280],f32> -> !torch.vtensor<[64,1280],f32>
    %int1_5159 = torch.constant.int 1
    %4781 = torch.aten.mul.Scalar %4780, %int1_5159 : !torch.vtensor<[64,1280],f32>, !torch.int -> !torch.vtensor<[64,1280],f32>
    %int1_5160 = torch.constant.int 1
    %4782 = torch.aten.mul.Scalar %4777, %int1_5160 : !torch.vtensor<[1280],f32>, !torch.int -> !torch.vtensor<[1280],f32>
    %int1_5161 = torch.constant.int 1
    %4783 = torch.aten.add.Tensor %4781, %4782, %int1_5161 : !torch.vtensor<[64,1280],f32>, !torch.vtensor<[1280],f32>, !torch.int -> !torch.vtensor<[64,1280],f32>
    %int5_5162 = torch.constant.int 5
    %4784 = torch.prims.convert_element_type %4783, %int5_5162 : !torch.vtensor<[64,1280],f32>, !torch.int -> !torch.vtensor<[64,1280],f16>
    %int1_5163 = torch.constant.int 1
    %int64_5164 = torch.constant.int 64
    %int1280_5165 = torch.constant.int 1280
    %4785 = torch.prim.ListConstruct %int1_5163, %int64_5164, %int1280_5165 : (!torch.int, !torch.int, !torch.int) -> !torch.list<int>
    %4786 = torch.aten.view %4784, %4785 : !torch.vtensor<[64,1280],f16>, !torch.list<int> -> !torch.vtensor<[1,64,1280],f16>
    %int1_5166 = torch.constant.int 1
    %4787 = torch.aten.add.Tensor %4677, %4786, %int1_5166 : !torch.vtensor<[1,64,1280],f16>, !torch.vtensor<[1,64,1280],f16>, !torch.int -> !torch.vtensor<[1,64,1280],f16>
    %int6_5167 = torch.constant.int 6
    %4788 = torch.prims.convert_element_type %4787, %int6_5167 : !torch.vtensor<[1,64,1280],f16>, !torch.int -> !torch.vtensor<[1,64,1280],f32>
    %int2_5168 = torch.constant.int 2
    %4789 = torch.prim.ListConstruct %int2_5168 : (!torch.int) -> !torch.list<int>
    %int0_5169 = torch.constant.int 0
    %true_5170 = torch.constant.bool true
    %result0_5171, %result1_5172 = torch.aten.var_mean.correction %4788, %4789, %int0_5169, %true_5170 : !torch.vtensor<[1,64,1280],f32>, !torch.list<int>, !torch.int, !torch.bool -> !torch.vtensor<[1,64,1],f32>, !torch.vtensor<[1,64,1],f32>
    %float1.000000e-05_5173 = torch.constant.float 1.000000e-05
    %int1_5174 = torch.constant.int 1
    %4790 = torch.aten.add.Scalar %result0_5171, %float1.000000e-05_5173, %int1_5174 : !torch.vtensor<[1,64,1],f32>, !torch.float, !torch.int -> !torch.vtensor<[1,64,1],f32>
    %4791 = torch.aten.rsqrt %4790 : !torch.vtensor<[1,64,1],f32> -> !torch.vtensor<[1,64,1],f32>
    %int1_5175 = torch.constant.int 1
    %4792 = torch.aten.sub.Tensor %4787, %result1_5172, %int1_5175 : !torch.vtensor<[1,64,1280],f16>, !torch.vtensor<[1,64,1],f32>, !torch.int -> !torch.vtensor<[1,64,1280],f32>
    %4793 = torch.aten.mul.Tensor %4792, %4791 : !torch.vtensor<[1,64,1280],f32>, !torch.vtensor<[1,64,1],f32> -> !torch.vtensor<[1,64,1280],f32>
    %_params.text_encoder_model.text_model.encoder.layers.30.layer_norm2.weight = util.global.load @_params.text_encoder_model.text_model.encoder.layers.30.layer_norm2.weight : tensor<1280xf16>
    %4794 = torch_c.from_builtin_tensor %_params.text_encoder_model.text_model.encoder.layers.30.layer_norm2.weight : tensor<1280xf16> -> !torch.vtensor<[1280],f16>
    %4795 = torch.aten.mul.Tensor %4793, %4794 : !torch.vtensor<[1,64,1280],f32>, !torch.vtensor<[1280],f16> -> !torch.vtensor<[1,64,1280],f32>
    %_params.text_encoder_model.text_model.encoder.layers.30.layer_norm2.bias = util.global.load @_params.text_encoder_model.text_model.encoder.layers.30.layer_norm2.bias : tensor<1280xf16>
    %4796 = torch_c.from_builtin_tensor %_params.text_encoder_model.text_model.encoder.layers.30.layer_norm2.bias : tensor<1280xf16> -> !torch.vtensor<[1280],f16>
    %int1_5176 = torch.constant.int 1
    %4797 = torch.aten.add.Tensor %4795, %4796, %int1_5176 : !torch.vtensor<[1,64,1280],f32>, !torch.vtensor<[1280],f16>, !torch.int -> !torch.vtensor<[1,64,1280],f32>
    %int5_5177 = torch.constant.int 5
    %4798 = torch.prims.convert_element_type %4797, %int5_5177 : !torch.vtensor<[1,64,1280],f32>, !torch.int -> !torch.vtensor<[1,64,1280],f16>
    %int5_5178 = torch.constant.int 5
    %4799 = torch.prims.convert_element_type %result1_5172, %int5_5178 : !torch.vtensor<[1,64,1],f32>, !torch.int -> !torch.vtensor<[1,64,1],f16>
    %int5_5179 = torch.constant.int 5
    %4800 = torch.prims.convert_element_type %4791, %int5_5179 : !torch.vtensor<[1,64,1],f32>, !torch.int -> !torch.vtensor<[1,64,1],f16>
    %int64_5180 = torch.constant.int 64
    %int1280_5181 = torch.constant.int 1280
    %4801 = torch.prim.ListConstruct %int64_5180, %int1280_5181 : (!torch.int, !torch.int) -> !torch.list<int>
    %4802 = torch.aten.view %4798, %4801 : !torch.vtensor<[1,64,1280],f16>, !torch.list<int> -> !torch.vtensor<[64,1280],f16>
    %_params.text_encoder_model.text_model.encoder.layers.30.mlp.fc1.weight = util.global.load @_params.text_encoder_model.text_model.encoder.layers.30.mlp.fc1.weight : tensor<5120x1280xf16>
    %4803 = torch_c.from_builtin_tensor %_params.text_encoder_model.text_model.encoder.layers.30.mlp.fc1.weight : tensor<5120x1280xf16> -> !torch.vtensor<[5120,1280],f16>
    %int0_5182 = torch.constant.int 0
    %int1_5183 = torch.constant.int 1
    %4804 = torch.aten.transpose.int %4803, %int0_5182, %int1_5183 : !torch.vtensor<[5120,1280],f16>, !torch.int, !torch.int -> !torch.vtensor<[1280,5120],f16>
    %_params.text_encoder_model.text_model.encoder.layers.30.mlp.fc1.bias = util.global.load @_params.text_encoder_model.text_model.encoder.layers.30.mlp.fc1.bias : tensor<5120xf16>
    %4805 = torch_c.from_builtin_tensor %_params.text_encoder_model.text_model.encoder.layers.30.mlp.fc1.bias : tensor<5120xf16> -> !torch.vtensor<[5120],f16>
    %int6_5184 = torch.constant.int 6
    %4806 = torch.prims.convert_element_type %4805, %int6_5184 : !torch.vtensor<[5120],f16>, !torch.int -> !torch.vtensor<[5120],f32>
    %int6_5185 = torch.constant.int 6
    %4807 = torch.prims.convert_element_type %4802, %int6_5185 : !torch.vtensor<[64,1280],f16>, !torch.int -> !torch.vtensor<[64,1280],f32>
    %int6_5186 = torch.constant.int 6
    %4808 = torch.prims.convert_element_type %4804, %int6_5186 : !torch.vtensor<[1280,5120],f16>, !torch.int -> !torch.vtensor<[1280,5120],f32>
    %4809 = torch.aten.mm %4807, %4808 : !torch.vtensor<[64,1280],f32>, !torch.vtensor<[1280,5120],f32> -> !torch.vtensor<[64,5120],f32>
    %int1_5187 = torch.constant.int 1
    %4810 = torch.aten.mul.Scalar %4809, %int1_5187 : !torch.vtensor<[64,5120],f32>, !torch.int -> !torch.vtensor<[64,5120],f32>
    %int1_5188 = torch.constant.int 1
    %4811 = torch.aten.mul.Scalar %4806, %int1_5188 : !torch.vtensor<[5120],f32>, !torch.int -> !torch.vtensor<[5120],f32>
    %int1_5189 = torch.constant.int 1
    %4812 = torch.aten.add.Tensor %4810, %4811, %int1_5189 : !torch.vtensor<[64,5120],f32>, !torch.vtensor<[5120],f32>, !torch.int -> !torch.vtensor<[64,5120],f32>
    %int5_5190 = torch.constant.int 5
    %4813 = torch.prims.convert_element_type %4812, %int5_5190 : !torch.vtensor<[64,5120],f32>, !torch.int -> !torch.vtensor<[64,5120],f16>
    %int1_5191 = torch.constant.int 1
    %int64_5192 = torch.constant.int 64
    %int5120_5193 = torch.constant.int 5120
    %4814 = torch.prim.ListConstruct %int1_5191, %int64_5192, %int5120_5193 : (!torch.int, !torch.int, !torch.int) -> !torch.list<int>
    %4815 = torch.aten.view %4813, %4814 : !torch.vtensor<[64,5120],f16>, !torch.list<int> -> !torch.vtensor<[1,64,5120],f16>
    %str_5194 = torch.constant.str "none"
    %4816 = torch.aten.gelu %4815, %str_5194 : !torch.vtensor<[1,64,5120],f16>, !torch.str -> !torch.vtensor<[1,64,5120],f16>
    %int64_5195 = torch.constant.int 64
    %int5120_5196 = torch.constant.int 5120
    %4817 = torch.prim.ListConstruct %int64_5195, %int5120_5196 : (!torch.int, !torch.int) -> !torch.list<int>
    %4818 = torch.aten.view %4816, %4817 : !torch.vtensor<[1,64,5120],f16>, !torch.list<int> -> !torch.vtensor<[64,5120],f16>
    %_params.text_encoder_model.text_model.encoder.layers.30.mlp.fc2.weight = util.global.load @_params.text_encoder_model.text_model.encoder.layers.30.mlp.fc2.weight : tensor<1280x5120xf16>
    %4819 = torch_c.from_builtin_tensor %_params.text_encoder_model.text_model.encoder.layers.30.mlp.fc2.weight : tensor<1280x5120xf16> -> !torch.vtensor<[1280,5120],f16>
    %int0_5197 = torch.constant.int 0
    %int1_5198 = torch.constant.int 1
    %4820 = torch.aten.transpose.int %4819, %int0_5197, %int1_5198 : !torch.vtensor<[1280,5120],f16>, !torch.int, !torch.int -> !torch.vtensor<[5120,1280],f16>
    %_params.text_encoder_model.text_model.encoder.layers.30.mlp.fc2.bias = util.global.load @_params.text_encoder_model.text_model.encoder.layers.30.mlp.fc2.bias : tensor<1280xf16>
    %4821 = torch_c.from_builtin_tensor %_params.text_encoder_model.text_model.encoder.layers.30.mlp.fc2.bias : tensor<1280xf16> -> !torch.vtensor<[1280],f16>
    %int6_5199 = torch.constant.int 6
    %4822 = torch.prims.convert_element_type %4821, %int6_5199 : !torch.vtensor<[1280],f16>, !torch.int -> !torch.vtensor<[1280],f32>
    %int6_5200 = torch.constant.int 6
    %4823 = torch.prims.convert_element_type %4818, %int6_5200 : !torch.vtensor<[64,5120],f16>, !torch.int -> !torch.vtensor<[64,5120],f32>
    %int6_5201 = torch.constant.int 6
    %4824 = torch.prims.convert_element_type %4820, %int6_5201 : !torch.vtensor<[5120,1280],f16>, !torch.int -> !torch.vtensor<[5120,1280],f32>
    %4825 = torch.aten.mm %4823, %4824 : !torch.vtensor<[64,5120],f32>, !torch.vtensor<[5120,1280],f32> -> !torch.vtensor<[64,1280],f32>
    %int1_5202 = torch.constant.int 1
    %4826 = torch.aten.mul.Scalar %4825, %int1_5202 : !torch.vtensor<[64,1280],f32>, !torch.int -> !torch.vtensor<[64,1280],f32>
    %int1_5203 = torch.constant.int 1
    %4827 = torch.aten.mul.Scalar %4822, %int1_5203 : !torch.vtensor<[1280],f32>, !torch.int -> !torch.vtensor<[1280],f32>
    %int1_5204 = torch.constant.int 1
    %4828 = torch.aten.add.Tensor %4826, %4827, %int1_5204 : !torch.vtensor<[64,1280],f32>, !torch.vtensor<[1280],f32>, !torch.int -> !torch.vtensor<[64,1280],f32>
    %int5_5205 = torch.constant.int 5
    %4829 = torch.prims.convert_element_type %4828, %int5_5205 : !torch.vtensor<[64,1280],f32>, !torch.int -> !torch.vtensor<[64,1280],f16>
    %int1_5206 = torch.constant.int 1
    %int64_5207 = torch.constant.int 64
    %int1280_5208 = torch.constant.int 1280
    %4830 = torch.prim.ListConstruct %int1_5206, %int64_5207, %int1280_5208 : (!torch.int, !torch.int, !torch.int) -> !torch.list<int>
    %4831 = torch.aten.view %4829, %4830 : !torch.vtensor<[64,1280],f16>, !torch.list<int> -> !torch.vtensor<[1,64,1280],f16>
    %int1_5209 = torch.constant.int 1
    %4832 = torch.aten.add.Tensor %4787, %4831, %int1_5209 : !torch.vtensor<[1,64,1280],f16>, !torch.vtensor<[1,64,1280],f16>, !torch.int -> !torch.vtensor<[1,64,1280],f16>
    %int6_5210 = torch.constant.int 6
    %4833 = torch.prims.convert_element_type %4832, %int6_5210 : !torch.vtensor<[1,64,1280],f16>, !torch.int -> !torch.vtensor<[1,64,1280],f32>
    %int2_5211 = torch.constant.int 2
    %4834 = torch.prim.ListConstruct %int2_5211 : (!torch.int) -> !torch.list<int>
    %int0_5212 = torch.constant.int 0
    %true_5213 = torch.constant.bool true
    %result0_5214, %result1_5215 = torch.aten.var_mean.correction %4833, %4834, %int0_5212, %true_5213 : !torch.vtensor<[1,64,1280],f32>, !torch.list<int>, !torch.int, !torch.bool -> !torch.vtensor<[1,64,1],f32>, !torch.vtensor<[1,64,1],f32>
    %float1.000000e-05_5216 = torch.constant.float 1.000000e-05
    %int1_5217 = torch.constant.int 1
    %4835 = torch.aten.add.Scalar %result0_5214, %float1.000000e-05_5216, %int1_5217 : !torch.vtensor<[1,64,1],f32>, !torch.float, !torch.int -> !torch.vtensor<[1,64,1],f32>
    %4836 = torch.aten.rsqrt %4835 : !torch.vtensor<[1,64,1],f32> -> !torch.vtensor<[1,64,1],f32>
    %int1_5218 = torch.constant.int 1
    %4837 = torch.aten.sub.Tensor %4832, %result1_5215, %int1_5218 : !torch.vtensor<[1,64,1280],f16>, !torch.vtensor<[1,64,1],f32>, !torch.int -> !torch.vtensor<[1,64,1280],f32>
    %4838 = torch.aten.mul.Tensor %4837, %4836 : !torch.vtensor<[1,64,1280],f32>, !torch.vtensor<[1,64,1],f32> -> !torch.vtensor<[1,64,1280],f32>
    %_params.text_encoder_model.text_model.encoder.layers.31.layer_norm1.weight = util.global.load @_params.text_encoder_model.text_model.encoder.layers.31.layer_norm1.weight : tensor<1280xf16>
    %4839 = torch_c.from_builtin_tensor %_params.text_encoder_model.text_model.encoder.layers.31.layer_norm1.weight : tensor<1280xf16> -> !torch.vtensor<[1280],f16>
    %4840 = torch.aten.mul.Tensor %4838, %4839 : !torch.vtensor<[1,64,1280],f32>, !torch.vtensor<[1280],f16> -> !torch.vtensor<[1,64,1280],f32>
    %_params.text_encoder_model.text_model.encoder.layers.31.layer_norm1.bias = util.global.load @_params.text_encoder_model.text_model.encoder.layers.31.layer_norm1.bias : tensor<1280xf16>
    %4841 = torch_c.from_builtin_tensor %_params.text_encoder_model.text_model.encoder.layers.31.layer_norm1.bias : tensor<1280xf16> -> !torch.vtensor<[1280],f16>
    %int1_5219 = torch.constant.int 1
    %4842 = torch.aten.add.Tensor %4840, %4841, %int1_5219 : !torch.vtensor<[1,64,1280],f32>, !torch.vtensor<[1280],f16>, !torch.int -> !torch.vtensor<[1,64,1280],f32>
    %int5_5220 = torch.constant.int 5
    %4843 = torch.prims.convert_element_type %4842, %int5_5220 : !torch.vtensor<[1,64,1280],f32>, !torch.int -> !torch.vtensor<[1,64,1280],f16>
    %int5_5221 = torch.constant.int 5
    %4844 = torch.prims.convert_element_type %result1_5215, %int5_5221 : !torch.vtensor<[1,64,1],f32>, !torch.int -> !torch.vtensor<[1,64,1],f16>
    %int5_5222 = torch.constant.int 5
    %4845 = torch.prims.convert_element_type %4836, %int5_5222 : !torch.vtensor<[1,64,1],f32>, !torch.int -> !torch.vtensor<[1,64,1],f16>
    %int64_5223 = torch.constant.int 64
    %int1280_5224 = torch.constant.int 1280
    %4846 = torch.prim.ListConstruct %int64_5223, %int1280_5224 : (!torch.int, !torch.int) -> !torch.list<int>
    %4847 = torch.aten.view %4843, %4846 : !torch.vtensor<[1,64,1280],f16>, !torch.list<int> -> !torch.vtensor<[64,1280],f16>
    %_params.text_encoder_model.text_model.encoder.layers.31.self_attn.q_proj.weight = util.global.load @_params.text_encoder_model.text_model.encoder.layers.31.self_attn.q_proj.weight : tensor<1280x1280xf16>
    %4848 = torch_c.from_builtin_tensor %_params.text_encoder_model.text_model.encoder.layers.31.self_attn.q_proj.weight : tensor<1280x1280xf16> -> !torch.vtensor<[1280,1280],f16>
    %int0_5225 = torch.constant.int 0
    %int1_5226 = torch.constant.int 1
    %4849 = torch.aten.transpose.int %4848, %int0_5225, %int1_5226 : !torch.vtensor<[1280,1280],f16>, !torch.int, !torch.int -> !torch.vtensor<[1280,1280],f16>
    %_params.text_encoder_model.text_model.encoder.layers.31.self_attn.q_proj.bias = util.global.load @_params.text_encoder_model.text_model.encoder.layers.31.self_attn.q_proj.bias : tensor<1280xf16>
    %4850 = torch_c.from_builtin_tensor %_params.text_encoder_model.text_model.encoder.layers.31.self_attn.q_proj.bias : tensor<1280xf16> -> !torch.vtensor<[1280],f16>
    %int6_5227 = torch.constant.int 6
    %4851 = torch.prims.convert_element_type %4850, %int6_5227 : !torch.vtensor<[1280],f16>, !torch.int -> !torch.vtensor<[1280],f32>
    %int6_5228 = torch.constant.int 6
    %4852 = torch.prims.convert_element_type %4847, %int6_5228 : !torch.vtensor<[64,1280],f16>, !torch.int -> !torch.vtensor<[64,1280],f32>
    %int6_5229 = torch.constant.int 6
    %4853 = torch.prims.convert_element_type %4849, %int6_5229 : !torch.vtensor<[1280,1280],f16>, !torch.int -> !torch.vtensor<[1280,1280],f32>
    %4854 = torch.aten.mm %4852, %4853 : !torch.vtensor<[64,1280],f32>, !torch.vtensor<[1280,1280],f32> -> !torch.vtensor<[64,1280],f32>
    %int1_5230 = torch.constant.int 1
    %4855 = torch.aten.mul.Scalar %4854, %int1_5230 : !torch.vtensor<[64,1280],f32>, !torch.int -> !torch.vtensor<[64,1280],f32>
    %int1_5231 = torch.constant.int 1
    %4856 = torch.aten.mul.Scalar %4851, %int1_5231 : !torch.vtensor<[1280],f32>, !torch.int -> !torch.vtensor<[1280],f32>
    %int1_5232 = torch.constant.int 1
    %4857 = torch.aten.add.Tensor %4855, %4856, %int1_5232 : !torch.vtensor<[64,1280],f32>, !torch.vtensor<[1280],f32>, !torch.int -> !torch.vtensor<[64,1280],f32>
    %int5_5233 = torch.constant.int 5
    %4858 = torch.prims.convert_element_type %4857, %int5_5233 : !torch.vtensor<[64,1280],f32>, !torch.int -> !torch.vtensor<[64,1280],f16>
    %int1_5234 = torch.constant.int 1
    %int64_5235 = torch.constant.int 64
    %int1280_5236 = torch.constant.int 1280
    %4859 = torch.prim.ListConstruct %int1_5234, %int64_5235, %int1280_5236 : (!torch.int, !torch.int, !torch.int) -> !torch.list<int>
    %4860 = torch.aten.view %4858, %4859 : !torch.vtensor<[64,1280],f16>, !torch.list<int> -> !torch.vtensor<[1,64,1280],f16>
    %float1.250000e-01_5237 = torch.constant.float 1.250000e-01
    %4861 = torch.aten.mul.Scalar %4860, %float1.250000e-01_5237 : !torch.vtensor<[1,64,1280],f16>, !torch.float -> !torch.vtensor<[1,64,1280],f16>
    %int64_5238 = torch.constant.int 64
    %int1280_5239 = torch.constant.int 1280
    %4862 = torch.prim.ListConstruct %int64_5238, %int1280_5239 : (!torch.int, !torch.int) -> !torch.list<int>
    %4863 = torch.aten.view %4843, %4862 : !torch.vtensor<[1,64,1280],f16>, !torch.list<int> -> !torch.vtensor<[64,1280],f16>
    %_params.text_encoder_model.text_model.encoder.layers.31.self_attn.k_proj.weight = util.global.load @_params.text_encoder_model.text_model.encoder.layers.31.self_attn.k_proj.weight : tensor<1280x1280xf16>
    %4864 = torch_c.from_builtin_tensor %_params.text_encoder_model.text_model.encoder.layers.31.self_attn.k_proj.weight : tensor<1280x1280xf16> -> !torch.vtensor<[1280,1280],f16>
    %int0_5240 = torch.constant.int 0
    %int1_5241 = torch.constant.int 1
    %4865 = torch.aten.transpose.int %4864, %int0_5240, %int1_5241 : !torch.vtensor<[1280,1280],f16>, !torch.int, !torch.int -> !torch.vtensor<[1280,1280],f16>
    %_params.text_encoder_model.text_model.encoder.layers.31.self_attn.k_proj.bias = util.global.load @_params.text_encoder_model.text_model.encoder.layers.31.self_attn.k_proj.bias : tensor<1280xf16>
    %4866 = torch_c.from_builtin_tensor %_params.text_encoder_model.text_model.encoder.layers.31.self_attn.k_proj.bias : tensor<1280xf16> -> !torch.vtensor<[1280],f16>
    %int6_5242 = torch.constant.int 6
    %4867 = torch.prims.convert_element_type %4866, %int6_5242 : !torch.vtensor<[1280],f16>, !torch.int -> !torch.vtensor<[1280],f32>
    %int6_5243 = torch.constant.int 6
    %4868 = torch.prims.convert_element_type %4863, %int6_5243 : !torch.vtensor<[64,1280],f16>, !torch.int -> !torch.vtensor<[64,1280],f32>
    %int6_5244 = torch.constant.int 6
    %4869 = torch.prims.convert_element_type %4865, %int6_5244 : !torch.vtensor<[1280,1280],f16>, !torch.int -> !torch.vtensor<[1280,1280],f32>
    %4870 = torch.aten.mm %4868, %4869 : !torch.vtensor<[64,1280],f32>, !torch.vtensor<[1280,1280],f32> -> !torch.vtensor<[64,1280],f32>
    %int1_5245 = torch.constant.int 1
    %4871 = torch.aten.mul.Scalar %4870, %int1_5245 : !torch.vtensor<[64,1280],f32>, !torch.int -> !torch.vtensor<[64,1280],f32>
    %int1_5246 = torch.constant.int 1
    %4872 = torch.aten.mul.Scalar %4867, %int1_5246 : !torch.vtensor<[1280],f32>, !torch.int -> !torch.vtensor<[1280],f32>
    %int1_5247 = torch.constant.int 1
    %4873 = torch.aten.add.Tensor %4871, %4872, %int1_5247 : !torch.vtensor<[64,1280],f32>, !torch.vtensor<[1280],f32>, !torch.int -> !torch.vtensor<[64,1280],f32>
    %int5_5248 = torch.constant.int 5
    %4874 = torch.prims.convert_element_type %4873, %int5_5248 : !torch.vtensor<[64,1280],f32>, !torch.int -> !torch.vtensor<[64,1280],f16>
    %int1_5249 = torch.constant.int 1
    %int64_5250 = torch.constant.int 64
    %int1280_5251 = torch.constant.int 1280
    %4875 = torch.prim.ListConstruct %int1_5249, %int64_5250, %int1280_5251 : (!torch.int, !torch.int, !torch.int) -> !torch.list<int>
    %4876 = torch.aten.view %4874, %4875 : !torch.vtensor<[64,1280],f16>, !torch.list<int> -> !torch.vtensor<[1,64,1280],f16>
    %int1_5252 = torch.constant.int 1
    %int-1_5253 = torch.constant.int -1
    %int20_5254 = torch.constant.int 20
    %int64_5255 = torch.constant.int 64
    %4877 = torch.prim.ListConstruct %int1_5252, %int-1_5253, %int20_5254, %int64_5255 : (!torch.int, !torch.int, !torch.int, !torch.int) -> !torch.list<int>
    %4878 = torch.aten.view %4876, %4877 : !torch.vtensor<[1,64,1280],f16>, !torch.list<int> -> !torch.vtensor<[1,64,20,64],f16>
    %int1_5256 = torch.constant.int 1
    %int2_5257 = torch.constant.int 2
    %4879 = torch.aten.transpose.int %4878, %int1_5256, %int2_5257 : !torch.vtensor<[1,64,20,64],f16>, !torch.int, !torch.int -> !torch.vtensor<[1,20,64,64],f16>
    %int0_5258 = torch.constant.int 0
    %4880 = torch.aten.clone %4879, %int0_5258 : !torch.vtensor<[1,20,64,64],f16>, !torch.int -> !torch.vtensor<[1,20,64,64],f16>
    %int64_5259 = torch.constant.int 64
    %int1280_5260 = torch.constant.int 1280
    %4881 = torch.prim.ListConstruct %int64_5259, %int1280_5260 : (!torch.int, !torch.int) -> !torch.list<int>
    %4882 = torch.aten.view %4843, %4881 : !torch.vtensor<[1,64,1280],f16>, !torch.list<int> -> !torch.vtensor<[64,1280],f16>
    %_params.text_encoder_model.text_model.encoder.layers.31.self_attn.v_proj.weight = util.global.load @_params.text_encoder_model.text_model.encoder.layers.31.self_attn.v_proj.weight : tensor<1280x1280xf16>
    %4883 = torch_c.from_builtin_tensor %_params.text_encoder_model.text_model.encoder.layers.31.self_attn.v_proj.weight : tensor<1280x1280xf16> -> !torch.vtensor<[1280,1280],f16>
    %int0_5261 = torch.constant.int 0
    %int1_5262 = torch.constant.int 1
    %4884 = torch.aten.transpose.int %4883, %int0_5261, %int1_5262 : !torch.vtensor<[1280,1280],f16>, !torch.int, !torch.int -> !torch.vtensor<[1280,1280],f16>
    %_params.text_encoder_model.text_model.encoder.layers.31.self_attn.v_proj.bias = util.global.load @_params.text_encoder_model.text_model.encoder.layers.31.self_attn.v_proj.bias : tensor<1280xf16>
    %4885 = torch_c.from_builtin_tensor %_params.text_encoder_model.text_model.encoder.layers.31.self_attn.v_proj.bias : tensor<1280xf16> -> !torch.vtensor<[1280],f16>
    %int6_5263 = torch.constant.int 6
    %4886 = torch.prims.convert_element_type %4885, %int6_5263 : !torch.vtensor<[1280],f16>, !torch.int -> !torch.vtensor<[1280],f32>
    %int6_5264 = torch.constant.int 6
    %4887 = torch.prims.convert_element_type %4882, %int6_5264 : !torch.vtensor<[64,1280],f16>, !torch.int -> !torch.vtensor<[64,1280],f32>
    %int6_5265 = torch.constant.int 6
    %4888 = torch.prims.convert_element_type %4884, %int6_5265 : !torch.vtensor<[1280,1280],f16>, !torch.int -> !torch.vtensor<[1280,1280],f32>
    %4889 = torch.aten.mm %4887, %4888 : !torch.vtensor<[64,1280],f32>, !torch.vtensor<[1280,1280],f32> -> !torch.vtensor<[64,1280],f32>
    %int1_5266 = torch.constant.int 1
    %4890 = torch.aten.mul.Scalar %4889, %int1_5266 : !torch.vtensor<[64,1280],f32>, !torch.int -> !torch.vtensor<[64,1280],f32>
    %int1_5267 = torch.constant.int 1
    %4891 = torch.aten.mul.Scalar %4886, %int1_5267 : !torch.vtensor<[1280],f32>, !torch.int -> !torch.vtensor<[1280],f32>
    %int1_5268 = torch.constant.int 1
    %4892 = torch.aten.add.Tensor %4890, %4891, %int1_5268 : !torch.vtensor<[64,1280],f32>, !torch.vtensor<[1280],f32>, !torch.int -> !torch.vtensor<[64,1280],f32>
    %int5_5269 = torch.constant.int 5
    %4893 = torch.prims.convert_element_type %4892, %int5_5269 : !torch.vtensor<[64,1280],f32>, !torch.int -> !torch.vtensor<[64,1280],f16>
    %int1_5270 = torch.constant.int 1
    %int64_5271 = torch.constant.int 64
    %int1280_5272 = torch.constant.int 1280
    %4894 = torch.prim.ListConstruct %int1_5270, %int64_5271, %int1280_5272 : (!torch.int, !torch.int, !torch.int) -> !torch.list<int>
    %4895 = torch.aten.view %4893, %4894 : !torch.vtensor<[64,1280],f16>, !torch.list<int> -> !torch.vtensor<[1,64,1280],f16>
    %int1_5273 = torch.constant.int 1
    %int-1_5274 = torch.constant.int -1
    %int20_5275 = torch.constant.int 20
    %int64_5276 = torch.constant.int 64
    %4896 = torch.prim.ListConstruct %int1_5273, %int-1_5274, %int20_5275, %int64_5276 : (!torch.int, !torch.int, !torch.int, !torch.int) -> !torch.list<int>
    %4897 = torch.aten.view %4895, %4896 : !torch.vtensor<[1,64,1280],f16>, !torch.list<int> -> !torch.vtensor<[1,64,20,64],f16>
    %int1_5277 = torch.constant.int 1
    %int2_5278 = torch.constant.int 2
    %4898 = torch.aten.transpose.int %4897, %int1_5277, %int2_5278 : !torch.vtensor<[1,64,20,64],f16>, !torch.int, !torch.int -> !torch.vtensor<[1,20,64,64],f16>
    %int0_5279 = torch.constant.int 0
    %4899 = torch.aten.clone %4898, %int0_5279 : !torch.vtensor<[1,20,64,64],f16>, !torch.int -> !torch.vtensor<[1,20,64,64],f16>
    %int1_5280 = torch.constant.int 1
    %int64_5281 = torch.constant.int 64
    %int20_5282 = torch.constant.int 20
    %int64_5283 = torch.constant.int 64
    %4900 = torch.prim.ListConstruct %int1_5280, %int64_5281, %int20_5282, %int64_5283 : (!torch.int, !torch.int, !torch.int, !torch.int) -> !torch.list<int>
    %4901 = torch.aten.view %4861, %4900 : !torch.vtensor<[1,64,1280],f16>, !torch.list<int> -> !torch.vtensor<[1,64,20,64],f16>
    %int1_5284 = torch.constant.int 1
    %int2_5285 = torch.constant.int 2
    %4902 = torch.aten.transpose.int %4901, %int1_5284, %int2_5285 : !torch.vtensor<[1,64,20,64],f16>, !torch.int, !torch.int -> !torch.vtensor<[1,20,64,64],f16>
    %int0_5286 = torch.constant.int 0
    %4903 = torch.aten.clone %4902, %int0_5286 : !torch.vtensor<[1,20,64,64],f16>, !torch.int -> !torch.vtensor<[1,20,64,64],f16>
    %int20_5287 = torch.constant.int 20
    %int-1_5288 = torch.constant.int -1
    %int64_5289 = torch.constant.int 64
    %4904 = torch.prim.ListConstruct %int20_5287, %int-1_5288, %int64_5289 : (!torch.int, !torch.int, !torch.int) -> !torch.list<int>
    %4905 = torch.aten.view %4903, %4904 : !torch.vtensor<[1,20,64,64],f16>, !torch.list<int> -> !torch.vtensor<[20,64,64],f16>
    %int20_5290 = torch.constant.int 20
    %int-1_5291 = torch.constant.int -1
    %int64_5292 = torch.constant.int 64
    %4906 = torch.prim.ListConstruct %int20_5290, %int-1_5291, %int64_5292 : (!torch.int, !torch.int, !torch.int) -> !torch.list<int>
    %4907 = torch.aten.view %4880, %4906 : !torch.vtensor<[1,20,64,64],f16>, !torch.list<int> -> !torch.vtensor<[20,64,64],f16>
    %int20_5293 = torch.constant.int 20
    %int-1_5294 = torch.constant.int -1
    %int64_5295 = torch.constant.int 64
    %4908 = torch.prim.ListConstruct %int20_5293, %int-1_5294, %int64_5295 : (!torch.int, !torch.int, !torch.int) -> !torch.list<int>
    %4909 = torch.aten.view %4899, %4908 : !torch.vtensor<[1,20,64,64],f16>, !torch.list<int> -> !torch.vtensor<[20,64,64],f16>
    %int1_5296 = torch.constant.int 1
    %int2_5297 = torch.constant.int 2
    %4910 = torch.aten.transpose.int %4907, %int1_5296, %int2_5297 : !torch.vtensor<[20,64,64],f16>, !torch.int, !torch.int -> !torch.vtensor<[20,64,64],f16>
    %4911 = torch.aten.bmm %4905, %4910 : !torch.vtensor<[20,64,64],f16>, !torch.vtensor<[20,64,64],f16> -> !torch.vtensor<[20,64,64],f16>
    %int1_5298 = torch.constant.int 1
    %int20_5299 = torch.constant.int 20
    %int64_5300 = torch.constant.int 64
    %int64_5301 = torch.constant.int 64
    %4912 = torch.prim.ListConstruct %int1_5298, %int20_5299, %int64_5300, %int64_5301 : (!torch.int, !torch.int, !torch.int, !torch.int) -> !torch.list<int>
    %4913 = torch.aten.view %4911, %4912 : !torch.vtensor<[20,64,64],f16>, !torch.list<int> -> !torch.vtensor<[1,20,64,64],f16>
    %int1_5302 = torch.constant.int 1
    %4914 = torch.aten.add.Tensor %4913, %27, %int1_5302 : !torch.vtensor<[1,20,64,64],f16>, !torch.vtensor<[1,1,64,64],f16>, !torch.int -> !torch.vtensor<[1,20,64,64],f16>
    %int20_5303 = torch.constant.int 20
    %int64_5304 = torch.constant.int 64
    %int64_5305 = torch.constant.int 64
    %4915 = torch.prim.ListConstruct %int20_5303, %int64_5304, %int64_5305 : (!torch.int, !torch.int, !torch.int) -> !torch.list<int>
    %4916 = torch.aten.view %4914, %4915 : !torch.vtensor<[1,20,64,64],f16>, !torch.list<int> -> !torch.vtensor<[20,64,64],f16>
    %int-1_5306 = torch.constant.int -1
    %false_5307 = torch.constant.bool false
    %4917 = torch.aten._softmax %4916, %int-1_5306, %false_5307 : !torch.vtensor<[20,64,64],f16>, !torch.int, !torch.bool -> !torch.vtensor<[20,64,64],f16>
    %4918 = torch.aten.detach %4917 : !torch.vtensor<[20,64,64],f16> -> !torch.vtensor<[20,64,64],f16>
    %none_5308 = torch.constant.none
    %4919 = torch.aten.clone %4917, %none_5308 : !torch.vtensor<[20,64,64],f16>, !torch.none -> !torch.vtensor<[20,64,64],f16>
    %4920 = torch.aten.bmm %4919, %4909 : !torch.vtensor<[20,64,64],f16>, !torch.vtensor<[20,64,64],f16> -> !torch.vtensor<[20,64,64],f16>
    %int1_5309 = torch.constant.int 1
    %int20_5310 = torch.constant.int 20
    %int64_5311 = torch.constant.int 64
    %int64_5312 = torch.constant.int 64
    %4921 = torch.prim.ListConstruct %int1_5309, %int20_5310, %int64_5311, %int64_5312 : (!torch.int, !torch.int, !torch.int, !torch.int) -> !torch.list<int>
    %4922 = torch.aten.view %4920, %4921 : !torch.vtensor<[20,64,64],f16>, !torch.list<int> -> !torch.vtensor<[1,20,64,64],f16>
    %int1_5313 = torch.constant.int 1
    %int2_5314 = torch.constant.int 2
    %4923 = torch.aten.transpose.int %4922, %int1_5313, %int2_5314 : !torch.vtensor<[1,20,64,64],f16>, !torch.int, !torch.int -> !torch.vtensor<[1,64,20,64],f16>
    %int0_5315 = torch.constant.int 0
    %4924 = torch.aten.clone %4923, %int0_5315 : !torch.vtensor<[1,64,20,64],f16>, !torch.int -> !torch.vtensor<[1,64,20,64],f16>
    %int1_5316 = torch.constant.int 1
    %int64_5317 = torch.constant.int 64
    %int1280_5318 = torch.constant.int 1280
    %4925 = torch.prim.ListConstruct %int1_5316, %int64_5317, %int1280_5318 : (!torch.int, !torch.int, !torch.int) -> !torch.list<int>
    %4926 = torch.aten._unsafe_view %4924, %4925 : !torch.vtensor<[1,64,20,64],f16>, !torch.list<int> -> !torch.vtensor<[1,64,1280],f16>
    %int64_5319 = torch.constant.int 64
    %int1280_5320 = torch.constant.int 1280
    %4927 = torch.prim.ListConstruct %int64_5319, %int1280_5320 : (!torch.int, !torch.int) -> !torch.list<int>
    %4928 = torch.aten.view %4926, %4927 : !torch.vtensor<[1,64,1280],f16>, !torch.list<int> -> !torch.vtensor<[64,1280],f16>
    %_params.text_encoder_model.text_model.encoder.layers.31.self_attn.out_proj.weight = util.global.load @_params.text_encoder_model.text_model.encoder.layers.31.self_attn.out_proj.weight : tensor<1280x1280xf16>
    %4929 = torch_c.from_builtin_tensor %_params.text_encoder_model.text_model.encoder.layers.31.self_attn.out_proj.weight : tensor<1280x1280xf16> -> !torch.vtensor<[1280,1280],f16>
    %int0_5321 = torch.constant.int 0
    %int1_5322 = torch.constant.int 1
    %4930 = torch.aten.transpose.int %4929, %int0_5321, %int1_5322 : !torch.vtensor<[1280,1280],f16>, !torch.int, !torch.int -> !torch.vtensor<[1280,1280],f16>
    %_params.text_encoder_model.text_model.encoder.layers.31.self_attn.out_proj.bias = util.global.load @_params.text_encoder_model.text_model.encoder.layers.31.self_attn.out_proj.bias : tensor<1280xf16>
    %4931 = torch_c.from_builtin_tensor %_params.text_encoder_model.text_model.encoder.layers.31.self_attn.out_proj.bias : tensor<1280xf16> -> !torch.vtensor<[1280],f16>
    %int6_5323 = torch.constant.int 6
    %4932 = torch.prims.convert_element_type %4931, %int6_5323 : !torch.vtensor<[1280],f16>, !torch.int -> !torch.vtensor<[1280],f32>
    %int6_5324 = torch.constant.int 6
    %4933 = torch.prims.convert_element_type %4928, %int6_5324 : !torch.vtensor<[64,1280],f16>, !torch.int -> !torch.vtensor<[64,1280],f32>
    %int6_5325 = torch.constant.int 6
    %4934 = torch.prims.convert_element_type %4930, %int6_5325 : !torch.vtensor<[1280,1280],f16>, !torch.int -> !torch.vtensor<[1280,1280],f32>
    %4935 = torch.aten.mm %4933, %4934 : !torch.vtensor<[64,1280],f32>, !torch.vtensor<[1280,1280],f32> -> !torch.vtensor<[64,1280],f32>
    %int1_5326 = torch.constant.int 1
    %4936 = torch.aten.mul.Scalar %4935, %int1_5326 : !torch.vtensor<[64,1280],f32>, !torch.int -> !torch.vtensor<[64,1280],f32>
    %int1_5327 = torch.constant.int 1
    %4937 = torch.aten.mul.Scalar %4932, %int1_5327 : !torch.vtensor<[1280],f32>, !torch.int -> !torch.vtensor<[1280],f32>
    %int1_5328 = torch.constant.int 1
    %4938 = torch.aten.add.Tensor %4936, %4937, %int1_5328 : !torch.vtensor<[64,1280],f32>, !torch.vtensor<[1280],f32>, !torch.int -> !torch.vtensor<[64,1280],f32>
    %int5_5329 = torch.constant.int 5
    %4939 = torch.prims.convert_element_type %4938, %int5_5329 : !torch.vtensor<[64,1280],f32>, !torch.int -> !torch.vtensor<[64,1280],f16>
    %int1_5330 = torch.constant.int 1
    %int64_5331 = torch.constant.int 64
    %int1280_5332 = torch.constant.int 1280
    %4940 = torch.prim.ListConstruct %int1_5330, %int64_5331, %int1280_5332 : (!torch.int, !torch.int, !torch.int) -> !torch.list<int>
    %4941 = torch.aten.view %4939, %4940 : !torch.vtensor<[64,1280],f16>, !torch.list<int> -> !torch.vtensor<[1,64,1280],f16>
    %int1_5333 = torch.constant.int 1
    %4942 = torch.aten.add.Tensor %4832, %4941, %int1_5333 : !torch.vtensor<[1,64,1280],f16>, !torch.vtensor<[1,64,1280],f16>, !torch.int -> !torch.vtensor<[1,64,1280],f16>
    %int6_5334 = torch.constant.int 6
    %4943 = torch.prims.convert_element_type %4942, %int6_5334 : !torch.vtensor<[1,64,1280],f16>, !torch.int -> !torch.vtensor<[1,64,1280],f32>
    %int2_5335 = torch.constant.int 2
    %4944 = torch.prim.ListConstruct %int2_5335 : (!torch.int) -> !torch.list<int>
    %int0_5336 = torch.constant.int 0
    %true_5337 = torch.constant.bool true
    %result0_5338, %result1_5339 = torch.aten.var_mean.correction %4943, %4944, %int0_5336, %true_5337 : !torch.vtensor<[1,64,1280],f32>, !torch.list<int>, !torch.int, !torch.bool -> !torch.vtensor<[1,64,1],f32>, !torch.vtensor<[1,64,1],f32>
    %float1.000000e-05_5340 = torch.constant.float 1.000000e-05
    %int1_5341 = torch.constant.int 1
    %4945 = torch.aten.add.Scalar %result0_5338, %float1.000000e-05_5340, %int1_5341 : !torch.vtensor<[1,64,1],f32>, !torch.float, !torch.int -> !torch.vtensor<[1,64,1],f32>
    %4946 = torch.aten.rsqrt %4945 : !torch.vtensor<[1,64,1],f32> -> !torch.vtensor<[1,64,1],f32>
    %int1_5342 = torch.constant.int 1
    %4947 = torch.aten.sub.Tensor %4942, %result1_5339, %int1_5342 : !torch.vtensor<[1,64,1280],f16>, !torch.vtensor<[1,64,1],f32>, !torch.int -> !torch.vtensor<[1,64,1280],f32>
    %4948 = torch.aten.mul.Tensor %4947, %4946 : !torch.vtensor<[1,64,1280],f32>, !torch.vtensor<[1,64,1],f32> -> !torch.vtensor<[1,64,1280],f32>
    %_params.text_encoder_model.text_model.encoder.layers.31.layer_norm2.weight = util.global.load @_params.text_encoder_model.text_model.encoder.layers.31.layer_norm2.weight : tensor<1280xf16>
    %4949 = torch_c.from_builtin_tensor %_params.text_encoder_model.text_model.encoder.layers.31.layer_norm2.weight : tensor<1280xf16> -> !torch.vtensor<[1280],f16>
    %4950 = torch.aten.mul.Tensor %4948, %4949 : !torch.vtensor<[1,64,1280],f32>, !torch.vtensor<[1280],f16> -> !torch.vtensor<[1,64,1280],f32>
    %_params.text_encoder_model.text_model.encoder.layers.31.layer_norm2.bias = util.global.load @_params.text_encoder_model.text_model.encoder.layers.31.layer_norm2.bias : tensor<1280xf16>
    %4951 = torch_c.from_builtin_tensor %_params.text_encoder_model.text_model.encoder.layers.31.layer_norm2.bias : tensor<1280xf16> -> !torch.vtensor<[1280],f16>
    %int1_5343 = torch.constant.int 1
    %4952 = torch.aten.add.Tensor %4950, %4951, %int1_5343 : !torch.vtensor<[1,64,1280],f32>, !torch.vtensor<[1280],f16>, !torch.int -> !torch.vtensor<[1,64,1280],f32>
    %int5_5344 = torch.constant.int 5
    %4953 = torch.prims.convert_element_type %4952, %int5_5344 : !torch.vtensor<[1,64,1280],f32>, !torch.int -> !torch.vtensor<[1,64,1280],f16>
    %int5_5345 = torch.constant.int 5
    %4954 = torch.prims.convert_element_type %result1_5339, %int5_5345 : !torch.vtensor<[1,64,1],f32>, !torch.int -> !torch.vtensor<[1,64,1],f16>
    %int5_5346 = torch.constant.int 5
    %4955 = torch.prims.convert_element_type %4946, %int5_5346 : !torch.vtensor<[1,64,1],f32>, !torch.int -> !torch.vtensor<[1,64,1],f16>
    %int64_5347 = torch.constant.int 64
    %int1280_5348 = torch.constant.int 1280
    %4956 = torch.prim.ListConstruct %int64_5347, %int1280_5348 : (!torch.int, !torch.int) -> !torch.list<int>
    %4957 = torch.aten.view %4953, %4956 : !torch.vtensor<[1,64,1280],f16>, !torch.list<int> -> !torch.vtensor<[64,1280],f16>
    %_params.text_encoder_model.text_model.encoder.layers.31.mlp.fc1.weight = util.global.load @_params.text_encoder_model.text_model.encoder.layers.31.mlp.fc1.weight : tensor<5120x1280xf16>
    %4958 = torch_c.from_builtin_tensor %_params.text_encoder_model.text_model.encoder.layers.31.mlp.fc1.weight : tensor<5120x1280xf16> -> !torch.vtensor<[5120,1280],f16>
    %int0_5349 = torch.constant.int 0
    %int1_5350 = torch.constant.int 1
    %4959 = torch.aten.transpose.int %4958, %int0_5349, %int1_5350 : !torch.vtensor<[5120,1280],f16>, !torch.int, !torch.int -> !torch.vtensor<[1280,5120],f16>
    %_params.text_encoder_model.text_model.encoder.layers.31.mlp.fc1.bias = util.global.load @_params.text_encoder_model.text_model.encoder.layers.31.mlp.fc1.bias : tensor<5120xf16>
    %4960 = torch_c.from_builtin_tensor %_params.text_encoder_model.text_model.encoder.layers.31.mlp.fc1.bias : tensor<5120xf16> -> !torch.vtensor<[5120],f16>
    %int6_5351 = torch.constant.int 6
    %4961 = torch.prims.convert_element_type %4960, %int6_5351 : !torch.vtensor<[5120],f16>, !torch.int -> !torch.vtensor<[5120],f32>
    %int6_5352 = torch.constant.int 6
    %4962 = torch.prims.convert_element_type %4957, %int6_5352 : !torch.vtensor<[64,1280],f16>, !torch.int -> !torch.vtensor<[64,1280],f32>
    %int6_5353 = torch.constant.int 6
    %4963 = torch.prims.convert_element_type %4959, %int6_5353 : !torch.vtensor<[1280,5120],f16>, !torch.int -> !torch.vtensor<[1280,5120],f32>
    %4964 = torch.aten.mm %4962, %4963 : !torch.vtensor<[64,1280],f32>, !torch.vtensor<[1280,5120],f32> -> !torch.vtensor<[64,5120],f32>
    %int1_5354 = torch.constant.int 1
    %4965 = torch.aten.mul.Scalar %4964, %int1_5354 : !torch.vtensor<[64,5120],f32>, !torch.int -> !torch.vtensor<[64,5120],f32>
    %int1_5355 = torch.constant.int 1
    %4966 = torch.aten.mul.Scalar %4961, %int1_5355 : !torch.vtensor<[5120],f32>, !torch.int -> !torch.vtensor<[5120],f32>
    %int1_5356 = torch.constant.int 1
    %4967 = torch.aten.add.Tensor %4965, %4966, %int1_5356 : !torch.vtensor<[64,5120],f32>, !torch.vtensor<[5120],f32>, !torch.int -> !torch.vtensor<[64,5120],f32>
    %int5_5357 = torch.constant.int 5
    %4968 = torch.prims.convert_element_type %4967, %int5_5357 : !torch.vtensor<[64,5120],f32>, !torch.int -> !torch.vtensor<[64,5120],f16>
    %int1_5358 = torch.constant.int 1
    %int64_5359 = torch.constant.int 64
    %int5120_5360 = torch.constant.int 5120
    %4969 = torch.prim.ListConstruct %int1_5358, %int64_5359, %int5120_5360 : (!torch.int, !torch.int, !torch.int) -> !torch.list<int>
    %4970 = torch.aten.view %4968, %4969 : !torch.vtensor<[64,5120],f16>, !torch.list<int> -> !torch.vtensor<[1,64,5120],f16>
    %str_5361 = torch.constant.str "none"
    %4971 = torch.aten.gelu %4970, %str_5361 : !torch.vtensor<[1,64,5120],f16>, !torch.str -> !torch.vtensor<[1,64,5120],f16>
    %int64_5362 = torch.constant.int 64
    %int5120_5363 = torch.constant.int 5120
    %4972 = torch.prim.ListConstruct %int64_5362, %int5120_5363 : (!torch.int, !torch.int) -> !torch.list<int>
    %4973 = torch.aten.view %4971, %4972 : !torch.vtensor<[1,64,5120],f16>, !torch.list<int> -> !torch.vtensor<[64,5120],f16>
    %_params.text_encoder_model.text_model.encoder.layers.31.mlp.fc2.weight = util.global.load @_params.text_encoder_model.text_model.encoder.layers.31.mlp.fc2.weight : tensor<1280x5120xf16>
    %4974 = torch_c.from_builtin_tensor %_params.text_encoder_model.text_model.encoder.layers.31.mlp.fc2.weight : tensor<1280x5120xf16> -> !torch.vtensor<[1280,5120],f16>
    %int0_5364 = torch.constant.int 0
    %int1_5365 = torch.constant.int 1
    %4975 = torch.aten.transpose.int %4974, %int0_5364, %int1_5365 : !torch.vtensor<[1280,5120],f16>, !torch.int, !torch.int -> !torch.vtensor<[5120,1280],f16>
    %_params.text_encoder_model.text_model.encoder.layers.31.mlp.fc2.bias = util.global.load @_params.text_encoder_model.text_model.encoder.layers.31.mlp.fc2.bias : tensor<1280xf16>
    %4976 = torch_c.from_builtin_tensor %_params.text_encoder_model.text_model.encoder.layers.31.mlp.fc2.bias : tensor<1280xf16> -> !torch.vtensor<[1280],f16>
    %int6_5366 = torch.constant.int 6
    %4977 = torch.prims.convert_element_type %4976, %int6_5366 : !torch.vtensor<[1280],f16>, !torch.int -> !torch.vtensor<[1280],f32>
    %int6_5367 = torch.constant.int 6
    %4978 = torch.prims.convert_element_type %4973, %int6_5367 : !torch.vtensor<[64,5120],f16>, !torch.int -> !torch.vtensor<[64,5120],f32>
    %int6_5368 = torch.constant.int 6
    %4979 = torch.prims.convert_element_type %4975, %int6_5368 : !torch.vtensor<[5120,1280],f16>, !torch.int -> !torch.vtensor<[5120,1280],f32>
    %4980 = torch.aten.mm %4978, %4979 : !torch.vtensor<[64,5120],f32>, !torch.vtensor<[5120,1280],f32> -> !torch.vtensor<[64,1280],f32>
    %int1_5369 = torch.constant.int 1
    %4981 = torch.aten.mul.Scalar %4980, %int1_5369 : !torch.vtensor<[64,1280],f32>, !torch.int -> !torch.vtensor<[64,1280],f32>
    %int1_5370 = torch.constant.int 1
    %4982 = torch.aten.mul.Scalar %4977, %int1_5370 : !torch.vtensor<[1280],f32>, !torch.int -> !torch.vtensor<[1280],f32>
    %int1_5371 = torch.constant.int 1
    %4983 = torch.aten.add.Tensor %4981, %4982, %int1_5371 : !torch.vtensor<[64,1280],f32>, !torch.vtensor<[1280],f32>, !torch.int -> !torch.vtensor<[64,1280],f32>
    %int5_5372 = torch.constant.int 5
    %4984 = torch.prims.convert_element_type %4983, %int5_5372 : !torch.vtensor<[64,1280],f32>, !torch.int -> !torch.vtensor<[64,1280],f16>
    %int1_5373 = torch.constant.int 1
    %int64_5374 = torch.constant.int 64
    %int1280_5375 = torch.constant.int 1280
    %4985 = torch.prim.ListConstruct %int1_5373, %int64_5374, %int1280_5375 : (!torch.int, !torch.int, !torch.int) -> !torch.list<int>
    %4986 = torch.aten.view %4984, %4985 : !torch.vtensor<[64,1280],f16>, !torch.list<int> -> !torch.vtensor<[1,64,1280],f16>
    %int1_5376 = torch.constant.int 1
    %4987 = torch.aten.add.Tensor %4942, %4986, %int1_5376 : !torch.vtensor<[1,64,1280],f16>, !torch.vtensor<[1,64,1280],f16>, !torch.int -> !torch.vtensor<[1,64,1280],f16>
    %int6_5377 = torch.constant.int 6
    %4988 = torch.prims.convert_element_type %4987, %int6_5377 : !torch.vtensor<[1,64,1280],f16>, !torch.int -> !torch.vtensor<[1,64,1280],f32>
    %int2_5378 = torch.constant.int 2
    %4989 = torch.prim.ListConstruct %int2_5378 : (!torch.int) -> !torch.list<int>
    %int0_5379 = torch.constant.int 0
    %true_5380 = torch.constant.bool true
    %result0_5381, %result1_5382 = torch.aten.var_mean.correction %4988, %4989, %int0_5379, %true_5380 : !torch.vtensor<[1,64,1280],f32>, !torch.list<int>, !torch.int, !torch.bool -> !torch.vtensor<[1,64,1],f32>, !torch.vtensor<[1,64,1],f32>
    %float1.000000e-05_5383 = torch.constant.float 1.000000e-05
    %int1_5384 = torch.constant.int 1
    %4990 = torch.aten.add.Scalar %result0_5381, %float1.000000e-05_5383, %int1_5384 : !torch.vtensor<[1,64,1],f32>, !torch.float, !torch.int -> !torch.vtensor<[1,64,1],f32>
    %4991 = torch.aten.rsqrt %4990 : !torch.vtensor<[1,64,1],f32> -> !torch.vtensor<[1,64,1],f32>
    %int1_5385 = torch.constant.int 1
    %4992 = torch.aten.sub.Tensor %4987, %result1_5382, %int1_5385 : !torch.vtensor<[1,64,1280],f16>, !torch.vtensor<[1,64,1],f32>, !torch.int -> !torch.vtensor<[1,64,1280],f32>
    %4993 = torch.aten.mul.Tensor %4992, %4991 : !torch.vtensor<[1,64,1280],f32>, !torch.vtensor<[1,64,1],f32> -> !torch.vtensor<[1,64,1280],f32>
    %_params.text_encoder_model.text_model.final_layer_norm.weight = util.global.load @_params.text_encoder_model.text_model.final_layer_norm.weight : tensor<1280xf16>
    %4994 = torch_c.from_builtin_tensor %_params.text_encoder_model.text_model.final_layer_norm.weight : tensor<1280xf16> -> !torch.vtensor<[1280],f16>
    %4995 = torch.aten.mul.Tensor %4993, %4994 : !torch.vtensor<[1,64,1280],f32>, !torch.vtensor<[1280],f16> -> !torch.vtensor<[1,64,1280],f32>
    %_params.text_encoder_model.text_model.final_layer_norm.bias = util.global.load @_params.text_encoder_model.text_model.final_layer_norm.bias : tensor<1280xf16>
    %4996 = torch_c.from_builtin_tensor %_params.text_encoder_model.text_model.final_layer_norm.bias : tensor<1280xf16> -> !torch.vtensor<[1280],f16>
    %int1_5386 = torch.constant.int 1
    %4997 = torch.aten.add.Tensor %4995, %4996, %int1_5386 : !torch.vtensor<[1,64,1280],f32>, !torch.vtensor<[1280],f16>, !torch.int -> !torch.vtensor<[1,64,1280],f32>
    %int5_5387 = torch.constant.int 5
    %4998 = torch.prims.convert_element_type %4997, %int5_5387 : !torch.vtensor<[1,64,1280],f32>, !torch.int -> !torch.vtensor<[1,64,1280],f16>
    %int5_5388 = torch.constant.int 5
    %4999 = torch.prims.convert_element_type %result1_5382, %int5_5388 : !torch.vtensor<[1,64,1],f32>, !torch.int -> !torch.vtensor<[1,64,1],f16>
    %int5_5389 = torch.constant.int 5
    %5000 = torch.prims.convert_element_type %4991, %int5_5389 : !torch.vtensor<[1,64,1],f32>, !torch.int -> !torch.vtensor<[1,64,1],f16>
    %int1_5390 = torch.constant.int 1
    %none_5391 = torch.constant.none
    %none_5392 = torch.constant.none
    %cpu_5393 = torch.constant.device "cpu"
    %false_5394 = torch.constant.bool false
    %5001 = torch.aten.arange %int1_5390, %none_5391, %none_5392, %cpu_5393, %false_5394 : !torch.int, !torch.none, !torch.none, !torch.Device, !torch.bool -> !torch.vtensor<[1],si64>
    %int3_5395 = torch.constant.int 3
    %5002 = torch.prims.convert_element_type %1, %int3_5395 : !torch.vtensor<[1,64],si64>, !torch.int -> !torch.vtensor<[1,64],si32>
    %int-1_5396 = torch.constant.int -1
    %false_5397 = torch.constant.bool false
    %5003 = torch.aten.argmax %5002, %int-1_5396, %false_5397 : !torch.vtensor<[1,64],si32>, !torch.int, !torch.bool -> !torch.vtensor<[1],si64>
    %5004 = torch.prim.ListConstruct %5001, %5003 : (!torch.vtensor<[1],si64>, !torch.vtensor<[1],si64>) -> !torch.list<optional<vtensor>>
    %5005 = torch.aten.index.Tensor %4998, %5004 : !torch.vtensor<[1,64,1280],f16>, !torch.list<optional<vtensor>> -> !torch.vtensor<[1,1280],f16>
    %_params.text_encoder_model.text_projection.weight = util.global.load @_params.text_encoder_model.text_projection.weight : tensor<1280x1280xf16>
    %5006 = torch_c.from_builtin_tensor %_params.text_encoder_model.text_projection.weight : tensor<1280x1280xf16> -> !torch.vtensor<[1280,1280],f16>
    %int0_5398 = torch.constant.int 0
    %int1_5399 = torch.constant.int 1
    %5007 = torch.aten.transpose.int %5006, %int0_5398, %int1_5399 : !torch.vtensor<[1280,1280],f16>, !torch.int, !torch.int -> !torch.vtensor<[1280,1280],f16>
    %5008 = torch.aten.mm %5005, %5007 : !torch.vtensor<[1,1280],f16>, !torch.vtensor<[1280,1280],f16> -> !torch.vtensor<[1,1280],f16>
    return %4832, %5008 : !torch.vtensor<[1,64,1280],f16>, !torch.vtensor<[1,1280],f16>
  }
}

{-#
  dialect_resources: {
    builtin: {
      torch_tensor_1_77_torch.int64: "…"
    }
  }
#-}
